models/obsoletos/sudoku_ltn_4x4.pth (torch, 286386 bytes, 42 tensors)

network.0.weight f4 [128, 4]
-0.2619949 -0.3789009 -0.32730442 -0.32065403 0.2486288 0.2056412 -0.4337395 0.09697584
0.35429627 0.2282354 0.030405918 0.2979016 0.27095267 0.18243992 0.23091885 0.03556583
-0.33513615 0.067901365 -0.34096038 0.034087844 0.017881239 0.07944937 -0.23592839 0.4211149
0.024113068 0.33683303 -0.24215172 0.20358008 0.49600697 -0.17187026 0.06955576 -0.23426141
-0.16153991 0.048315275 -0.21147203 -0.043230962 0.5511974 -0.008377006 -0.39828742 -0.40635395
0.3122967 0.23640083 0.36509347 0.31454188 -0.0074099503 0.3556957 -0.09569717 0.5023386
-0.032233298 -0.29902804 -0.3775103 -0.11511034 -0.16936941 0.095008135 -0.18836643 0.28050795
0.052502442 -0.3223969 0.19754246 0.56633466 -0.16479728 0.007203572 -0.32627356 0.2901827
-0.31642 -0.017733978 0.44996965 0.44898832 0.35268593 -0.11541792 -0.2554444 -0.19337374
0.37115964 -0.087873526 0.5508124 0.19036928 0.1377775 0.17141551 -0.41871595 -0.026408851
-0.085769825 -0.310363 0.17816004 0.22887155 0.18323044 0.059537962 0.3673517 0.017117852
0.332273 -0.40537167 0.2906304 0.49352282 -0.031863984 -0.026432283 -0.07477623 0.6548773
-0.29402256 -0.35126954 0.14458191 0.15678248 -0.42168832 0.024411619 -0.24479228 -0.36428648
-0.02997328 -0.10982107 0.48011523 0.32803693 0.38434267 0.46257862 0.14350249 0.392528
0.25013888 0.44970313 -0.1857348 -0.21477021 -0.2045765 -0.33645335 0.0037842123 -0.19780271
-0.12683663 0.28406757 -0.1715107 0.34368512 -0.21689324 0.18440779 -0.38225278 -0.055142973
-0.34836653 0.26425987 0.043767713 0.3546608 0.22402565 -0.32549763 0.45116368 0.013964743
0.27266344 0.06183631 0.08212127 -0.08322053 0.395088 -0.11490533 -0.11701249 0.22912511
0.5429882 0.029867288 0.35940373 -0.30080774 0.0523656 0.16474073 0.19615299 0.24611571
-0.3092236 -0.1543188 0.2374915 0.3285499 0.031071454 0.0061647547 -0.37521577 0.41804668
0.113865875 0.43849644 0.38340542 0.5043942 0.40830612 0.058669917 -0.028638039 0.12125077
0.18312429 0.5204484 0.5068237 -0.42036575 -0.28677556 0.4740585 0.050373074 0.24039127
-0.16341859 0.30120954 -0.32112354 -0.1614152 0.36915532 0.4557751 -0.10991956 -0.26006004
0.22910094 -0.18779086 -0.48418802 -0.4970941 -0.0544824 -0.1688745 -0.103003025 -0.13732731
0.11077525 -0.07575812 0.47715196 0.3542424 -0.4388979 -0.07942313 -0.47802067 -0.0822556
0.48899528 0.20146722 -0.22939326 0.40912902 0.021848202 -0.46507245 0.00026273727 -0.10990757
-0.24835023 0.15870368 -0.3047439 0.20211156 -0.28544068 -0.008567274 0.4004081 -0.21390766
0.074263245 0.06731469 0.38248354 0.45072788 0.28661397 -0.31202903 0.2119917 0.26051855
-0.02388004 0.04676154 0.47457567 -0.04598923 0.16146111 0.005932033 -0.09609455 -0.35806322
-0.15549546 -0.15557271 -0.3241387 -0.48149365 0.24860427 0.23725818 -0.47751948 -0.3374695
-0.068667874 0.26446474 0.2462118 -0.13758972 0.2666861 -0.18091735 -0.12805602 0.20996158
0.37621042 -0.2837582 0.30535048 -0.05441523 0.15847221 -0.061248563 0.06399657 0.32910568
00000000: 3224 86be 4cff c1be 7294 a7be c42c a4be
00000010: 8c98 7e3e 9b93 523e 1b13 debe 459b c63d
00000020: 5266 b53e 8ab6 693e d515 f93c 8f86 983e
00000030: 4fba 8a3e 88d1 3a3e fe75 6c3e 7aad 113d
00000040: f796 abbe df0f 8b3d 5c92 aebe b29f 0b3d
00000050: ad7b 923c 5ab6 a23d 3697 71be 5f9c d73e
00000060: c588 c53c 6175 ac3e 9ff6 77be 4c77 503e
00000070: a0f4 fd3e c2fe 2fbe 4073 8e3d 39e2 6fbe
00000080: b86a 25be 3de6 453d 208c 58be f312 31bd
00000090: 461b 0d3f b63f 09bc 54ec cbbe a00d d0be
000000a0: 5ae5 9f3e 0f13 723e 88ed ba3e a20b a13e
000000b0: 2bcf f2bb bf1d b63e e1fc c3bd 4399 003f
000000c0: 1007 04bd 341a 99be 0849 c1be f8be ebbd
000000d0: 2d6f 2dbe a093 c23d 21e3 40be bd9e 8f3e
000000e0: cd0c 573d 3511 a5be 9248 4a3e 4ffb 103f
000000f0: 9ec0 28be f10b ec3b 540d a7be d492 943e
00000100: cd01 a2be d946 91bc 6c62 e63e cce1 e53e
00000110: 4093 b43e 3b60 ecbd 9cc9 82be c403 46be
00000120: a308 be3e 09f7 b3bd 0b02 0d3f 2af0 423e
00000130: 8c15 0d3e 8c87 2f3e f061 d6be 6057 d8bc
00000140: 17a8 afbd e6e7 9ebe 966f 363e 4e5d 6a3e
00000150: c3a0 3b3e 14de 733d 8615 bc3e bd3a 8c3c
00000160: b01f aa3e e08c cfbe 82cd 943e 06af fc3e
00000170: cf83 02bd 8488 d8bc 4824 99bd 0aa6 273f
00000180: 208a 96be 9ad9 b3be 480d 143e 968b 203e
00000190: 88e7 d7be e0fa c73c d4aa 7abe c283 babe
000001a0: 868a f5bc dfe9 e0bd aad1 f53e 75f4 a73e
000001b0: 90c8 c43e 1bd7 ec3e 51f2 123e 6ef9 c83e
000001c0: 3412 803e 7d3f e63e 4331 3ebe b9ec 5bbe
000001d0: 817c 51be 9d43 acbe 8c00 783b cb8c 4abe
000001e0: 76e1 01be 4e71 913e 80a0 2fbe 7ff7 af3e
000001f0: 4319 5ebe 65d5 3c3e a3b6 c3be 99dd 61bd
00000200: 195d b2be 124d 873e c645 333d 1a96 b53e
00000210: fb66 653e a0a7 a6be edfe e63e 61cc 643c
00000220: 8b9a 8b3e 1248 7d3d 322f a83d 866f aabd
00000230: f948 ca3e 7c53 ebbd 3fa4 efbd c69f 6a3e
00000240: 4601 0b3f 3eac f43c c403 b83e 7903 9abe
00000250: 507d 563d cbb1 283e 54dc 483e c205 7c3e
00000260: 8e52 9ebe bf05 1ebe f930 733e b137 a83e
00000270: 9089 fe3c b601 ca3b 481c c0be 370a d63e
00000280: 8332 e93d 9b82 e03e b74d c43e fa1f 013f
00000290: 800d d13e de4f 703d 529a eabc 5352 f83d
000002a0: ef84 3b3e 1b3c 053f 33bf 013f 2e3a d7be
000002b0: 3fd4 92be ccb7 f23e ff53 4e3d 2129 763e
000002c0: 3457 27be 2338 9a3e 4e6a a4be 074a 25be
000002d0: ed01 bd3e 5b5b e93e 821d e1bd 9726 85be
000002e0: 7099 6a3e 3f4c 40be 7ee7 f7be 1e83 febe
000002f0: f028 5fbd 70ed 2cbe 40f3 d2bd 889f 0cbe
00000300: 22de e23d 1327 9bbd 434d f43e 435f b53e
00000310: 3ab7 e0be 98a8 a2bd 20bf f4be a075 a8bd
00000320: 975d fa3e 6c4d 4e3e 11e6 6abe 5c79 d13e
00000330: 00fb b23c fa1d eebe 00c0 8939 3817 e1bd
00000340: 864f 7ebe 3883 223e 6407 9cbe 55f6 4e3e
00000350: 4825 92be c05d 0cbc 4a02 cd3e 9c0a 5bbe
00000360: 5417 983d 49dc 893d e2d4 c33e cec5 e63e
00000370: 11bf 923e 45c2 9fbe 5a14 593e b062 853e
00000380: 13a0 c3bc 0789 3f3d 95fb f23e 345f 3cbd
00000390: 1056 253e 8061 c23b 38cd c4bd 1054 b7be
000003a0: 343a 1fbe 744e 1fbe 82f5 a5be 5686 f6be
000003b0: 1e92 7e3e cff3 723e 6f7d f4be cdc8 acbe
000003c0: bea1 8cbd ec67 873e f21e 7c3e 52e4 0cbe
000003d0: 158b 883e 6642 39be 1e21 03be 2b00 573e
000003e0: a79e c03e c148 91be e656 9c3e 81e2 5ebd
000003f0: 8a46 223e c6df 7abd a210 833d 8a80 a83e

network.0.bias f4 [128]
0.06130469 0.4230673 -0.06744386 -0.20175587 0.47638783 -0.11188675 0.3948316 0.3297641
-0.02040083 0.53969723 0.32898653 0.07889916 -0.01568818 0.5001729 -0.3332985 0.35226002
-0.37724492 0.31028977 0.5457109 -0.42703348 0.37783065 0.20368876 0.28444612 -0.15194674
0.36750624 0.05257547 0.14256445 0.39251268 -0.37711623 0.5330134 0.054895297 0.5176335
-0.11434904 0.31820354 0.038647525 0.022301674 -0.10829038 0.043030553 -0.19516258 0.54024273
0.3636204 -0.21404235 0.42737162 0.3022722 0.380373 0.10241491 0.38549015 -0.33130133
-0.06743158 -0.4057653 -0.0075220275 -0.32891905 0.25025535 -0.27401704 0.40948975 -0.24726595
0.098173626 -0.38039076 0.32157826 0.16193143 0.39867365 -0.16355307 0.24105357 -0.10237235
0.06023599 0.40239772 -0.06989765 0.48201892 -0.3383602 0.5122124 0.11651513 0.017074047
-0.39111406 -0.34207454 0.086584866 0.17782399 0.54935414 0.10356116 0.21152058 0.082677916
-0.048051484 -0.080003105 -0.2698231 -0.41039902 0.06251069 -0.2870437 0.13035262 -0.027812362
-0.4294746 0.3101816 -0.12251702 -0.3430512 0.49056536 -0.3987295 0.49623305 0.4197759
0.28189528 -0.366091 0.4058819 0.21837145 0.46026856 0.4819658 0.51263005 -0.15884383
-0.35831493 -0.26323396 -0.2885412 -0.38050538 0.43043914 0.26449722 -0.173645 0.05451858
0.42476004 0.0311242 0.21160366 -0.4833886 -0.12471831 -0.309117 -0.23065147 -0.15842512
-0.061321728 0.52992225 0.16362245 -0.24912784 0.06562479 -0.40365517 -0.44948775 -0.11921164
00000000: a01a 7b3d 479c d83e 0220 8abd 1799 4ebe
00000010: 1be9 f33e e124 e5bd 5e27 ca3e d7d6 a83e
00000020: a41f a7bc 9929 0a3f ec70 a83e e295 a13d
00000030: 8084 80bc 550b 003f 1aa6 aabe 6d5b b43e
00000040: 3f26 c1be 4dde 9e3e b6b3 0b3f 22a4 dabe
00000050: 0573 c13e c993 503e eca2 913e ed97 1bbe
00000060: c729 bc3e 6059 573d 6afc 113e 6cf7 c83e
00000070: 6115 c1be 9173 083f e4d9 603d a183 043f
00000080: d42f eabd 93eb a23e de4c 1e3d 00b2 b63c
00000090: 59c7 ddbd ce40 303d b3d8 47be 594d 0a3f
000000a0: 742c ba3e eb2d 5bbe 74d0 da3e 6cc3 9a3e
000000b0: 40c0 c23e e9be d13d f75e c53e 54a0 a9be
000000c0: 9119 8abd 78c0 cfbe 577b f6bb 1468 a8be
000000d0: 7821 803e f64b 8cbe a4a8 d13e 4933 7dbe
000000e0: 410f c93d 94c2 c2be e8a5 a43e 5ad1 253e
000000f0: f41e cc3e 757a 27be bfd6 763e 98a8 d1bd
00000100: 03ba 763d 1307 ce3e 8026 8fbd 2fcb f63e
00000110: 8c3d adbe 5a20 033f 7c9f ee3d dfde 8b3c
00000120: 1a40 c8be 6524 afbe 6853 b13d 7e17 363e
00000130: 79a2 0c3f e017 d43d da98 583e 0a53 a93d
00000140: a2d1 44bd abd8 a3bd 4126 8abe d21f d2be
00000150: 9b05 803d 64f7 92be 287b 053e c0d6 e3bc
00000160: 18e4 dbbe 1fd0 9e3e 34ea fabd 68a4 afbe
00000170: 622b fb3e 4626 ccbe 4212 fe3e deec d63e
00000180: 9454 903e 4870 bbbe c1cf cf3e c49c 5f3e
00000190: 52a8 eb3e 39c4 f63e b93b 033f f5a7 22be
000001a0: 0e75 b7be 9ac6 86be acbb 93be 9ad1 c2be
000001b0: 8562 dc3e 2e6c 873e ffcf 31be e04e 5f3d
000001c0: 267a d93e 2ef8 fe3c a1ae 583e b67e f7be
000001d0: 506c ffbd 9544 9ebe e62f 6cbe 323a 22be
000001e0: 7e2c 7bbd fca8 073f a58c 273e 5e1b 7fbe
000001f0: 4a66 863d e4ab cebe 4223 e6be 3b25 f4bd

network.2.weight f4 [64, 128]
0.030320032 -0.04734577 0.002487918 0.033394653 0.012156047 -0.0198591 -0.07691353 0.02223632
-0.040177673 0.059481602 -0.08127807 -0.001805318 0.06948643 0.009369961 0.04491537 -0.01872636
-0.08458289 -0.00027625152 -0.048362423 0.05446323 0.06025048 -0.0823833 0.019967534 -0.02678919
-0.01875895 0.054339036 -0.031664126 -0.005354009 0.07405968 -0.05724263 0.0451237 0.06447417
0.05838999 -0.037570987 -0.0047166115 -0.0835449 0.08264297 0.00042070984 -0.038152434 0.07245017
0.06182558 -0.059499674 0.0605511 0.015941402 -0.041755 -0.047593433 -0.08476339 0.045282003
-0.06966579 0.0466852 -0.03712051 0.054458123 -8.8297646e-05 -0.043100074 -0.042240288 -0.0011206425
0.06565713 -0.04944859 0.055950806 0.04942409 -0.071042836 -0.05315843 -0.048976514 -0.08232162
-0.01633775 -0.06255736 -0.021791521 -0.06677162 0.08024344 -0.046264574 0.037170865 0.040613115
0.02079774 -0.009777858 0.031945202 0.059905548 0.08327078 0.03689086 -0.008183527 -0.08809497
-0.03122385 0.082678795 -0.08254518 -0.0712767 -0.018895337 -0.056839176 -0.018886033 -0.017740736
0.08643587 0.07240841 -0.027628997 0.0724708 -0.06709831 -0.011349092 0.046990987 -0.020467289
-0.08136531 0.05484682 -0.026497649 0.06436458 -0.039332144 -0.01276489 -0.028060487 -0.067088224
0.035459302 0.056952942 0.087474406 0.022670694 -0.039218884 0.028711686 -0.014727847 0.018280406
0.069706306 0.018232305 0.08810153 0.002828633 0.04534263 0.0032533573 -0.060403336 -0.05720734
0.049493887 -0.07983677 0.070309825 -0.062755644 -0.08283213 -0.022502707 0.059168737 -0.002487233
0.056649692 -0.082538016 0.060638607 0.01219861 0.044749558 -0.048713185 -0.06413129 0.04567758
-0.0792432 -0.06422179 -0.0848289 -0.030898474 0.023779368 -0.037027244 0.010185511 0.058321428
0.060364407 -0.08500856 0.007314425 0.022769181 0.039082956 -0.09808851 0.034997918 -0.0069368873
-0.040630415 0.02375822 -0.037464768 0.041443996 -0.018208863 0.020297544 -0.021003464 -0.023170507
-0.007418468 -0.029043289 -0.09868743 -0.014052539 0.05271364 0.057607416 0.07535571 -0.08285683
-0.027431453 -0.08381989 -0.09446079 0.0020538135 -0.09601292 -0.00489967 0.0077845105 0.027666772
-0.031292148 0.01105495 0.068047196 -0.0027823348 0.009014027 -0.07758697 0.046459436 -0.020801438
0.058270823 0.048509885 -0.041544233 0.03330191 -0.03965603 0.001513527 -0.069519 -0.03979812
-0.019480795 0.024212467 -0.026834212 -0.08341257 0.05359376 0.006678668 0.064297915 0.024566554
-0.038829323 -0.0635922 -0.04374576 0.068630695 -0.05551168 -0.047564395 -0.013763281 0.0052075037
0.05592813 -0.0053700507 -0.046963897 0.07438439 0.05454631 0.04245334 0.03160438 0.044754274
0.012711216 -0.00582483 -0.05357787 0.052273054 0.05658925 -0.066368476 -0.045923416 -0.0027767043
-0.064051375 0.062630236 0.025070392 0.006981918 -0.050302178 0.0077654324 0.06685223 -0.054607112
0.075090386 -0.02709566 0.05181015 -0.072928764 0.011758998 -0.03029804 0.074411385 0.033584725
-0.039804477 -0.054526154 0.015341251 -0.0026025046 0.009526747 0.041285794 -0.038752366 0.046688892
-0.06790271 -0.037893746 0.025472142 -0.03777942 -0.08322134 -0.06030748 0.021738417 -0.09338745
00000000: b761 f83c a3ed 41bd 560c 233b d5c8 083d
00000010: 282a 473c 8daf a2bc d784 9dbd f128 b63c
00000020: 5891 24bd fba2 733d 1e75 a6bd 6ca0 ecba
00000030: e74e 8e3d 7784 193c 2ef9 373d 0668 99bc
00000040: cb39 adbd dad5 90b9 ad17 46bd d614 5f3d
00000050: 35c9 763d 93b8 a8bd f492 a33c 0175 dbbc
00000060: 5fac 99bc 9c92 5e3d 3eb2 01bd af70 afbb
00000070: 9aac 973d 3f77 6abd a1d3 383d 090b 843d
00000080: 582a 6f3d 09e4 19bd ce8d 9abb 9719 abbd
00000090: b840 a93d b892 dc39 ba45 1cbd c160 943d
000000a0: d23c 7d3d eeb5 73bd 6e04 783d 8b97 823c
000000b0: 4a07 2bbd 55f1 42bd 6e98 adbd 9f79 393d
000000c0: f0ac 8ebd fb38 3f3d ad0b 18bd 7b0f 5f3d
000000d0: 702c b9b8 b489 30bd 2704 2dbd 86e2 92ba
000000e0: 3f77 863d 9b8a 4abd ac2c 653d ea70 4a3d
000000f0: e87e 91bd a7bc 59bd 999b 48bd 3d98 a8bd
00000100: bfd6 85bc 131e 80bd 2284 b2bc 8fbf 88bd
00000110: ac56 a43d ec7f 3dbd 7a40 183d f059 263d
00000120: 0660 aa3c 4f33 20bc f9d8 023d 855f 753d
00000130: df89 aa3d df1a 173d 3314 06bc 236b b4bd
00000140: 29c9 ffbc 8053 a93d 730d a9bd 85f9 91bd
00000150: 65ca 9abc 32d0 68bd e2b6 9abc 0555 91bc
00000160: 4a05 b13d dc4a 943d 3556 e2bc 926b 943d
00000170: d76a 89bd 8bf1 39bc 9f79 403d 04ab a7bc
00000180: dba2 a6bd 0fa7 603d 9911 d9bc 94d1 833d
00000190: be1a 21bd d423 51bc 1bdf e5bc 8d65 89bd
000001a0: c63d 113d 7d47 693d c825 b33d e4b7 b93c
000001b0: fba3 20bd c534 eb3c 114d 71bc cac0 953c
000001c0: 2ec2 8e3d ea5b 953c 936e b43d 9660 393b
000001d0: 32b9 393d 4736 553b 7d69 77bd 3e52 6abd
000001e0: 1aba 4a3d 7681 a3bd 99fe 8f3d 0886 80bd
000001f0: e4a3 a9bd 9957 b8bc eb5a 723d d800 23bb
00000200: 8209 683d b109 a9bd 3060 783d aedc 473c
00000210: 504b 373d 7a87 47bd 4457 83bd 6a18 3b3d
00000220: 424a a2bd b786 83bd c6ba adbd cc1e fdbc
00000230: f3cc c23c e1a9 17bd 21e1 263c 73e2 6e3d
00000240: ab40 773d f818 aebd d8ad ef3b 6f86 ba3c
00000250: 7315 203d a1e2 c8bd fa59 0f3d d44e e3bb
00000260: 146c 26bd 99a0 c23c a874 19bd 2ec1 293d
00000270: c12a 95bc 0947 a63c 750f acbc 13d0 bdbc
00000280: 9f16 f3bb 31ec edbc a31c cabd 9f3c 66bc
00000290: 42ea 573d c1f5 6b3d 1854 9a3d d7b0 a9bd
000002a0: edb7 e0bc c3a9 abbd a974 c1bd 4699 063b
000002b0: 6ca2 c4bd 698d a0bb 3515 ff3b 6da5 e23c
000002c0: 322c 00bd d21f 353c 545c 8b3d d557 36bb
000002d0: 92af 133c ebe5 9ebd 404c 3e3d c767 aabc
000002e0: 63ad 6e3d 4db2 463d 492a 2abd 9567 083d
000002f0: 5c6e 22bd 8a61 c63a fa5f 8ebd 5a03 23bd
00000300: 3096 9fbc 3959 c63c 6cd3 dbbc 36d4 aabd
00000310: 2185 5b3d bad8 da3b a0ae 833d cc3f c93c
00000320: 7f0b 1fbd a13c 82bd c12e 33bd 408e 8c3d
00000330: 3760 63bd e2d2 42bd 627f 61bc b5a3 aa3b
00000340: e514 653d 40f7 afbb 375d 40bd d856 983d
00000350: f46b 5f3d 8ee3 2d3d 9873 013d 4250 373d
00000360: b442 503c 37de bebb 7874 5bbd 451c 563d
00000370: 21ca 673d 32ec 87bd 311a 3cbd 5ef9 35bb
00000380: 5e2d 83bd 4844 803d 6c60 cd3c 93c8 e43b
00000390: a809 4ebd 2b75 fe3b d2e9 883d b5ab 5fbd
000003a0: fdc8 993d b8f7 ddbc e136 543d ad5b 95bd
000003b0: d0a8 403c 9833 f8bc ff64 983d 2390 093d
000003c0: 050a 23bd d156 5fbd df59 7b3c c88e 2abb
000003d0: 1316 1c3c 4b1b 293d cdba 1ebd da3c 3f3d
000003e0: 9310 8bbd 7936 1bbd f4aa d03c 98be 1abd
000003f0: f36f aabd fa04 77bd c414 b23c eb41 bfbd

network.2.bias f4 [64]
-0.063783884 -0.0006103004 -0.08249566 0.016441 0.005419402 0.035740852 0.087503985 0.07502253
-0.09548998 -0.034892958 0.058039498 0.0021933261 0.028929038 -0.021898512 0.10336608 -0.08285994
-0.015855528 0.034052186 0.0817951 0.06840414 -0.033254597 0.049454834 0.049673926 -0.0068262615
-0.051927805 0.09670469 -0.0073057134 -0.021146026 0.031706713 -0.053958062 0.0287842 0.13049512
-0.009319739 0.059588846 -0.03238571 0.07286141 0.055916406 0.051885076 -0.00755399 -0.0061037275
-0.026141288 -0.06891098 -0.0129092615 0.10281454 -0.08808295 8.053661e-05 -0.079334036 0.14306822
0.04656937 -0.089537084 0.03620434 0.04254733 -0.090961635 0.062268037 0.026086764 0.041933626
-0.050139334 -0.041659735 0.043784514 0.13321535 0.0018535091 0.039935373 -0.016138079 0.07175212
00000000: 20a1 82bd 91fc 1fba 7cf3 a8bd 47af 863c
00000010: 3d95 b13b 0065 123d 4a35 b33d 6aa5 993d
00000020: 4090 c3bd ebeb 0ebd d3ba 6d3d e8bd 0f3b
00000030: 97fc ec3c 8264 b3bc 98b1 d33d 79b2 a9bd
00000040: 74e3 81bc 4e7a 0b3d 3084 a73d 7817 8c3d
00000050: f935 08bd 2791 4a3d e376 4b3d d5ae dfbb
00000060: 40b2 54bd 1c0d c63d c464 efbb 6e3a adbc
00000070: e6de 013d 2103 5dbd d8cc eb3c 83a0 053e
00000080: d2b1 18bc 6f13 743d e1a6 04bd 5d38 953d
00000090: 9a08 653d 7285 543d 7687 f7bb c701 c8bb
000000a0: 4126 d6bc 3321 8dbd 5e81 53bc 6e90 d23d
000000b0: d564 b4bd c3e5 a838 e279 a2bd 7a80 123e
000000c0: 86bf 3e3d 385f b7bd 014b 143d 1c46 2e3d
000000d0: 184a babd c50c 7f3d e9b3 d53c 98c2 2b3d
000000e0: e75e 4dbd 66a3 2abd 6457 333d 9b69 083e
000000f0: 72f1 f23a 4693 233d 0134 84bc c7f2 923d

network.4.weight f4 [32, 64]
0.10453318 0.11468895 -0.01958295 0.04142365 0.18114209 -0.07006006 0.13082168 0.15793337
0.08666339 -0.050289914 0.07810087 0.066130005 0.13937682 0.08257149 0.11785038 0.061464787
-0.05327329 -0.024353296 0.117251836 0.1696355 0.017330071 0.063998826 0.05197099 0.027338833
-0.01863052 0.062092308 -0.0463908 0.14864469 0.12551062 -0.076046966 0.11954297 0.119060986
-0.10713573 0.001742338 -0.10915525 -0.010003727 0.09850948 -0.0016344339 0.0019429773 -0.051095814
-0.06684425 0.035881862 0.09838336 0.1431393 -0.06386857 -0.010199453 0.042639703 0.18759282
0.053271905 -0.01504801 0.034297988 -0.021357417 0.1126361 0.12923133 -0.1220491 0.07812662
-0.080342695 0.14576535 0.17817831 -0.019557888 -0.10361432 0.092953965 -0.046587937 0.101077825
-0.0067753643 -0.06242505 -0.08072466 -0.11894779 -0.026962852 0.056856945 0.08589599 -0.061994366
0.018334933 0.06822994 0.026951607 0.02198697 -0.09766847 -0.10501002 0.014599592 -0.03633806
0.091187105 -0.019894034 0.08552149 -0.07908103 0.06618216 0.040661413 0.023287237 -0.0926335
-0.048694655 0.0051590865 -0.0639707 0.066588245 0.0100718895 -0.025702475 -0.053506687 -0.113154724
-0.075415865 0.03750005 -0.120952025 0.07225477 -0.121293694 0.08671942 0.06915772 -0.06378205
-0.02177329 -0.05800064 0.013783853 -0.040276892 -0.0013473313 -0.004268625 -0.043792203 -0.034367394
-0.07917273 -0.02501002 -0.09283917 0.11105421 0.05461662 -0.020065652 0.051815286 0.048512332
0.086855486 -0.058157936 0.027218547 0.095327266 0.07701203 0.041507542 -0.007114544 0.11212238
0.06381984 0.02339917 0.095274866 -0.080580115 -0.013829276 0.064718515 0.020412747 -0.017801378
0.07306965 -0.11468217 -0.10733058 0.06289143 -0.14191245 0.0138115585 -0.03232865 -0.10052511
-0.06512901 0.11037071 -0.048873954 -0.012190042 0.103577085 -0.04621857 -0.10825221 -0.017345265
-0.058500886 0.030351188 0.097185865 -0.1153858 0.08954845 -0.08022899 0.10202262 0.064016536
-0.016646907 -0.0018642873 0.064812705 0.057286907 -0.11414442 -0.028473407 -0.11195807 -0.11615723
0.060192373 -0.006692335 -0.06693386 -0.03383816 -0.044515226 -0.0008403467 -0.11509889 -0.08148754
0.11791958 0.07457309 -0.053428024 -0.048115574 -0.07318849 0.0012408108 -0.038270056 -0.09917232
0.007949039 -0.09268215 0.050779507 0.08040116 -0.08125989 0.061111078 0.058396887 -0.04671868
-0.10314226 -0.00823622 0.020021167 0.042539567 0.120760344 -0.06952226 0.0067858966 0.023709407
0.13598545 0.0825654 -0.096850336 0.07294043 0.13450186 -0.104174405 0.14238106 -0.10635519
0.004750535 -0.10077602 0.035370022 0.091482684 -0.10912184 0.017115626 -0.016516969 -0.01853761
0.026567668 0.17547095 0.108100206 0.17567728 0.00025805688 -0.09768082 -0.086819336 0.021646382
-0.0047719884 0.06308213 -0.09568341 0.064711586 -0.054612886 -0.029151425 0.049625948 -0.07546097
0.09211265 0.017114416 -0.09138636 0.14890088 0.106480576 -0.109011546 0.10780175 0.26099584
-0.101873174 -0.073805496 0.012239426 0.07516292 -0.046788678 0.07029887 -0.08223789 0.14271843
-0.08854668 0.17048453 -0.03810606 0.18211564 -0.102072835 -0.03755493 0.09637498 0.08339066
00000000: 7e15 d63d 0ae2 ea3d 6c6c a0bc d8ab 293d
00000010: 507d 393e a67b 8fbd 1ef6 053e 49b9 213e
00000020: 937c b13d ccfc 4dbd 59f3 9f3d 2b6f 873d
00000030: ccb8 0e3e 3e1b a93d 8a5b f13d 80c2 7b3d
00000040: 1835 5abd 9080 c7bc bb21 f03d eeb4 2d3e
00000050: cbf7 8d3c d111 833d 88df 543d b0f5 df3c
00000060: 089f 98bc 8154 7e3d 4804 3ebd 5036 183e
00000070: db85 003e 83be 9bbd f2d2 f43d 3fd6 f33d
00000080: fa69 dbbd 295f e43a ca8c dfbd ace6 23bc
00000090: 57bf c93d 803a d6ba 80ab fe3a d849 51bd
000000a0: a3e5 88bd dcf8 123d 377d c93d 1c93 123e
000000b0: 86cd 82bd 9b1b 27bc f8a6 2e3d 5518 403e
000000c0: a433 5a3d ee8b 76bc 0c7c 0c3d c0f5 aebc
000000d0: c1ad e63d 3855 043e e1f4 f9bd d900 a03d
000000e0: b68a a4bd 8343 153e 6074 363e dd37 a0bc
000000f0: bf33 d4bd a65e be3d fed2 3ebd e401 cf3d
00000100: e003 debb 69b1 7fbd f852 a5bd e69a f3bd
00000110: 33e1 dcbc d4e2 683d 3dea af3d ceed 7dbd
00000120: 2433 963c 24bc 8b3d 9ec9 dc3c 051e b43c
00000130: 6806 c8bd 7e0f d7bd 2133 6f3c 38d7 14bd
00000140: 4ec0 ba3d d0f8 a2bc e425 af3d 3cf5 a1bd
00000150: 838a 873d 958c 263d e0c4 be3c a2b6 bdbd
00000160: 0c74 47bd 8e0d a93b 1203 83bd 6b5f 883d
00000170: 9104 253c ff8d d2bc d429 5bbd aabd e7bd
00000180: a273 9abd a799 193d b2b5 f7bd 4ffa 933d
00000190: d468 f8bd f499 b13d 90a2 8d3d 2aa0 82bd
000001a0: e65d b2bc 1492 6dbd abd5 613c 62f9 24bd
000001b0: f098 b0ba d2df 8bbb 745f 33bd d3c4 0cbd
000001c0: 5025 a2bd d0e1 ccbc 7622 bebd 6470 e33d
000001d0: adb5 5f3d b960 a4bc 443c 543d deb4 463d
000001e0: 4ae1 b13d 0437 6ebd 6ef9 de3c f13a c33d
000001f0: 7cb8 9d3d d003 2a3d 1f21 e9bb 6ba0 e53d
00000200: fab3 823d 9eaf bf3c 781f c33d 3007 a5bd
00000210: 3094 62bc 248b 843d a238 a73c 32d4 91bc
00000220: 8aa5 953d 7cde eabd 23d0 dbbd 39cd 803d
00000230: 7f51 11be e049 623c 0c6b 04bd 1ce0 cdbd
00000240: 5c62 85bd 0a0a e23d 0e30 48bd beb8 47bc
00000250: 3920 d43d af4f 3dbd 56b3 ddbd a817 8ebc
00000260: a09e 6fbd 0ea3 f83c 6209 c73d 644f ecbd
00000270: 2e65 b73d 194f a4bd 3cf1 d03d 1a1b 833d
00000280: 185f 88bc 1a5b f4ba 86bc 843d ada5 6a3d
00000290: 8dc4 e9bd 1041 e9bc 464a e5bd d8e3 edbd
000002a0: 478c 763d 604b dbbb 9f14 89bd e299 0abd
000002b0: 9955 36bd b64a 5cba f8b8 ebbd f0e2 a6bd
000002c0: d27f f13d c7b9 983d 58d7 5abd d614 45bd
000002d0: d9e3 95bd b4a2 a23a 10c1 1cbd db1a cbbd
000002e0: b03c 023c 24d0 bdbd 2cfe 4f3d 5da9 a43d
000002f0: 966b a6bd 9c4f 7a3d 9331 6f3d 165c 3fbd
00000300: 403c d3bd 36f1 06bc 6e03 a43c f83d 2e3d
00000310: 3351 f73d b061 8ebd 3a5c de3b 3b3a c23c
00000320: c53f 0b3e 0c18 a93d 7859 c6bd cb61 953d
00000330: dbba 093e 6459 d5bd 57cc 113e c0d0 d9bd
00000340: 60aa 9b3b a863 cebd 28e0 103d 465b bb3d
00000350: 457b dfbd 1236 8c3c 984e 87bc 30dc 97bc
00000360: 70a4 d93c a8ae 333e a463 dd3d bfe4 333e
00000370: cf4b 8739 e20c c8bd 56ce b1bd c153 b13c
00000380: 575e 9cbb 3431 813d aaf5 c3bd 8287 843d
00000390: c3b1 5fbd f8ce eebc 9444 4b3d 488b 9abd
000003a0: 8fa5 bc3d 8833 8c3c c628 bbbd 7979 183e
000003b0: 7d12 da3d 7241 dfbd 2ac7 dc3d 3fa1 853e
000003c0: e2a2 d0bd 5627 97bd e087 483c 04ef 993d
000003d0: 7ca5 3fbd dbf8 8f3d 576c a8bd c824 123e
000003e0: f657 b5bd 7f93 2e3e 1a15 1cbd 867c 3a3e
000003f0: 900b d1bd 33d3 19bd 3f60 c53d b9c8 aa3d

network.4.bias f4 [32]
-0.03137841 -0.077292144 -0.02502097 0.123886704 -0.060599923 -0.112583905 -0.115226746 0.054505747
-0.078110754 0.15291654 0.002349652 0.0026883148 -0.05104421 0.16359714 -0.0906349 -0.033690467
-0.0643849 0.11599111 0.15860938 0.045289427 0.017302701 -0.04508156 -0.0017993038 -0.027541429
0.031175949 0.08713604 -0.07839591 -0.026297932 0.14398715 -0.08729785 0.070587836 0.034832083
00000000: a686 00bd 584b 9ebd c7f8 ccbc 50b8 fd3d
00000010: a037 78bd 6492 e6bd 00fc ebbd 6b41 5f3d
00000020: 88f8 9fbd 2796 1c3e 9efc 193b 702e 303b
00000030: bc13 51bd 0286 273e ca9e b9bd 04ff 09bd
00000040: 3bdc 83bd bf8c ed3d 7f6a 223e 6881 393d
00000050: 65be 8d3c 71a7 38bd 9ed6 ebba 909e e1bc
00000060: b464 ff3c 6174 b23d 098e a0bd c36e d7bc
00000070: 5e71 133e 37c9 b2bd 5b90 903d 16ac 0e3d

network.6.weight f4 [1, 32]
0.11196776 -0.047309116 0.0064935964 0.1719525 0.08467281 0.1612017 0.16072795 -0.07789191
0.19232683 0.20304719 0.16841334 -0.010707795 -0.11326469 0.17024267 -0.043303546 0.08391924
0.100582846 0.08440017 0.19189633 0.16502544 0.08970675 -0.062752746 0.11393282 -0.15797038
-0.15736859 0.033660803 -0.061985265 0.07802672 0.15766285 -0.0489175 0.23617125 -0.058341317
00000000: 5a4f e53d 34c7 41bd 3cc8 d43b 5114 303e
00000010: f068 ad3d 0f12 253e de95 243e cb85 9fbd
00000020: 53f1 443e 9aeb 4f3e 8c74 2c3e bf6f 2fbc
00000030: 51f7 e7bd 1854 2e3e 0f5f 31bd dadd ab3d
00000040: 61fe cd3d ffd9 ac3d 7980 443e 6efc 283e
00000050: 2cb8 b73d 8384 80bd 9c55 e93d fdc2 21be
00000060: 3b25 21be e9df 093d 43e4 7dbd 79cc 9f3d
00000070: 5f72 213e b75d 48bd e0d6 713e 4ef7 6ebd

network.0.weight f4 [128, 3]
0.109397665 -0.72334266 0.12964822 0.47631902 -0.56937605 -0.48717925 0.31191638 -0.48554868
-0.68383855 -0.6764083 0.28563654 -0.20978649 -0.5638756 -0.24544016 -0.0065382724 -0.036052044
0.061050914 -0.50409275 -3.592744 1.6246133 -0.43887305 0.23729487 -0.56082606 0.3412255
-0.4827974 -0.25670478 -0.28468248 0.07569995 -0.118588425 -0.27247807 -0.78998125 -0.1316983
0.053401224 0.53744525 0.059435956 -0.61156434 -4.489602 -0.65130144 0.118613996 0.16062458
0.085425794 -0.30806863 0.06267041 0.32492515 -0.40943053 0.32735568 -0.12875317 -0.37403968
0.26459068 0.057451602 0.023415891 0.31149408 -0.3302895 0.0934263 -0.13047253 0.084268585
-0.34286207 0.6476689 -0.099882014 -0.38052714 0.36814547 -0.3389276 -0.4523809 -4.054897
-0.6342937 -0.17900403 -0.1683843 0.5226996 -0.52310014 -1.2106235 0.11176741 -0.40209
-0.5041449 -0.49420547 -0.21218933 0.20275712 0.1333342 0.03734365 -1.7457438 -0.2793922
-0.45475188 -0.122907296 0.08680762 0.08668401 0.0790704 0.0028898458 -0.5198709 -1.329177
0.17375135 0.15549454 -1.1338139 -0.5289105 0.39435342 -0.86332935 -0.25963885 0.2226641
0.40496257 -0.25558397 -0.22714809 -0.47637427 0.2122375 -0.45862597 0.16398792 -0.48240483
-0.048121076 -0.26009086 -0.536294 -0.10150862 0.19785523 -0.548199 0.4112566 0.096422665
0.32145584 -0.60411704 -1.0601861 -0.42964843 -0.018533004 0.2005535 -0.20323108 0.08023702
0.016336326 -0.26328972 0.023866229 0.21101089 -0.31531247 0.056895033 0.026535127 0.35195377
-0.38871878 -1.4007393 0.012030412 0.29871482 -0.10755205 -0.24696027 0.28651854 -0.06874952
-0.45128202 -0.37179577 -2.7325532 0.6048424 0.40276662 -0.8549606 -0.26333785 0.016341148
0.047090422 -0.043348335 -0.3893381 -0.12808111 -0.0424555 -0.5419503 -0.18025108 -0.22350198
-0.075747 -0.11701273 -0.25988907 -0.29256654 -0.8950752 -0.2150258 -0.352477 -0.110147595
-0.46749187 -0.33675182 -0.7559775 -0.30787393 0.12750353 0.29061857 -0.5545174 -0.4593977
-4.9810104 -0.38307738 0.12381772 -0.26781797 -0.29560834 0.060902596 0.12378759 -0.21490148
-0.21853796 -0.9704208 -0.38322148 0.015925853 0.010219006 -0.28097087 -0.15067054 -0.6682981
-0.36328337 -0.060656067 -1.2540264 -0.25191015 0.034048986 0.011326145 -0.15818985 0.15104416
0.046833836 -0.10215351 0.08182975 0.013146749 -0.10049003 -0.050780695 -0.51953804 -0.3222282
-0.22378361 0.10718316 0.2907863 0.13956474 -0.33188736 -0.045867663 0.24703631 -0.07956292
0.5754086 -0.433594 0.25209096 0.043097656 -0.081768304 -1.2488137 -0.20637241 -0.11518788
0.021578755 0.050240852 -0.32825035 0.46176964 -0.27892378 -0.24477817 -1.1578417 -0.41670248
0.08700446 0.17768869 0.06196375 -0.548825 -0.37478128 0.3841349 -0.39913058 -0.2166109
0.15017617 -0.2520325 -0.005134364 0.14983572 -0.51117456 0.25878525 -0.14301315 -0.5644648
-0.3840181 -0.05643396 0.029258346 -0.66121477 0.013554343 0.14677876 0.10388344 -0.12393136
0.41950122 -1.3681158 0.0974938 0.2939333 -0.058717065 -0.59023744 -0.0067727817 -0.26385033
00000000: e20b e03d fc2c 39bf 81c2 043e 16e0 f33e
00000010: a1c2 11bf 8f6f f9be 81b3 9f3e d699 f8be
00000020: 0b10 2fbf 1829 2dbf f43e 923e 45d2 56be
00000030: 275a 10bf aa54 7bbe 013f d6bb 4fab 13bd
00000040: 8610 7a3d 390c 01bf 85ef 65c0 54f3 cf3f
00000050: f8b3 e0be 6dfd 723e 4c92 0fbf 1cb5 ae3e
00000060: 3931 f7be cf6e 83be e7c1 91be 9308 9b3d
00000070: 7dde f2bd 3f82 8bbe 363c 4abf ebdb 06be
00000080: 3ebb 5a3d 0396 093f 1e73 733d 7b8f 1cbf
00000090: d2aa 8fc0 b1bb 26bf e5eb f23d c57a 243e
000000a0: b8f3 ae3d 2cbb 9dbe 5859 803d 975c a63e
000000b0: e1a0 d1be 2a9b a73e dfd7 03be 2182 bfbe
000000c0: 6e78 873e 5f52 6b3d afd2 bf3c 277c 9f3e
000000d0: b51b a9be 4a56 bf3d 979a 05be 0295 ac3d
000000e0: 9e8b afbe a1cd 253f f18e ccbd 74d4 c2be
000000f0: 907d bc3e eb87 adbe 789e e7be b7c1 81c0
00000100: 1261 22bf d54c 37be ef6c 2cbe a4cf 053f
00000110: e4e9 05bf b6f5 9abf 50e6 e43d bede cdbe
00000120: a40f 01bf 8008 fdbe 2948 59be 909f 4f3e
00000130: c388 083e a8f5 183d 8874 dfbf 7f0c 8fbe
00000140: 3dd5 e8be d2b6 fbbd 32c8 b13d 6387 b13d
00000150: a9ef a13d 9163 3d3b 4216 05bf 7922 aabf
00000160: e0eb 313e f639 1f3e d020 91bf ae66 07bf
00000170: b1e8 c93e 2703 5dbf 62ef 84be 0f02 643e
00000180: 4157 cf3e e7db 82be 8299 68be 54e7 f3be
00000190: ca54 593e 06d1 eabe 73ec 273e c4fd f6be
000001a0: 9b1a 45bd a12a 85be 904a 09bf c0e3 cfbd
000001b0: 909a 4a3e c556 0cbf 3a90 d23e 3f79 c53d
000001c0: dc95 a43e 6aa7 1abf 2eb4 87bf e1fa dbbe
000001d0: 87d2 97bc e65d 4d3e cf1b 50be 4f53 a43d
000001e0: c2d3 853c e9cd 86be 1c83 c33c 3d13 583e
000001f0: a370 a1be c40a 693d 3260 d93c 4933 b43e
00000200: 2606 c7be 6d4b b3bf 351b 453c 26f1 983e
00000210: 4044 dcbd 27e3 7cbe 8fb2 923e 8ccc 8cbd
00000220: 700e e7be 045c bebe 27e2 2ec0 f4d6 1a3f
00000230: 6d37 ce3e b3de 5abf 38d4 86be dfdd 853c
00000240: e3e1 403d 068e 31bd 5357 c7be b227 03be
00000250: d2e5 2dbd 41bd 0abf bd93 38be b4dd 64be
00000260: 3e21 9bbd 5fa4 efbd 2e10 85be 48cb 95be
00000270: a623 65bf b92f 5cbe de77 b4be 1095 e1bd
00000280: 185b efbe bc6a acbe be87 41bf a7a1 9dbe
00000290: 4990 023e f5cb 943e daf4 0dbf 2d36 ebbe
000002a0: 7064 9fc0 b822 c4be 2594 fd3d 701f 89be
000002b0: fa59 97be 0075 793d 5984 fd3d 220f 5cbe
000002c0: 6ac8 5fbe 7f6d 78bf 9b35 c4be ef76 823c
000002d0: 9e6d 273c 6adb 8fbe 6149 1abe 9615 2bbf
000002e0: 4700 babe 7f72 78bd f083 a0bf 5efa 80be
000002f0: f376 0b3d 4c91 393c 85fc 21be 52ab 1a3e
00000300: d6d4 3f3d dc35 d1bd 5b96 a73d 7665 573c
00000310: b8cd cdbd 6bff 4fbd 7200 05bf 18fb a4be
00000320: 8827 65be d882 db3d f1e1 943e 0fea 0e3e
00000330: 24ed a9be bbdf 3bbd 16f7 7c3e e2f1 a2bd
00000340: fa4d 133f 0800 debe 1112 813e 2b87 303d
00000350: 2476 a7bd 21d9 9fbf 4a53 53be a0e7 ebbd
00000360: eec5 b03c 5ac9 4d3d 6e10 a8be 126d ec3e
00000370: 19cf 8ebe 21a7 7abe 2834 94bf 075a d5be
00000380: 652f b23d 06f4 353e b3cd 7d3d cc7f 0cbf
00000390: 55e3 bfbe 54ad c43e d85a ccbe 3fcf 5dbe
000003a0: c8c7 193e 670a 81be 2b3e a8bb 896e 193e
000003b0: 56dc 02bf 807f 843e 0a72 12be c480 10bf
000003c0: 059e c4be 4c27 67bd 33af ef3c 5f45 29bf
000003d0: 0913 5e3c 2c4d 163e d7c0 d43d bacf fdbd
000003e0: ddc8 d63e 6b1e afbf d4aa c73d 6d7e 963e
000003f0: 4e81 70bd cd19 17bf 36ee ddbb 6417 87be

network.0.bias f4 [128]
-0.25409123 0.006528973 0.29661548 -0.07843277 0.0055082296 -0.546791 -0.116014935 -0.62937444
-0.52404886 -0.55238503 -0.055435956 0.008770248 -0.12108119 0.0060767047 0.005958147 -0.011646707
-0.38607126 -0.57241726 -0.11766575 -0.28008553 -0.038381442 0.17239986 -0.3073709 0.28485778
0.2088885 -0.391792 0.45474496 -0.3543271 -0.37030935 -0.33053628 -0.39439654 -0.22545154
-0.2529373 -0.059823964 -0.16176274 -0.2941155 -0.6377159 0.11479572 0.018211735 -0.28397563
-0.06396213 -0.30691838 -0.22604467 -0.31093708 -0.37780485 0.36675847 0.15520865 -0.016595889
0.3098314 0.4367224 0.07086467 0.056836937 0.3507349 0.20243166 -0.13005693 -0.43827152
-0.20085336 -0.11023246 0.08157931 -0.015932212 0.122060604 0.04892013 -0.0343714 -0.17007956
-0.24469976 0.036847606 -0.37564746 -0.5453335 -0.2798517 -0.48344204 -0.3530059 0.1138057
0.24727045 -0.22207169 -0.08701328 -0.020920135 -0.19681054 -0.34715638 0.31152567 0.04155251
-0.03314974 -0.16184208 -0.5395896 -0.3926164 0.0021776636 -0.4566364 -0.45632094 -0.0108864065
-0.6948038 -0.0863754 0.12623611 -0.25491357 0.33964622 0.41032228 0.29403418 0.32321423
-0.0781439 -0.040469836 -0.052572295 0.054173533 0.11999295 0.42461407 -0.3345938 -0.058111444
-0.4445637 -0.51786053 -0.15352339 -0.31187603 0.27210745 -0.12680142 -0.45072216 0.079549916
-0.10455472 -0.3602982 -0.28098297 -0.5454803 -0.33998457 0.1275651 -0.41921908 -0.27232718
-0.18595937 -0.2270456 0.19738254 -0.096839786 0.1622165 -0.009422991 -0.24230152 -0.11091459
00000000: 3f18 82be fff0 d53b fcdd 973e 5ca1 a0bd
00000010: 617e b43b 7ffa 0bbf 3d99 edbd af1e 21bf
00000020: 1128 06bf 1b69 0dbf d010 63bd 16b1 0f3c
00000030: 6af9 f7bd 181f c73b 8f3c c33b d4d1 3ebc
00000040: 22ab c5be f089 12bf befa f0bd 5f67 8fbe
00000050: dc35 1dbd 9789 303e b85f 9dbe e1d8 913e
00000060: dee6 553e f698 c8be 55d4 e83e 5d6a b5be
00000070: 3099 bdbe 0d3c a9be 58ee c9be c5dc 66be
00000080: ff80 81be f909 75bd 22a5 25be 4f96 96be
00000090: 5941 23bf 051a eb3d c730 953c 4165 91be
000000a0: 94fe 82bd 6824 9dbe 4178 67be 2533 9fbe
000000b0: a36f c1be c4c7 bb3e 04ef 1e3e 1af4 87bc
000000c0: 39a2 9e3e 149a df3e 7f21 913d d9cd 683d
000000d0: 8693 b33e 3f4a 4f3e a52d 05be 2065 e0be
000000e0: 81ac 4dbe 8ec1 e1bd 0e13 a73d 4584 82bc
000000f0: e9fa f93d 7960 483d 06c9 0cbd 5629 2ebe
00000100: 9392 7abe 84ed 163d dd54 c0be fa9a 0bbf
00000110: b948 8fbe b785 f7be 30bd b4be f612 e93d
00000120: 7734 7d3e c366 63be 0534 b2bd b460 abbc
00000130: b488 49be 7bbe b1be 4b80 9f3e f732 2a3d
00000140: 06c8 07bd eeb9 25be 8b22 0abf 0405 c9be
00000150: 22b7 0e3b 3fcc e9be e6a2 e9be e65c 32bc
00000160: a9de 31bf 96e5 b0bd 0a44 013e 0884 82be
00000170: 1ce6 ad3e c315 d23e a68b 963e 567c a53e
00000180: e909 a0bd b3c3 25bd 0c56 57bd 11e5 5d3d
00000190: ddbe f53d 0467 d93e e14f abbe 4406 6ebd
000001a0: da9d e3be 8292 04bf 3c35 1dbe 37ae 9fbe
000001b0: ab51 8b3e 3bd8 01be 0ec5 e6be 11eb a23d
000001c0: c920 d6bd 0179 b8be 00dd 8fbe 99a4 0bbf
000001d0: 7512 aebe 6da0 023e e2a3 d6be 786e 8bbe
000001e0: 226c 3ebe a47e 68be a61e 4a3e f053 c6bd
000001f0: 151c 263e e462 1abc e41d 78be 3027 e3bd

network.2.weight f4 [64, 128]
-0.118630506 -0.070875496 9.64962e-05 -0.039544817 -0.11534701 -0.0325798 -0.12537797 -0.10168061
0.080418006 0.022350652 -0.06842956 -0.06698983 -0.108446404 -0.01609506 -0.03465703 -0.18911724
-0.15973416 0.040354636 0.045600668 -0.2159 -0.022209229 -0.07600863 0.0008182178 -0.13766307
-0.09047319 -0.1370644 -0.10920043 -0.08787603 0.0024446752 -0.2069605 -0.00559402 -0.15537848
-0.061454117 -0.07700991 -0.09379238 0.061970174 -0.08501382 -0.04613883 -0.24047154 -0.19458282
0.1008502 -0.06326148 -0.02320263 -0.12368643 -0.055557933 -0.14865015 -0.10576836 -0.11556104
-0.05052909 -0.075981684 -0.08563427 -0.048671085 -0.10461149 -0.037265707 -0.1444375 0.009149111
-0.19864482 -0.0664367 -0.11448151 -0.0054760645 -0.05667359 0.37401792 -0.26890722 -0.084718555
-0.01196196 -0.032766595 0.012028921 -0.11905115 0.019112214 -0.00756361 -0.057744637 -0.11751876
-0.108433425 -0.013285917 -0.10026086 -0.028206704 -0.015585567 0.00021627654 0.0040687937 -0.04420746
-0.0120211765 -0.1339229 -0.07269181 -0.12085956 -0.05059154 0.108550355 0.06712402 -0.01069274
-0.17264764 -0.06337987 0.046986908 -0.069325306 -0.13586487 -0.081343964 -0.02565379 -0.1484158
-0.07765991 -0.057436995 -0.092998475 -0.06543805 -0.1612763 -0.06504226 -0.030538842 -0.018110782
-0.08648999 0.021527102 -0.06876266 0.06161765 -0.11060497 0.019512923 -0.024443325 -0.14994192
-0.088350706 -0.07442971 0.007937632 0.08785543 -0.028859314 -0.11389783 -0.01128267 -0.1416369
-0.21091436 -0.15008606 -0.04949842 -0.23432338 0.058295973 -0.1532349 0.018337177 -0.1889163
-0.04571086 -0.056990754 0.038232453 0.023029942 0.005458177 -0.020136131 -0.07387655 0.027729342
-0.013877503 0.043338403 -0.030046254 -0.06801611 -0.05170475 -0.09405354 0.035913236 0.018740468
0.029627327 0.034248076 0.033528514 -0.060229145 -0.052606504 0.069563724 0.012877179 0.021044856
0.051663958 -0.017724063 0.04113885 0.06907912 -0.07884989 -0.082497574 -0.028023895 -0.1535894
-0.051924895 0.016459335 -0.032750018 -0.02827811 -0.025525965 -0.0019979763 0.042796858 0.0039462917
-0.056721296 0.03400874 0.024662903 0.023070024 -0.07661625 0.06160982 -0.0048605055 -0.045598697
-0.07386013 0.029886298 0.060870897 0.04739059 -0.075170815 -0.005211363 0.060815953 -0.06461724
-0.07262975 -0.04474358 0.044402856 0.002605547 0.024939638 -0.13486002 -0.02028105 -0.09243507
0.018219471 -0.02984491 -0.043242685 -0.056607272 0.004293647 0.023186762 -0.05082652 0.011478159
0.008720123 0.042527292 -0.07032682 0.07791637 -0.06278233 0.06579837 -0.032847438 -0.05434169
0.016475718 0.064689465 -0.008134037 -0.0024508843 -0.055445466 0.034293525 0.034877356 0.036650658
0.003631297 0.06089599 -0.07472629 0.04083338 -0.06932065 0.028424932 -0.044494893 -0.086881265
0.034382496 -0.015243625 -0.03095791 -0.021711865 -0.012202732 -0.023252983 0.04108482 0.013394858
0.084650554 -0.057642072 -0.00029657476 0.036841758 -0.011856046 -0.030050296 -0.08599242 -0.09695919
-0.078678034 -0.053123824 -0.061091013 -0.06598152 -0.021859791 0.023973214 -0.05626702 0.062032502
-0.0022061737 -0.040407676 -0.04745481 0.011687959 -0.04705349 0.033544492 -0.000166754 0.07015857
00000000: 8df4 f2bd 2c27 91bd 015e ca38 bff9 21bd
00000010: 0e3b ecbd 6572 05bd 1563 00be ec3d d0bd
00000020: 32b2 a43d b718 b73c cc24 8cbd f731 89bd
00000030: 2619 debd cad9 83bc 88f4 0dbd f3a7 41be
00000040: 5a91 23be e74a 253d c4c7 3a3d e414 5dbe
00000050: 21f0 b5bc 6aaa 9bbd ab7d 563a 8cf7 0cbe
00000060: 024a b9bd 9c5a 0cbe 7aa4 dfbd 59f8 b3bd
00000070: d836 203b 74ed 53be 0a4e b7bb 891b 1fbe
00000080: 50b7 7bbd 5fb7 9dbd 3816 c0bd 70d4 7d3d
00000090: ba1b aebd 12fc 3cbd 2c3e 76be b840 47be
000000a0: 8d8a ce3d 3c8f 81bd 7113 bebc 504f fdbd
000000b0: b790 63bd bf37 18be 159d d8bd 44ab ecbd
000000c0: 97f7 4ebd 499c 9bbd 0561 afbd 555b 47bd
000000d0: 8d3e d6bd eda3 18bd 6de7 13be 27e6 153c
000000e0: 8c69 4bbe f70f 88bd 4875 eabd 8f70 b3bb
000000f0: 9122 68bd 477f bf3e 35ae 89be ec80 adbd
00000100: 19fc 43bc 4436 06bd f414 453c 17d1 f3bd
00000110: 3891 9c3c 29d8 f7bb a485 6cbd adad f0bd
00000120: 5812 debd 2dad 59bc 9155 cdbd bf11 e7bc
00000130: 9b5a 7fbc 4bc8 6239 8453 853b e212 35bd
00000140: 78f4 44bc 1623 09be 72df 94bd 3885 f7bd
00000150: 1339 4fbd a64f de3d 5178 893d 9a30 2fbc
00000160: 8bca 30be 4ecd 81bd 5875 403d 6dfa 8dbd
00000170: 2920 0bbe aa97 a6bd e627 d2bc 50fa 17be
00000180: 290c 9fbd 0e43 6bbd fc75 bebd 6204 86bd
00000190: 9d25 25be e034 85bd 982c fabc 105d 94bc
000001a0: aa21 b1bd 9b59 b03c 70d3 8cbd ca62 7c3d
000001b0: dc84 e2bd 91d9 9f3c 5e3d c8bc 608a 19be
000001c0: 37f1 b4bd 9b6e 98bd d70c 023c 8ced b33d
000001d0: 5e6a ecbc 4443 e9bd f3da 38bc 4309 11be
000001e0: eff9 57be 29b0 19be dbbe 4abd 78f2 6fbe
000001f0: c2c7 6e3d 9ce9 1cbe d937 963c 4673 41be
00000200: 503b 3bbd 236f 69bd a299 1c3d 4aa9 bc3c
00000210: 82da b23b 87f4 a4bc 974c 97bd a528 e33c
00000220: 775e 63bc 9c83 313d 9023 f6bc 084c 8bbd
00000230: 5cc8 53bd 249f c0bd c219 133d 9c85 993c
00000240: 02b5 f23c b647 0c3d 3255 093d d6b2 76bd
00000250: eb79 57bd 6d77 8e3d cefa 523c 4366 ac3c
00000260: 969d 533d 0e32 91bc 3681 283d 5b79 8d3d
00000270: 0d7c a1bd 7df4 a8bd 5e92 e5bc 8a46 1dbe
00000280: 33af 54bd bad5 863c e224 06bd 7fa7 e7bc
00000290: d41b d1bc 7bf0 02bb c24b 2f3d e54f 813b
000002a0: 9754 68bd c04c 0b3d db09 ca3c 59fd bc3c
000002b0: fbe8 9cbd 945a 7c3d e044 9fbb b3c5 3abd
000002c0: fb43 97bd 1cd4 f43c c353 793d a31c 423d
000002d0: 28f3 99bd 15c4 aabb 261a 793d 0b56 84bd
000002e0: e8be 94bd 0b45 37bd c5df 353d d3c1 2a3b
000002f0: 364e cc3c bf18 0abe 7224 a6bc 994e bdbd
00000300: 0041 953c 507d f4bc 3e1f 31bd 07dd 67bd
00000310: b9b1 8c3b 2af2 bd3c 782f 50bd e30e 3c3c
00000320: d9de 0e3c 1931 2e3d 8207 90bd 9e92 9f3d
00000330: 0694 80bd 4cc1 863d 098b 06bd 6495 5ebd
00000340: 16f8 863c e97b 843d a044 05bc 049f 20bb
00000350: c91a 63bd 5e77 0c3d 8fdb 0e3d 001f 163d
00000360: 0efb 6d3b 136e 793d 190a 99bd e740 273d
00000370: fcf7 8dbd 67db e83c 4740 36bd ceee b1bd
00000380: a9d4 0c3d 66c0 79bc 719b fdbc 15dd b1bc
00000390: f8ed 47bc 0a7d bebc 8e48 283d 1b76 5b3c
000003a0: 455d ad3d 181a 6cbd 977d 9bb9 62e7 163d
000003b0: dc3f 42bc 0a2c f6bc cb1c b0bd 8a92 c6bd
000003c0: f321 a1bd 5e98 59bd 923a 7abd 5221 87bd
000003d0: 4e13 b3bc 7963 c43c 3f78 66bd cb15 7e3d
000003e0: 7495 10bb 8582 25bd fa5f 42bd da7e 3f3c
000003f0: 29bb 40bd f365 093d b0da 2eb9 4caf 8f3d

network.2.bias f4 [64]
-0.22686234 -0.045125864 -0.05712055 -0.013731801 -0.26462913 -0.0672428 -0.09290749 -0.06166483
-0.17055793 -0.17103449 -0.085788175 -0.22116567 -0.04906676 -0.078620195 -0.25468078 -0.087506294
-0.11444927 -0.33400792 -0.09616792 -0.17620233 -0.105194025 -0.23987503 -0.24068078 -0.02298256
-0.06630432 -0.31900108 -0.035323467 -0.07959876 -0.07307923 0.37406692 -0.06547697 -0.02056057
-0.03247902 -0.1265175 -0.1664068 -0.06248033 -0.27302524 -0.101512514 -0.1849266 -0.23121233
-0.047957726 -0.08174171 -0.4366774 -0.2659386 -0.32815292 -0.2746955 -0.18015675 -0.17800173
-0.07743906 0.89955443 -0.20554513 -0.012421229 -0.26775464 -0.16649029 -0.07317517 -0.27332288
-0.16023423 -0.025710724 -0.03484547 -0.013189519 -0.0765695 -0.115348406 -0.05317469 -0.05678333
00000000: 9a4e 68be e6d5 38bd 3df7 69bd 59fb 60bc
00000010: 787d 87be 98b6 89bd 4846 bebd 4394 7cbd
00000020: bda6 2ebe aa23 2fbe b6b1 afbd 4179 62be
00000030: 3afa 48bd a003 a1bd 8565 82be 8036 b3bd
00000040: 6164 eabd 1603 abbe b0f3 c4bd 626e 34be
00000050: f76f d7bd cda1 75be 0675 76be ec45 bcbc
00000060: 8fca 87bd 1c54 a3be 57af 10bd ad04 a3bd
00000070: 90aa 95bd b385 bf3e ca18 86bd a46e a8bc
00000080: b908 05bd ce8d 01be 8b66 2abe 60eb 7fbd
00000090: f7c9 8bbe cbe5 cfbd 665d 3dbe edc2 6cbe
000000a0: 526f 44bd 3368 a7bd 2e94 dfbe 1b29 88be
000000b0: a903 a8be e3a4 8cbe 037b 38be 1646 36be
000000c0: 5f98 9ebd 3349 663f 6c7a 52be 6982 4bbc
000000d0: 2317 89be 6e7c 2abe dddc 95bd faf0 8bbe
000000e0: 7114 24be 4c9f d2bc 20ba 0ebd da18 58bc
000000f0: 78d0 9cbd c93b ecbd b4cd 59bd a395 68bd

network.4.weight f4 [32, 64]
-0.044118457 -0.074968286 0.008966461 -0.054718312 -0.05206643 0.02898292 0.045512076 -0.09535634
-0.02054351 0.00030814117 -0.08355166 -0.15882362 -0.0644566 -0.08598372 -0.12861627 -0.09774076
0.074572675 -0.034196526 0.030049415 0.07825168 0.048155297 0.049147017 0.07016089 -0.02218618
-0.03326918 -0.16149175 -0.079752855 -0.038574636 -0.031888217 -0.024023045 -0.115664415 -0.10685299
0.020679682 0.05933502 0.020158563 -0.064227805 -0.12098107 0.12128879 0.018456439 -0.07221636
0.009958039 0.015600294 -0.1076942 -0.09340474 -0.05670424 -0.0015295979 0.05824914 0.034550663
-0.08451156 0.00011255829 0.08162525 0.06957357 -0.09607253 -0.18992357 0.09510948 0.037236348
0.0039324537 0.0957029 0.0543326 0.061800513 -0.04268633 0.10301681 0.10449504 -0.10510608
-0.08975517 0.088027954 0.08577549 0.007538037 0.023205932 0.12179774 -0.087016426 0.1286031
-0.012836476 -0.10236074 0.07934286 -0.19340505 -0.05385284 -0.03871702 -0.20180856 0.050110947
0.07854839 -0.07303737 0.064501375 -0.05181516 -0.10941975 -0.016880514 0.07347974 -0.048804455
0.021054208 0.032961283 0.019698594 0.00059874356 0.117477074 -0.09519457 0.018538658 -0.0039185435
-0.09260857 -0.06885848 0.060013436 -0.044527635 -0.035042107 0.08584823 -0.019795004 0.041291524
0.03179517 0.078084886 -0.101011194 0.035743035 -0.121209264 -0.009843626 0.0233962 0.055901323
-0.09076406 -0.18162045 0.006971267 -0.0111706555 -0.1310951 -0.23224038 0.071879044 -0.13704725
-0.01698056 0.007309247 -0.06314394 0.10415144 -0.04096122 -0.06155561 -0.04055733 -0.04447134
0.0038444079 0.11547466 0.08528963 -0.030994268 -0.03197329 -0.0021899194 -0.13858232 0.012393817
0.06754091 0.0044649728 -0.049913317 -0.28450516 0.12351042 0.060091138 -0.04615789 0.039858624
0.0754663 0.061964855 -0.04848813 -0.111120254 0.08682971 -0.10510153 -0.05395078 0.023183657
-0.00045885146 -0.14093326 -0.053475227 -0.06169741 -0.068213806 -0.024121806 -0.026945883 0.09452739
-0.007338092 0.0069199977 -0.01694186 0.08667512 -0.21024494 0.050377294 0.05408488 -0.09530736
0.05713257 0.03989312 -0.033595465 0.078248434 -0.015741935 0.034565523 0.07653832 -0.11262532
-0.04237038 -0.05931592 0.05908585 0.04749699 -0.022201981 -0.13173392 -0.050835505 0.06595879
-0.00061871886 -0.087464646 0.080729365 -0.04525061 0.019487208 -0.11966592 -0.10220572 0.021200169
-0.059748594 0.03448038 -0.0015589013 -0.12237694 -0.093981534 0.03949186 -0.12546328 -0.008247152
4.8168156e-05 0.044766475 0.08333163 -0.121590056 0.105885684 0.05868244 0.040124483 -0.046250097
0.08584809 -0.13163343 -0.046371277 0.06912578 0.048183084 -0.045166302 -0.0061324975 -0.08796957
-0.11125009 -0.078573495 -0.009310308 -0.0051732063 -0.06726548 0.0020054178 -0.006395189 0.1240135
-0.01652762 -0.08736056 0.015275555 -0.06898418 -0.176666 0.027615637 0.10524684 -0.09722317
-0.07536726 -0.0076827 0.019790802 -0.07449056 0.0047235284 -0.10895344 0.10708717 -0.077685066
-0.011013733 -0.08223128 0.054190587 0.02424784 -0.072023466 0.04244987 -0.073072515 -0.13835414
-0.15882263 0.031681277 0.014995366 -0.06367468 -0.047162265 0.0012265891 0.011870178 -0.04443223
00000000: 8eb5 34bd f988 99bd 10e8 123c 4f20 60bd
00000010: 9c43 55bd 976d ed3c df6a 3a3d 2f4a c3bd
00000020: dd4a a8bc 028e a139 221d abbd a9a2 22be
00000030: d201 84bd 3c18 b0bd fcb3 03be 4f2c c8bd
00000040: 8fb9 983d a811 0cbd 312a f63c 6b42 a03d
00000050: 7d3e 453d 624e 493d 83b0 8f3d cbbf b5bc
00000060: 4445 08bd 185e 25be 7755 a3bd 7000 1ebd
00000070: 389d 02bd facb c4bc 77e1 ecbd bed5 dabd
00000080: 7068 a93c 4709 733d 9223 a53c de89 83bd
00000090: ecc4 f7bd 4266 f83d f531 973c 2ce6 93bd
000000a0: 0b27 233c 6098 7f3c c78e dcbd fc4a bfbd
000000b0: b542 68bd ca7c c8ba a696 6e3d ff84 0d3d
000000c0: 6614 adbd 460d ec38 242b a73d 967c 8e3d
000000d0: adc1 c4bd 537b 42be c2c8 c23d 2485 183d
000000e0: d0db 803b e2ff c33d dc8b 5e3d 8922 7d3d
000000f0: dcd7 2ebd 7afa d23d 7f01 d63d db41 d7bd
00000100: 8fd1 b7bd 0048 b43d 0fab af3d a301 f73b
00000110: 5e1a be3c 1871 f93d ab35 b2bd 88b0 033e
00000120: 1550 52bc 82a2 d1bd 827e a23d f90b 46be
00000130: cc94 5cbd bd95 1ebd e7a6 4ebe 2341 4d3d
00000140: fadd a03d 9e94 95bd 4c19 843d 223c 54bd
00000150: 7617 e0bd 0149 8abc 8c7c 963d 2ee7 47bd
00000160: e079 ac3c 6902 073d f25e a13c 00f5 1c3a
00000170: d297 f03d 5ff5 c2bd 62de 973c 2067 80bb
00000180: 90a9 bdbd ad05 8dbd a6d0 753d 9c62 36bd
00000190: 5088 0fbd 32d1 af3d 2229 a2bc 4d21 293d
000001a0: a73b 023d f8ea 9f3d f5de cebd 4a67 123d
000001b0: 903c f8bd 2947 21bc 63a9 bf3c c9f8 643d
000001c0: 82e2 b9bd b6fa 39be 3a6f e43b 2005 37bc
000001d0: cb3d 06be 6cd0 6dbe 5235 933d 1d56 0cbe
000001e0: d11a 8bbc 6882 ef3b 9c51 81bd 5a4d d53d
000001f0: f4c6 27bd bc21 7cbd 711f 26bd 9427 36bd
00000200: 76f2 7b3b fb7d ec3d 54ac ae3d b1e7 fdbc
00000210: 6df6 02bd c084 0fbb 86e8 0dbe 700f 4b3c
00000220: e352 8a3d e84e 923b e871 4cbd a9aa 91be
00000230: 08f3 fc3d 2022 763d 0e10 3dbd cc42 233d
00000240: 138e 9a3d dcce 7d3d 7d9b 46bd 0493 e3bd
00000250: c6d3 b13d 793f d7bd 7efb 5cbd a7eb bd3c
00000260: 0092 f0b9 cf50 10be d708 5bbd 6cb6 7cbd
00000270: aeb3 8bbd 189b c5bc 9dbd dcbc 9497 c13d
00000280: 6174 f0bb 26c1 e23b a8c9 8abc ba82 b13d
00000290: 734a 57be 6c58 4e3d 1b88 5d3d 8130 c3bd
000002a0: d703 6a3d f866 233d 669b 09bd b740 a03d
000002b0: 3bf5 80bc 9494 0d3d 1fc0 9c3d 1ba8 e6bd
000002c0: 908c 2dbd 40f5 72bd 0104 723d 348c 423d
000002d0: eee0 b5bc 42e5 06be e438 50bd 6715 873d
000002e0: 8531 22ba aa20 b3bd 7055 a53d b458 39bd
000002f0: a3a3 9f3c 6813 f5bd 3c51 d1bd faab ad3c
00000300: f1ba 74bd 4d3b 0d3d 0c54 ccba c3a0 fabd
00000310: 6479 c0bd 37c2 213d 7279 00be 101f 07bc
00000320: 2a08 4a38 0d5d 373d c6a9 aa3d 3504 f9bd
00000330: 98da d83d 005d 703d 9259 243d be70 3dbd
00000340: 20d1 af3d eaca 06be cfef 3dbd d191 8d3d
00000350: a05b 453d 4d00 39bd 1ef3 c8bb 6429 b4bd
00000360: 16d7 e3bd 24eb a0bd 438a 18bc 0084 a9bb
00000370: 7cc2 89bd 546d 033b bc8e d1bb cafa fd3d
00000380: ee64 87bc 18ea b2bd 5246 7a3c 9447 8dbd
00000390: efe7 34be 303a e23c a88b d73d f11c c7bd
000003a0: 265a 9abd 29bf fbbb 5220 a23c 828e 98bd
000003b0: d4c7 9a3b fb22 dfbd 8550 db3d 5919 9fbd
000003c0: f272 34bc e068 a8bd f3f6 5d3d 68a3 c63c
000003d0: 0a81 93bd eadf 2d3d 0ba7 95bd b5ac 0dbe
000003e0: 66a2 22be 3ac4 013d 20af 753c df67 82bd
000003f0: 382d 41bd 80c5 a03a 237b 423c 92fe 35bd

network.4.bias f4 [32]
-0.14120157 -0.07815344 -0.059973024 -0.03409609 -0.08018047 -0.14214002 -0.03511306 -0.031876635
-0.097658955 -0.01690886 -0.12336734 -0.11232486 -0.036490954 -0.055744566 -0.12866819 -0.23216552
-0.0186322 -0.14429316 -0.23317079 -0.15472549 -0.030065158 -0.026629936 -0.08149331 -0.050647736
-0.19318579 -0.19644076 -0.03999008 -0.12327271 -0.16443163 -0.4637247 -0.07366287 -0.07209797
00000000: 2597 10be e90e a0bd 46a6 75bd 57a8 0bbd
00000010: a935 a4bd 278d 11be b6d2 0fbd 1391 02bd
00000020: 6b01 c8bd 7384 8abc 04a8 fcbd 940a e6bd
00000030: 8a77 15bd 6a54 64bd 98c1 03be ccbc 6dbe
00000040: 8ea2 98bc 96c1 13be 53c4 6ebe 5c70 1ebe
00000050: 354b f6bc 0627 dabc f7e5 a6bd 0074 4fbd
00000060: 7fd2 45be c427 49be a3cc 23bd 6776 fcbd
00000070: c460 28be 536d edbe 8fdc 96bd 1aa8 93bd

network.6.weight f4 [1, 32]
-0.07246256 -0.03503122 1.43162715e-05 -0.01559781 -0.0028752729 0.024928696 -0.00934894 -0.012002489
-0.0014458109 -0.14090286 -0.006656484 -0.16684493 -0.039866403 0.00081679 -0.073221326 -0.16413721
0.01281162 -0.013922156 0.019653523 0.03956767 0.00662157 -0.019018933 0.019725744 0.139387
0.025547381 -0.0036925597 -0.04464415 0.007449018 -0.004623882 -0.76912653 -0.08268157 -0.08378326
00000000: 4067 94bd e67c 0fbd eb2f 7037 f58d 7fbc
00000010: 136f 3cbb 4437 cc3c 4c2c 19bc 16a6 44bc
00000020: 5d81 bdba d748 10be a31e dabb 66d9 2abe
00000030: f44a 23bd d91d 563a 10f5 95bd 9613 28be
00000040: d4e7 513c c119 64bc 6d00 a13c b611 223d
00000050: c1f9 d83b 98cd 9bbc e297 a13c 77bb 0e3e
00000060: be48 d13c dffe 71bb c9dc 36bd e416 f43b
00000070: ef83 97bb 7ae5 44bf f454 a9bd 8f96 abbd
