models/obsoletos/sudoku_ltn_9x9.pth (torch, 284594 bytes, 42 tensors)

network.0.weight f4 [128, 4]
0	0xbd658cfa	-0.05604265
1	0xbe4ebcd0	-0.20189214
2	0xbd2f37f5	-0.042777974
3	0xbddd9c3f	-0.10820817
4	0x3f09db25	0.53850013
5	0xbdbc9747	-0.09208541
6	0xbc9b0aa4	-0.018925972
7	0x3e948938	0.2901094
8	0xbe5e637e	-0.21717641
9	0x3ebf5f8d	0.37377587
10	0x3e7bfe4f	0.2460873
11	0x3d2bc3d2	0.041934796
12	0x3e13b50f	0.14424537
13	0xbe56f4b4	-0.20991784
14	0xbd8a0f04	-0.06741145
15	0xbdffac82	-0.12484075
16	0x3f043b79	0.5165325
17	0xbed33760	-0.41253185
18	0x3efa0f96	0.48840016
19	0x3ee8d78a	0.45476943
20	0x3e205e68	0.15661013
21	0x3e3c4d60	0.18388891
22	0xbe9b2988	-0.30305123
23	0xbec9dbf0	-0.39425611
24	0xbeff6e9c	-0.49889076
25	0x3e9a2056	0.30102795
26	0x3d842750	0.06452811
27	0xbebabd2a	-0.36472446
28	0xbe447195	-0.19183953
29	0xbe991052	-0.29895264
30	0x3ea729ce	0.32649082
31	0x3c8839ea	0.016629178
32	0x3e110070	0.14160323
33	0xbe1317b8	-0.14364517
34	0xbe9ec45c	-0.31009185
35	0xbeaa9a9e	-0.3332109
36	0xbe32dd33	-0.17467193
37	0x3f0c9fe2	0.5493146
38	0x3eaa0325	0.33205524
39	0x3eb3a3ce	0.3508591
40	0x3ea5c1d2	0.32374436
41	0x3dca34b5	0.09873334
42	0x3eede39c	0.46462715
43	0xbebea58b	-0.37235674
44	0x3f63b75b	0.88951653
45	0x3f194815	0.59875613
46	0x3f0ca671	0.5494147
47	0x3f320672	0.69541085
48	0xbe0830a4	-0.13299805
49	0xbe1c6048	-0.15271103
50	0x3ee2c86c	0.44293535
51	0xbed341a2	-0.4126101
52	0xbe8fbf96	-0.28075856
53	0xbe5fbb49	-0.21848787
54	0xbdd37518	-0.10325068
55	0x3dfc8572	0.1233014
56	0xbe4e58ac	-0.20151013
57	0xbdbede38	-0.093197286
58	0xbec040d4	-0.3754946
59	0x3ec5c63b	0.386278
60	0x3e4b9984	0.1988278
61	0xbeb0dca2	-0.3454333
62	0xbef1ae92	-0.472035
63	0x3d003ad0	0.031306088
64	0x3d5153c9	0.051105294
65	0xbcdbe635	-0.02684317
66	0xbe186902	-0.14883807
67	0x3f008959	0.50209576
68	0x3e0cd2a5	0.1375223
69	0x3e266ce2	0.16252473
70	0xbeecccfe	-0.46250147
71	0x3e720c21	0.2363744
72	0xbe92d97d	-0.28681555
73	0xbdf5760f	-0.119854085
74	0xbe4d9a68	-0.20078433
75	0x3ef8da6f	0.48604152
76	0xbec6c3b6	-0.3882119
77	0x3ec35019	0.38147047
78	0xbe8a4268	-0.2700379
79	0xbe160631	-0.146508
80	0xbe99fcf2	-0.30075794
81	0x3e84d7df	0.25945947
82	0x3eb2e757	0.34942123
83	0xbebc2bc6	-0.36752146
84	0xbc5c0c73	-0.0134307025
85	0x3e71def1	0.23620202
86	0xbe8ee173	-0.2790638
87	0x3c4eeaf6	0.012629261
88	0x3ebaaa7f	0.36458203
89	0x3e9b970c	0.30388677
90	0x3f058fd6	0.521726
91	0x3edb3a61	0.42817977
92	0x3edcaef9	0.43102244
93	0x3eeb0ee4	0.45909798
94	0x3f0a3781	0.5399094
95	0xbebd5d21	-0.36985114
96	0xbe43786a	-0.19088903
97	0x3f0cda80	0.55020905
98	0x3ec31d42	0.3810826
99	0xbe7a0e30	-0.24419475
100	0xbdc55127	-0.09634619
101	0xbeafa404	-0.34304821
102	0x3ef25a1b	0.4733437
103	0xbd6586de	-0.056036822
104	0x3ef711eb	0.48255858
105	0x3d7e79f4	0.062128022
106	0x3ee8d6cf	0.45476386
107	0x3eca2923	0.3948451
108	0xbed0bfa2	-0.40771204
109	0xbe115530	-0.14192653
110	0x3d018cf0	0.03162855
111	0xbeee8dd2	-0.46592575
112	0x3dfe2282	0.124089256
113	0xbdbcb764	-0.092146665
114	0x3ef4fe26	0.4785015
115	0x3e4a955d	0.1978354
116	0x3e122fe2	0.14276078
117	0x3eb3f408	0.3514712
118	0x3eacf8a7	0.33783457
119	0xbed1d734	-0.409845
120	0x3eba23b9	0.3635538
121	0x3de2d5a8	0.11075908
122	0xbd5027f7	-0.050819363
123	0x3dd7f69c	0.10545084
124	0xbefd19dc	-0.49433792
125	0xbe903da8	-0.2817204
126	0xbddfbc80	-0.109246254
127	0xba408000	-0.0007343292
128	0x3e96bcde	0.2944097
129	0x3ef4ec18	0.47836375
130	0x3e12c7f7	0.14334093
131	0xbde2b5ac	-0.110698074
132	0x3dc1ed21	0.09469057
133	0xbbe64e84	-0.0070284028
134	0xbc46fe87	-0.012145645
135	0x3ed694ff	0.4191055
136	0x3e3a22da	0.18177357
137	0xbb605ba1	-0.0034234303
138	0xbdf7f70d	-0.12107668
139	0x3f0e768b	0.5564963
140	0xbedf46c0	-0.43608665
141	0x3e3371a0	0.17523813
142	0x3cee44c0	0.029085517
143	0xbe9d59a8	-0.30732465
144	0xbd856dc8	-0.0651508
145	0xbda11a10	-0.07866299
146	0x3dd95870	0.10612571
147	0x3c81c840	0.015842557
148	0x3bd91353	0.006624618
149	0x3ef36605	0.47538772
150	0xbeb05627	-0.3444073
151	0x3e91b0c2	0.28455168
152	0x3ebdf33f	0.37099645
153	0xbdf98f4d	-0.121855356
154	0xbe8fded7	-0.280997
155	0x3daa58a0	0.08317685
156	0xbee02cad	-0.43784085
157	0x3f0e3d6d	0.5556248
158	0x3d426de3	0.047468077
159	0x3d6ee8b8	0.058327407
160	0xbec0d932	-0.37665707
161	0x3e4c646c	0.19960183
162	0xbe7f66d8	-0.24941576
163	0xbe8a8204	-0.2705232
164	0x3e8b5395	0.27212206
165	0x3e7ac88c	0.24490565
166	0x3d01771f	0.031607743
167	0xbc5f4baf	-0.013628884
168	0xbda88f22	-0.082304254
169	0x3e9ec440	0.31009102
170	0x3f0b252f	0.5435361
171	0x3ed34888	0.41266274
172	0xbc5ca727	-0.013467587
173	0x3eca124d	0.39467087
174	0x3ee5512e	0.44788498
175	0xbe87efbc	-0.2655009
176	0x3e92e93a	0.28693563
177	0x3ef5b1d4	0.47987235
178	0x3df2a170	0.11847198
179	0x3e1a8b16	0.1509212
180	0xbdfd3cc3	-0.12365105
181	0x3ebb9692	0.36638314
182	0x3d3feb21	0.046855096
183	0x3e23e74d	0.16006203
184	0x3ee0bdd0	0.43894815
185	0xbea2e829	-0.3181775
186	0xbe98853d	-0.29789153
187	0x3eb8e43b	0.36111626
188	0x3eb7fbdc	0.3593434
189	0xbd610c82	-0.05494357
190	0x3e01f58a	0.12691322
191	0x3e99dfbc	0.30053508
192	0xbe07138b	-0.13191049
193	0x3e4a6dcf	0.19768451
194	0x3ec38615	0.38188234
195	0xbc250c17	-0.010073683
196	0x3ef5c1c4	0.47999394
197	0x3ed43835	0.41449133
198	0x3d4eba48	0.05047062
199	0x3f0c99c7	0.54922146
200	0x3e992822	0.2991343
201	0xbef395b0	-0.4757514
202	0xbeb496fa	-0.35271436
203	0xbd2c68a0	-0.042091966
204	0x3f07d4e6	0.5305923
205	0xbd10a62d	-0.035314728
206	0x3ccce2d9	0.025010513
207	0x3e25a9c7	0.16178046
208	0x3e5ce8bc	0.21573156
209	0xbe814150	-0.25245142
210	0x3de87ee0	0.113523245
211	0xbe7fa8c8	-0.24966729
212	0xbed10843	-0.40826616
213	0x3ea67b25	0.32515827
214	0x3ea08e16	0.31358403
215	0x3e2cfde4	0.16893727
216	0xbeb0775e	-0.3446607
217	0xbe5279de	-0.20554301
218	0x3e93cde5	0.28868023
219	0x3ee2f3fb	0.44326767
220	0x3d4decc6	0.050274633
221	0xbbf6be55	-0.0075300136
222	0xbe6e66cd	-0.23281403
223	0x3e5161d6	0.20447478
224	0xbdb98c80	-0.090600014
225	0x3f0e6d4f	0.5563554
226	0xbd2fd04a	-0.04292325
227	0x3e32cf49	0.17461886
228	0x3e6bdfd2	0.230346
229	0xbcdddb3d	-0.02708208
230	0x3ee88b79	0.4541891
231	0x3e932be9	0.28744438
232	0x3e9beec6	0.30455607
233	0x3e65911f	0.2241864
234	0x3e2acb90	0.16679215
235	0x3eac2d55	0.33628336
236	0x3dc7b8be	0.09752034
237	0xbd8a151b	-0.06742307
238	0x3ebadde4	0.36497414
239	0x3c1a06e0	0.009401053
240	0x3f00161e	0.5003375
241	0x3e44cb85	0.19218262
242	0xbeb108fc	-0.34577167
243	0x3f0a28b3	0.5396835
244	0x3f0e4a92	0.55582535
245	0xbe8e3398	-0.27773738
246	0x3dccb962	0.099962965
247	0xbd99ef15	-0.075163044
248	0xbeccf1b4	-0.40028155
249	0xbe236e00	-0.1595993
250	0x3a4ccc00	0.0007812381
251	0xbe6d1b1c	-0.23154873
252	0x3f0bf74a	0.5467421
253	0x3eb83b6b	0.35982832
254	0xbebff82d	-0.3749403
255	0x3efdb822	0.49554545

network.0.bias f4 [128]
0	0x3ee36731	0.44414666
1	0xbe6a7182	-0.22894862
2	0xbe9fa062	-0.3117705
3	0x3ee27de8	0.44236684
4	0xbedd52ba	-0.43227178
5	0xbd32a530	-0.043614566
6	0xbe81989e	-0.2531175
7	0x3e378756	0.1792272
8	0xbe4be3fc	-0.19911188
9	0xbca6bb8d	-0.020353103
10	0x3e6abdf8	0.2292403
11	0x3f432c77	0.7623972
12	0xbe254d94	-0.16142875
13	0x3efc15d7	0.49235412
14	0x3e5fbc7e	0.21849248
15	0xbea6b9f2	-0.3256374
16	0xbe77c0c7	-0.24194632
17	0xbe8f3b53	-0.27974948
18	0x3e0cb9ef	0.13742803
19	0x3f030e1d	0.5119341
20	0x3edf06a4	0.43559754
21	0x3eda7ba5	0.42672458
22	0x3f022f4d	0.50853425
23	0xbe200384	-0.15626341
24	0xbea9f9c9	-0.33198383
25	0x3e2a3423	0.16621451
26	0x3e8877d2	0.26653916
27	0xbeafc5ee	-0.34330696
28	0xbe6ffc49	-0.23436083
29	0x3ec476a7	0.38371775
30	0x3e4a6aaa	0.19767252
31	0xbe2bdc54	-0.16783267
32	0x3e3754ab	0.17903392
33	0xbc18fd4c	-0.009337734
34	0xbeca9aec	-0.3957132
35	0xbed4e2ee	-0.41579384
36	0xbebe4bea	-0.37167293
37	0xbcbc390b	-0.022976419
38	0xbdb97d4c	-0.090571016
39	0xbd670acb	-0.056406777
40	0xbe99a07a	-0.30005246
41	0x3eb9ddbe	0.36301988
42	0x3f06d416	0.5266737
43	0xbde65fc4	-0.112487346
44	0x3eab4f8e	0.33459133
45	0x3e6c2522	0.2306104
46	0x3efba5f5	0.49150053
47	0x3e416912	0.18887737
48	0xbcca4e28	-0.02469547
49	0x3d32423c	0.043520197
50	0xbedba2d0	-0.42897654
51	0x3daf0bc3	0.08547165
52	0xbe962670	-0.293262
53	0xbcf9369b	-0.030421546
54	0xbe9f831d	-0.3115472
55	0x3df4bb60	0.119498014
56	0x3e84fc30	0.25973654
57	0xbed39968	-0.41327977
58	0x3e8bd772	0.2731281
59	0xbe0ef457	-0.13960396
60	0xbe256948	-0.16153443
61	0x3e9e19e8	0.3087914
62	0xbec2b530	-0.3802886
63	0x3e96186b	0.29315504
64	0x3d5c6de3	0.053815734
65	0x3c87156c	0.016489707
66	0x3e2cc62d	0.16872473
67	0x3da71d44	0.08159879
68	0x3da500a7	0.08056765
69	0x3e7d8c2a	0.247605
70	0x3e70de80	0.23522377
71	0x3e9d5554	0.30729163
72	0xbec159b8	-0.37763762
73	0x3ec66950	0.38752222
74	0x3edd310f	0.4320149
75	0xbe5dc674	-0.21657735
76	0x3ee8c4fc	0.45462787
77	0x3ed482a8	0.41505933
78	0xbe0bcd38	-0.13652503
79	0x3dcfb8c0	0.1014266
80	0x3f0e7541	0.55647665
81	0xbe61173b	-0.21981518
82	0x3efd3dfe	0.4946136
83	0x3f2bd1a4	0.6711676
84	0x3e7d0cbd	0.2471189
85	0x3f0d5003	0.55200213
86	0xbdf336f8	-0.11875719
87	0x3d889715	0.066694416
88	0xbef71390	-0.48257113
89	0xbda0ede0	-0.07857871
90	0x3f0a2722	0.5396596
91	0x3ea19c93	0.3156477
92	0x3ce54a26	0.027989458
93	0xbe653874	-0.22384816
94	0x3c03c687	0.008042938
95	0xbeafbd00	-0.34323883
96	0x3ee006ad	0.43755093
97	0x3e946907	0.2898638
98	0xbebac3de	-0.3647756
99	0x3ea51f83	0.32250604
100	0x3dfda68c	0.12385282
101	0xbb3ad407	-0.0028507726
102	0x3d89dea6	0.0673192
103	0x3d95990d	0.07304583
104	0x3dc5dda8	0.09661418
105	0x3eef154f	0.46695945
106	0xbdac26f1	-0.08405865
107	0x3edb4019	0.4282234
108	0x3efa2963	0.488597
109	0x3ee4b613	0.44670162
110	0xbe6da9c4	-0.23209292
111	0xbeab7280	-0.33485794
112	0x3d976268	0.073918164
113	0x3ede7de0	0.4345541
114	0x3f01b83b	0.5067174
115	0xbdf23601	-0.11826707
116	0x3e21c13c	0.1579637
117	0xbedd6546	-0.43241328
118	0x3ccea3fc	0.025224678
119	0x3e4c1b39	0.1993226
120	0x3eea7e21	0.45799354
121	0x3eb1ac50	0.34701777
122	0x3edab889	0.42718914
123	0x3ef6d5a5	0.48209873
124	0xbeac2048	-0.3361838
125	0x3ecda006	0.4016115
126	0x3e5477ee	0.20748875
127	0x3e95f19e	0.29285902

network.2.weight f4 [64, 128]
0	0xba114072	-0.0005540914
1	0x3ded1c53	0.11577668
2	0x3d295403	0.041339885
3	0x3dcc2c54	0.099693924
4	0x3daaaf7f	0.083342545
5	0xbd441abf	-0.04787707
6	0xbcef2893	-0.029194152
7	0x3d3f4d60	0.04670465
8	0xbdb24850	-0.08705199
9	0x3dd66ca6	0.10469942
10	0x3df28594	0.11841884
11	0x3f5d2f0b	0.86399907
12	0x3c8af0cc	0.016960524
13	0x3de3a642	0.111156955
14	0x3e18defc	0.14928812
15	0xbd6cb200	-0.05778694
16	0x3dce7f3d	0.100828625
17	0xbcea2afe	-0.028584953
18	0x3d1371cb	0.035997193
19	0x3d83a446	0.06427817
20	0xbba8a880	-0.00514704
21	0x3d8eb240	0.06967592
22	0x3e03a5e9	0.12856258
23	0x3c2c0ecc	0.010501575
24	0x3d3904e9	0.0451707
25	0x3d296307	0.041354205
26	0x3dadbbb6	0.08483069
27	0x3db4466c	0.088024944
28	0x3e0abeb7	0.13549314
29	0x3d893c32	0.067009345
30	0xbcc079b4	-0.023495533
31	0x3d88c248	0.06677681
32	0x3d7c99fa	0.06167028
33	0x3d869982	0.06572248
34	0x3d7ba89d	0.0614401
35	0xbc23f94e	-0.010008169
36	0xbc017410	-0.007901207
37	0x3e02bf40	0.12768269
38	0x3dd5f1fe	0.10446547
39	0x3d80a268	0.062809765
40	0x3cf242cf	0.029572872
41	0xbc2c57f4	-0.0105190165
42	0x3e053894	0.13009864
43	0x3e10679d	0.14102025
44	0x3df2eb72	0.11861314
45	0x3bab1ae1	0.00522171
46	0x3c8c001f	0.017089901
47	0x3d9f3cec	0.07775292
48	0x3d882d85	0.06649307
49	0x3d41471b	0.047186952
50	0xbd290769	-0.041266833
51	0xbb79730f	-0.0038062965
52	0x3a88daaa	0.0010441144
53	0x3d0cc2e1	0.03436554
54	0x3dda5a1a	0.10661717
55	0xbcdc605f	-0.026901422
56	0x3cb2c65b	0.021823099
57	0x3d9eb350	0.07749045
58	0xbc7d7c2b	-0.0154714985
59	0x3d20fc60	0.039303184
60	0x3cc04048	0.023468152
61	0x3dc39113	0.09549155
62	0xbcf3b59f	-0.02974969
63	0x3e0e92f0	0.1392324
64	0x3c8293d6	0.015939634
65	0x3c186799	0.009302043
66	0x3cde2fce	0.027122404
67	0x3da7b23c	0.081882924
68	0x3d8f9e71	0.07012642
69	0x3da7233c	0.08161017
70	0x3cea1e0c	0.02857878
71	0x3b8fa93b	0.0043841875
72	0xbd365ebc	-0.04452394
73	0x3d131d50	0.035916626
74	0x3e0d8628	0.13820708
75	0x3cf605f5	0.030032137
76	0x3d1f4eb4	0.038893417
77	0x3e44418b	0.19165628
78	0x3c28bd3a	0.010299021
79	0x3e265e67	0.16246949
80	0xbc413d46	-0.011794394
81	0x3dd02806	0.10163884
82	0x3bacb766	0.0052708862
83	0x3f029747	0.5101208
84	0x3df6314d	0.12021122
85	0x3de3af93	0.111174725
86	0x3de30324	0.110845834
87	0xbd0c00f3	-0.034180593
88	0x3dac912b	0.08426126
89	0x3dacaa71	0.084309466
90	0x3d4186a7	0.047247555
91	0x3de62415	0.11237351
92	0xbd541398	-0.0517765
93	0x3d3deab8	0.046366423
94	0x3e0b91e1	0.13629867
95	0xbc63e18c	-0.013908755
96	0x3cb96c5e	0.022634681
97	0x3ce72fb6	0.028220993
98	0x3d98e9c9	0.07466466
99	0xbcb315d4	-0.021860994
100	0x3d792fbf	0.06083655
101	0xbc93bc25	-0.01803405
102	0x3a0361e8	0.00050118426
103	0x3ce4b268	0.027917102
104	0xbc067ed9	-0.008208954
105	0xbc3d4885	-0.011552935
106	0x3d8fc09e	0.07019161
107	0x3d9ef478	0.077614725
108	0x3cb697e8	0.022289231
109	0x3db03c83	0.08605292
110	0xbd69af41	-0.0570519
111	0xbd04dbae	-0.032436065
112	0x3db0953b	0.086222135
113	0xbce458e1	-0.027874412
114	0x3cc34d5c	0.023840599
115	0xbd052d36	-0.03251382
116	0x3d7362c5	0.059420366
117	0xbd846b54	-0.06465784
118	0x3dc9fa3f	0.09862184
119	0x3d9c3008	0.07626349
120	0x3dd3c6b8	0.10340637
121	0x3c5eb4b0	0.013592884
122	0x3d8fbbf4	0.07018271
123	0xbaab6c1c	-0.0013078484
124	0xbd61df64	-0.055144683
125	0x3d56d345	0.052447576
126	0x3d82287d	0.06355379
127	0xbd0b6487	-0.034031417
128	0xbd3119aa	-0.043237366
129	0xbbfad036	-0.007654215
130	0x3d5aa2a3	0.05337776
131	0xbd5ea2ea	-0.054354586
132	0x3d943273	0.07236185
133	0x3d196820	0.037452817
134	0xbc1c4ae3	-0.009539339
135	0x3da40232	0.08008231
136	0xbd15de30	-0.036588848
137	0xbb80b267	-0.003927517
138	0xbdacfb05	-0.08446316
139	0x3db4924c	0.088169664
140	0x3d96e3c6	0.07367663
141	0x3d232d37	0.039838042
142	0x3aa8dd53	0.0012883343
143	0x3d6b3115	0.057419855
144	0xbda690c1	-0.08133078
145	0xbdacce72	-0.08437814
146	0xbd455e15	-0.048185427
147	0x3d2a342f	0.041553672
148	0x3cff9754	0.031200089
149	0xbc7a0a4f	-0.015261247
150	0x3cc58aa4	0.02411396
151	0x3d1fcdd4	0.039014652
152	0xbd6c030f	-0.057620104
153	0x3d4d6db2	0.05015344
154	0xbca74b29	-0.020421581
155	0x3ca91dea	0.020644147
156	0xbcef7ac7	-0.02923335
157	0x3d4c8d41	0.049939398
158	0xbcab0ba2	-0.02087957
159	0x3d9d72eb	0.076879345
160	0x3ad2ddf2	0.0016087873
161	0x3d0214be	0.031758063
162	0xbd8e7fa6	-0.06957941
163	0x3ca42a2f	0.020039646
164	0x3d94f6fa	0.072736695
165	0xbd80b99d	-0.06285403
166	0x3d72f068	0.0593113
167	0x3d56e2b8	0.05246231
168	0x3d0666b3	0.032812785
169	0xbd99aaf6	-0.07503311
170	0x3c8333cb	0.016015908
171	0x3d49fc7a	0.049313046
172	0xbc57dfd7	-0.013175926
173	0x3d3e8bb5	0.046519954
174	0x3d0ed2a5	0.034868855
175	0xbd877f30	-0.06616056
176	0x3cbb1211	0.022835763
177	0xbca97f30	-0.02069053
178	0x3c3b565e	0.011434166
179	0xbd3ba7df	-0.04581439
180	0xbd6d376c	-0.057914183
181	0xbd9df61f	-0.077129595
182	0xbce587ef	-0.02801892
183	0xbd4fb7a2	-0.050712235
184	0xbc5ea3d0	-0.013588861
185	0xbd541a99	-0.051783178
186	0x3d92b1a4	0.071627885
187	0xbd396ed1	-0.0452717
188	0xbd8f0ad7	-0.069844894
189	0x3d2e2120	0.04251206
190	0x3d847b9f	0.06468891
191	0xbda0c839	-0.078506894
192	0xbd2f41ba	-0.04278729
193	0x3d944ba4	0.0724099
194	0xbc83002c	-0.015991293
195	0x3da99142	0.08279659
196	0x3cd97d4d	0.026549006
197	0xbd7d903c	-0.06190513
198	0x3b1f1d98	0.0024279114
199	0x3c443e7a	0.011977786
200	0xbd8b7ab3	-0.068105124
201	0x3c8c6177	0.017136319
202	0x3d941361	0.07230259
203	0x3d2bb625	0.041921753
204	0xbd867eb5	-0.06567136
205	0x3d789a92	0.060694285
206	0xbd4a4053	-0.04937775
207	0xba37694e	-0.00069965876
208	0x3c3b65f8	0.011437885
209	0xbd322041	-0.04348779
210	0x3d21a92e	0.039467983
211	0xbd068499	-0.0328413
212	0xbd95d985	-0.07316879
213	0x3d44abe4	0.04801549
214	0xbdabf08c	-0.0839549
215	0xbd185bef	-0.03719705
216	0xbd8e0987	-0.06935411
217	0x3d5c5c64	0.053799048
218	0xbd1d6204	-0.038423553
219	0x3d282a8a	0.041056193
220	0x3d02678d	0.031837035
221	0x3d55c7ca	0.052192487
222	0x3c0828a7	0.0083104735
223	0x3cafac6f	0.021444527
224	0xbbaebd58	-0.00533263
225	0x3db4f9f2	0.08836736
226	0x3d41048e	0.047123484
227	0x3c8a8671	0.01690981
228	0xbd512e44	-0.051069513
229	0x3c081858	0.008306585
230	0x3b47a4f8	0.003046332
231	0x3d0c373a	0.034232356
232	0xbd4ffb8f	-0.050777014
233	0x3d8d9e12	0.06914915
234	0x3d91178d	0.0708457
235	0x3d3c4bd2	0.045970745
236	0xbcfb567f	-0.030680893
237	0x3cb447f4	0.022006966
238	0x3c565941	0.013082803
239	0x3ccee86b	0.02525731
240	0xbd61c535	-0.055119712
241	0xbc11f3b3	-0.0089082
242	0x3d0935a9	0.03349844
243	0x3d5eccd0	0.054394543
244	0x3cf7136e	0.030160632
245	0xbd691dbc	-0.056913123
246	0xbd020ff2	-0.031753488
247	0x3d41f6f3	0.04735465
248	0xbd601615	-0.05470856
249	0x3d4286de	0.0474919
250	0xbd7efc90	-0.06225258
251	0xbd8a1ca9	-0.06743748
252	0x3c03c312	0.008042114
253	0xbd7a0ffd	-0.061050404
254	0xbda40139	-0.08008046
255	0xbd34c4d8	-0.044133037

network.2.bias f4 [64]
0	0x3d11a974	0.035561994
1	0xbda57293	-0.08078494
2	0xbd290558	-0.04126486
3	0xbcaa1863	-0.020763582
4	0xbbabffab	-0.005248984
5	0x3dd0abd9	0.10189027
6	0xbd8ac12a	-0.06775124
7	0x3c7aae2f	0.015300318
8	0x3d71039e	0.05884134
9	0x3d0286be	0.03186678
10	0x3da8d65c	0.08244011
11	0x3dfec20f	0.124393575
12	0x3d84ad97	0.06478422
13	0xbcb3e035	-0.021957496
14	0x3d107ec5	0.035277147
15	0xbdd24b49	-0.10268266
16	0x3d315978	0.043298215
17	0x3d807397	0.06272047
18	0xbc3214b9	-0.0108691985
19	0x3dc4633d	0.09589241
20	0x3dfa44c8	0.1222015
21	0x3d4d2f4d	0.050093938
22	0xbc85fa9f	-0.016354857
23	0x3da2e439	0.07953686
24	0x3d84edc2	0.06490661
25	0x3d1c1937	0.038109984
26	0xbb7f71fe	-0.0038977857
27	0x3ddb2a01	0.10701371
28	0x3d5e3cea	0.05425731
29	0xbd98f1d5	-0.07468001
30	0x3b82d8bc	0.003993122
31	0x3df0946f	0.117470615
32	0x3e0300f3	0.12793331
33	0x3dba8608	0.09107596
34	0xbdab7bef	-0.08373248
35	0xbdbbe425	-0.091743745
36	0xbdb26880	-0.08711338
37	0x3d34ed97	0.044171896
38	0x3d6df051	0.05809051
39	0x3c56b16d	0.013103825
40	0xbdae02af	-0.084966056
41	0x3d2aadf9	0.04166982
42	0x3da0667c	0.07832047
43	0x3da153a4	0.07877281
44	0xbd708a6a	-0.058725752
45	0xbc96a5b4	-0.01838956
46	0x3d6e7519	0.05821714
47	0x3d18e21b	0.037325006
48	0x3d983b3e	0.074331746
49	0x3d076975	0.033059556
50	0xbd3d121d	-0.046159852
51	0xbc8a31f8	-0.01686953
52	0x3dd59a2a	0.10429795
53	0xbb95f315	-0.004576097
54	0xbd305b82	-0.04305602
55	0xbaf03b4f	-0.0018328222
56	0x3bad02b5	0.0052798637
57	0x3d47c3fa	0.048770882
58	0xbcdb42b4	-0.026765205
59	0x3c9711e1	0.018441143
60	0x3c5a86cc	0.013337802
61	0xbd85384b	-0.06504878
62	0x3dc24cff	0.09487342
63	0xbda33b72	-0.07970323

network.4.weight f4 [32, 64]
0	0xbd956119	-0.072939105
1	0xbde1831c	-0.11011335
2	0xbde7a994	-0.11311641
3	0x3d001abc	0.031275496
4	0xbc8cad69	-0.017172532
5	0xbc642b6d	-0.013926369
6	0x3ce1b4cb	0.02755203
7	0xbc45a8c0	-0.012064159
8	0x3dfb821c	0.12280676
9	0x3d8325a2	0.06403662
10	0x3df279e0	0.11839652
11	0x3d690e97	0.05689868
12	0xbdc02aff	-0.09383201
13	0xbb63ce80	-0.0034760535
14	0xbdf8b852	-0.12144531
15	0x3dd62f24	0.1045821
16	0xbe0178c4	-0.12643725
17	0xbd7cd21c	-0.061723813
18	0x3da2c9d0	0.07948649
19	0x3d8dd462	0.069252744
20	0x3ddf8178	0.10913366
21	0x3dbdccc1	0.09267569
22	0xbddeb82f	-0.10874974
23	0xbd490779	-0.049079392
24	0xbb6732c0	-0.0035278052
25	0x3de4537e	0.11148737
26	0x3dea8e8a	0.114529684
27	0xbc45443e	-0.012040196
28	0xbdbbc4d2	-0.091684
29	0xbd46a260	-0.048494697
30	0x3dd1fe38	0.102535665
31	0x3ddfc8d4	0.10926977
32	0xbd7447b1	-0.059638683
33	0x3caa7da8	0.02081187
34	0x3d8d47de	0.06898473
35	0xbd296b0e	-0.04136186
36	0xbdb27635	-0.087139525
37	0x3db80526	0.08985357
38	0xbd959f00	-0.073057175
39	0xbd147d42	-0.036252268
40	0x3ce3b9f8	0.027798638
41	0xbdfd808e	-0.123780355
42	0xbd2ed93a	-0.042687632
43	0xbcb7dade	-0.022443231
44	0xbb81d380	-0.0039619803
45	0xbdf0de05	-0.11761097
46	0x3dd06ab2	0.101766005
47	0x3ae6e0e7	0.0017614634
48	0xbc9fdedd	-0.01951545
49	0xbd6bcda0	-0.057569146
50	0xbdb527fe	-0.088455185
51	0x3cc5e90a	0.024158973
52	0x3db06c45	0.08614401
53	0xbdc04d11	-0.09389699
54	0x3da8d70a	0.082441404
55	0xbd77085b	-0.060310703
56	0xbda2203e	-0.07916306
57	0x3d78e7e5	0.060768027
58	0x3dcd7633	0.1003231
59	0x3ce0c9c8	0.027439967
60	0x3d6d999f	0.058007833
61	0xbc575d38	-0.013144784
62	0x382a5191	4.0607123e-05
63	0x3d093ecf	0.033507165
64	0x3e2e3477	0.17012201
65	0x3b753d80	0.003742069
66	0xbc819570	-0.015818328
67	0x3e3d87d6	0.18508849
68	0x3e2758a5	0.16342409
69	0xbd85b39c	-0.065283984
70	0xbc4966a8	-0.012292542
71	0xbd87d886	-0.066330954
72	0xbd946084	-0.072449714
73	0xbddeb15f	-0.108736746
74	0x3dd2146c	0.102578014
75	0xbd838a28	-0.064228356
76	0x3de62a99	0.112385936
77	0xbd312eec	-0.04325764
78	0x3a9adeeb	0.0011815702
79	0x3dabe799	0.08393783
80	0xbdc3643d	-0.09540603
81	0xbd323823	-0.043510567
82	0x3d86ddad	0.0658525
83	0x3e083e55	0.13305028
84	0x3e275c58	0.1634382
85	0x3ddcb27f	0.10776233
86	0xbd9d9f73	-0.07696428
87	0x3e075439	0.13215722
88	0xbd53b23c	-0.05168365
89	0xbd2c1511	-0.042012278
90	0x3d5769ae	0.05259102
91	0x3d305846	0.043052934
92	0x3bd72380	0.006565511
93	0xbdac36d5	-0.08408896
94	0xbd08fa02	-0.03344155
95	0x3e071f23	0.13195471
96	0xbd0e1936	-0.03469201
97	0x3cad8742	0.02118266
98	0x3c080300	0.0083014965
99	0xbe0139ff	-0.1261978
100	0xbd68f907	-0.056878116
101	0x39879085	0.00025856882
102	0x3d3d13db	0.046161514
103	0xbcd06274	-0.025437571
104	0xbcf6b498	-0.03011541
105	0x3dbe8780	0.09303188
106	0x3d8ae848	0.067825854
107	0x3e2d458d	0.16921063
108	0xbd4f8f84	-0.050673977
109	0x3e1269b2	0.14298132
110	0xbd55ae22	-0.05216802
111	0xbdd55fe4	-0.1041868
112	0x3d079eaa	0.0331103
113	0xbdeb97e2	-0.11503579
114	0x3ddbdd9c	0.10735628
115	0x3dbc64e3	0.0919893
116	0x3dc547eb	0.09632858
117	0x3db6e833	0.08931007
118	0xbd1df13b	-0.038560133
119	0xba978119	-0.001155886
120	0x3c88445a	0.016634155
121	0x3d06f348	0.032946855
122	0x3db08eec	0.0862101
123	0xbd66b37c	-0.056323513
124	0x3deb6812	0.11494459
125	0x3d6c294d	0.057656575
126	0x3ce3fa02	0.027829174
127	0xbda22702	-0.079175964
128	0x3cef4694	0.029208459
129	0xbdba8500	-0.09107399
130	0xbb0a9a40	-0.002114907
131	0xbd1cc96b	-0.038278025
132	0x3dcc03bf	0.09961652
133	0x3bc0bc9a	0.005881858
134	0x3d0409e0	0.03223598
135	0xbd0155c0	-0.03157592
136	0x3c7522b0	0.014961883
137	0x39d88a00	0.00041301548
138	0xbd64d460	-0.0558666
139	0xbd9506b3	-0.072766684
140	0xbe055962	-0.13022378
141	0x3d89d1f4	0.067294985
142	0xbd766a58	-0.06016001
143	0xbdc5bb42	-0.09654857
144	0x3dbe75c6	0.09299807
145	0x3de972b0	0.11398828
146	0x3da6ebcb	0.08150443
147	0xbd9a9bcb	-0.075492464
148	0x3dc2b3d7	0.09506958
149	0xbd823815	-0.06358353
150	0xbcdffea0	-0.027343094
151	0x3c9c0e8b	0.019049903
152	0x3d024b18	0.031809896
153	0x3c6eff70	0.014587268
154	0xbd9b76b0	-0.07590997
155	0x3d10a41e	0.035312764
156	0x3c2dbad0	0.010603622
157	0xbddf40e4	-0.10901049
158	0xbdbdadd5	-0.092616715
159	0x3db2c888	0.087296546
160	0x3d9a0b41	0.07521678
161	0x3ddfac26	0.109215066
162	0xbdee1ec6	-0.11626963
163	0x3db773c2	0.08957626
164	0x3da546ec	0.08070168
165	0xbe029b3e	-0.12754533
166	0x3d7af68d	0.061270285
167	0x3cf8e880	0.030384302
168	0x3c0f8bd0	0.008761361
169	0xbd7da1d0	-0.061921895
170	0xbdf1766c	-0.11790165
171	0xbdfe74f0	-0.12424648
172	0xbd724c28	-0.05915466
173	0xbdd32051	-0.10308898
174	0xbd34e1f4	-0.0441608
175	0xbddf8052	-0.10913147
176	0x3d178b0b	0.036997836
177	0x3dc3fcd8	0.095697105
178	0xbd25590c	-0.040368125
179	0xbd87fc88	-0.066399634
180	0xbcda5daa	-0.02665599
181	0x3d143c53	0.036190342
182	0xbce371e0	-0.02776426
183	0x3d807e12	0.06274046
184	0xbdd724e0	-0.1050508
185	0xbdcd83fc	-0.1003494
186	0x3dbf8b42	0.09352733
187	0x3ddff634	0.109356314
188	0xbe041c59	-0.12901439
189	0xbde2a9de	-0.11067556
190	0x3b905154	0.0044042263
191	0x3db3e304	0.08783534
192	0x3d81d0c5	0.06338648
193	0xbcc91080	-0.024544
194	0x3d33b164	0.043870345
195	0x3e1f98d9	0.1558565
196	0xbbdb9cdf	-0.00670205
197	0x3b1eb643	0.0024217523
198	0x3cc69bf0	0.024244279
199	0x3df9cc30	0.12197149
200	0x3da81296	0.0820667
201	0xbcf4b3cc	-0.02987089
202	0x3ddff3d6	0.1093518
203	0x3d1e431e	0.038638227
204	0xbcb3dae6	-0.021954965
205	0x3dd32378	0.103094995
206	0xbd85662d	-0.06513629
207	0x3d0d6b3c	0.034526095
208	0x3d0b298c	0.03397517
209	0x3d3b4b0c	0.045725867
210	0x3e0c2f91	0.1369002
211	0x3e245312	0.16047314
212	0xbc3898f8	-0.011266939
213	0xbb09ae21	-0.002100833
214	0xbc941d60	-0.018080413
215	0xbd2ba076	-0.041901074
216	0x3d271c90	0.040798724
217	0xbc945961	-0.018109025
218	0xbd69e684	-0.057104602
219	0x3e242722	0.16030553
220	0xbd1d3bbc	-0.038387045
221	0x3b869e20	0.0041082054
222	0xbd0f0027	-0.034912255
223	0x3e124089	0.1428243
224	0x3e28ff64	0.16503674
225	0x3bb98aba	0.0056622894
226	0xbdb9a47e	-0.090645775
227	0xba61af00	-0.0008609146
228	0x3d21e92c	0.03952901
229	0x3bf66053	0.007518807
230	0x3e1537b5	0.14572032
231	0xbdb74da4	-0.08950356
232	0xbd03b9a4	-0.032159463
233	0xbdccc20c	-0.09997949
234	0x3e2b2056	0.16711554
235	0x3e29f19b	0.16596071
236	0xbc032ff0	-0.008007035
237	0xbd24b463	-0.040211093
238	0xbd8191c4	-0.06326631
239	0x3dae4846	0.08509879
240	0x3de99b52	0.11406578
241	0xbdf1b874	-0.1180276
242	0xbcb1492f	-0.021641342
243	0x3d86db7f	0.06584834
244	0x3e36cb55	0.17851003
245	0x3d7013f5	0.058612783
246	0xbd80a1a8	-0.062808335
247	0x38fc4dd3	0.00012030792
248	0xbc6ce150	-0.014458016
249	0x3d0dffd0	0.03466779
250	0x3d589098	0.05287227
251	0x3cb962c8	0.02263011
252	0xbcb37f88	-0.021911398
253	0x3c1cf450	0.009579733
254	0x3e199c7c	0.150011
255	0x3decac72	0.11556329

network.4.bias f4 [32]
0	0xbe07a31b	-0.13245814
1	0x3da0a0a0	0.07843137
2	0xbd80f7f0	-0.0629729
3	0xbd1391ea	-0.036027826
4	0x3d535bca	0.05160121
5	0xbda8e8e4	-0.08247545
6	0xbc59c369	-0.013291218
7	0xbdb21414	-0.08695236
8	0xbde5f326	-0.112280175
9	0x3e1595a3	0.14607863
10	0xbc831bfb	-0.016004553
11	0x3e0fc3b9	0.14039506
12	0x3e213034	0.15741044
13	0xbc86cd38	-0.016455278
14	0xbd6e0ee8	-0.058119684
15	0x3db7bb3c	0.08971259
16	0xbdf1e9d2	-0.11812176
17	0xbce836a0	-0.02834636
18	0xbd90f6f4	-0.070783526
19	0x3dc7d26a	0.0975693
20	0x3df109db	0.11769458
21	0x3de2bf03	0.11071589
22	0xbd0a6fc7	-0.033798005
23	0xbdcf77de	-0.10130285
24	0xbcb10c70	-0.021612376
25	0xbdb2d2a6	-0.08731584
26	0xbd8481aa	-0.06470044
27	0x3d3d6bb6	0.0462453
28	0x3d5aa8e1	0.05338371
29	0xbc6f7fd4	-0.014617879
30	0x3d568f8a	0.052382983
31	0x3e1b07e5	0.1513973

network.6.weight f4 [1, 32]
0	0xbb5bd047	-0.003354089
1	0x3d84fa7c	0.064930886
2	0xbd2238a6	-0.039604805
3	0x3dabc76b	0.08387645
4	0x3e97a209	0.2961581
5	0xbddb0213	-0.10693755
6	0xbe2b20e7	-0.1671177
7	0xbd3b92e4	-0.045794383
8	0xbdfbfed8	-0.12304467
9	0x3e3e9770	0.18612456
10	0x3de5980c	0.11210641
11	0x3e723c4a	0.23655811
12	0x3dd0897d	0.10182474
13	0xbe2130bf	-0.15741251
14	0xbd8120b9	-0.063050695
15	0x3e0ab7ad	0.13546629
16	0x3de66722	0.1125014
17	0x3cf753cc	0.030191325
18	0x3e41ac43	0.18913369
19	0x3d8acbea	0.06777175
20	0x3dbdf4b6	0.092751905
21	0xbe2a9efb	-0.16662209
22	0xbd884207	-0.06653219
23	0x3d9a0980	0.07521343
24	0xbd1c7d08	-0.038205177
25	0xbe1e96be	-0.15487191
26	0x3d65036a	0.05591146
27	0xbe0ea739	-0.13930978
28	0xbd98ee76	-0.07467358
29	0xbd87ac6c	-0.06624684
30	0x3bfc0c97	0.0076919305
31	0x3e4ec10b	0.20190828

network.0.weight f4 [128, 3]
0	0xbe84e07a	-0.25952512
1	0x3e60b6a8	0.21944678
2	0xbcb1e212	-0.021714244
3	0xbd9cd8b6	-0.07658522
4	0x3b96ebc4	0.004605742
5	0xbe8bd63b	-0.27311882
6	0xbf390681	-0.7227555
7	0x3f234d9a	0.63790286
8	0xbf11e8a4	-0.56995606
9	0xbe2a7559	-0.16646327
10	0xbf299ade	-0.66251934
11	0xbe2062f9	-0.15662755
12	0x3ccae782	0.024768595
13	0xbe13d1eb	-0.14435546
14	0xbec26a9b	-0.3797196
15	0xbde42fa6	-0.11141901
16	0x3ef18593	0.47172222
17	0xbeea5713	-0.45769557
18	0xbed0482a	-0.40680057
19	0x3f08d8ce	0.5345582
20	0xbe01b0c7	-0.12665091
21	0xbb682176	-0.0035420335
22	0xbb4f3f30	-0.0031623356
23	0x3ec065af	0.37577578
24	0xbcab8709	-0.020938413
25	0xbcb23422	-0.021753374
26	0xbe5b18c6	-0.21396169
27	0xbf0723c5	-0.52788955
28	0x3f7f2bd8	0.99676275
29	0x3e307c50	0.17234921
30	0xbedcc63e	-0.43119997
31	0x3b0d0177	0.0021515766
32	0xbcef66a8	-0.029223755
33	0xbed948ae	-0.42438263
34	0xbd9d54d4	-0.07682195
35	0xbeba1ccd	-0.36350098
36	0xbf65a946	-0.89711416
37	0x3da1ad12	0.07894339
38	0x3f35df81	0.71044165
39	0xbe3731f2	-0.17890146
40	0x3dd880fa	0.10571475
41	0x3c1d4380	0.009598613
42	0xbf42ad65	-0.7604583
43	0xbdfa237d	-0.122138
44	0x3e79b8f3	0.24386959
45	0xbe251d82	-0.16124538
46	0xbedadcf9	-0.42746714
47	0xbd617c46	-0.055050157
48	0xbd215484	-0.03938724
49	0x3cca0b7a	0.024663676
50	0xbedbd956	-0.42939252
51	0x3c93737a	0.0179994
52	0x3e7fdc74	0.2498644
53	0xbec39732	-0.3820129
54	0x3e67ff2d	0.22655936
55	0x3efe7a8b	0.49702868
56	0xbf11b743	-0.5692026
57	0xbe7618a7	-0.24032842
58	0x3c980ea0	0.018561661
59	0x3d7fee5e	0.062483184
60	0x3cb5373f	0.02212107
61	0xbed8b88c	-0.42328298
62	0xbedc24cd	-0.42996827
63	0xbefbc135	-0.49170843
64	0xbdef6f40	-0.11691141
65	0x3e9d4f8c	0.30724752
66	0xbe04d9bd	-0.12973686
67	0xbed289f5	-0.41120878
68	0xbef9ba3d	-0.487749
69	0x3da392c3	0.07986977
70	0x3d023737	0.03179094
71	0xbe7943b5	-0.24342234
72	0xbd0cd571	-0.03438324
73	0x38d6a743	0.0001023547
74	0x3ed1a5ca	0.409468
75	0xbe75fef0	-0.24023032
76	0x3ca3de3b	0.020003429
77	0xbccf0ccd	-0.025274659
78	0xbe4a9b97	-0.19785915
79	0xbe3fc718	-0.18728292
80	0xbe83ad4e	-0.25718158
81	0xbe163d85	-0.14671905
82	0x3e8585d8	0.26078677
83	0x3e6521a1	0.2237611
84	0xbba6ffb5	-0.0050964006
85	0x3cae48b4	0.021274902
86	0xbeeb2c6e	-0.45932335
87	0x3ec0cb08	0.376549
88	0x3ec833dc	0.39102066
89	0xbe774c3f	-0.2415018
90	0xbde9315b	-0.11386367
91	0xbe17667c	-0.14785188
92	0xbe3f7a45	-0.18698986
93	0xbe47e731	-0.19521786
94	0xbe9f23c1	-0.31081966
95	0xbf07381f	-0.5282001
96	0xbe0ef201	-0.13959505
97	0xbd6c7959	-0.057732914
98	0xbe099dec	-0.13439149
99	0xbe3897b0	-0.18026614
100	0x3ef72668	0.4827149
101	0xbef34878	-0.47516227
102	0xbf0ff5c9	-0.56234413
103	0xbecec191	-0.40382054
104	0xbe147546	-0.14497861
105	0xbe902e24	-0.28160203
106	0xbe91c751	-0.2847238
107	0x3dce7f2c	0.1008285
108	0xbf07ab46	-0.5299572
109	0xbe4d3c0c	-0.20042437
110	0xbe7922b6	-0.24329647
111	0xbe15afdb	-0.14617865
112	0xbea3fa9e	-0.32027143
113	0xbdfaa77e	-0.12238978
114	0x3e4a6e18	0.1976856
115	0x3eb587c8	0.35455155
116	0xbe08e467	-0.13368379
117	0xbd94b529	-0.07261116
118	0xbdd9ab02	-0.1062832
119	0xbdf31792	-0.1186973
120	0xbdd17195	-0.10226742
121	0xbdae6a0c	-0.085163206
122	0xbe6fc4c4	-0.23414904
123	0xbcb25479	-0.021768795
124	0x3be6e871	0.007046752
125	0xbe998e12	-0.29991204
126	0xbead0466	-0.33792418
127	0xbf0f64c6	-0.56013143
128	0xbe2ca170	-0.16858459
129	0xbf0ef549	-0.55843025
130	0xbec188b8	-0.3779962
131	0xbd98e396	-0.074652836
132	0xbea4b568	-0.32169652
133	0xbe5afe96	-0.2138618
134	0xbec0476a	-0.37554485
135	0xbfdea3a6	-1.7393692
136	0x3a69bb52	0.00089161575
137	0x3c9c6dfe	0.019095417
138	0xbe84b4da	-0.2591923
139	0xbe8d3152	-0.2757669
140	0xbe500160	-0.20313025
141	0xbd73ddaa	-0.059537567
142	0xbd81b203	-0.06332781
143	0xbe8bb699	-0.27287748
144	0xbd79e55f	-0.06100976
145	0xbe317270	-0.1732881
146	0xbda4ba50	-0.08043349
147	0xbeab5142	-0.33460432
148	0xbe8b6d3a	-0.2723177
149	0x3e3ff23a	0.18744746
150	0xbcb66662	-0.022265617
151	0x3c500cf1	0.012698398
152	0x3e419c50	0.18907285
153	0x3e84fe1c	0.2597512
154	0xc063b2c9	-3.5577872
155	0xbd7d9954	-0.061913803
156	0xbf2655f4	-0.64974904
157	0xbfdd0f66	-1.7270324
158	0xbe7f4b5f	-0.24931096
159	0xbdb1c30a	-0.08679779
160	0xbc445d6f	-0.011985167
161	0xbe51c60b	-0.20485704
162	0xbdea802a	-0.114502266
163	0x39519ced	0.00019990253
164	0xbe3e6b14	-0.18595535
165	0xbe26b75e	-0.16280887
166	0x3c267567	0.010159827
167	0xbe53b011	-0.20672633
168	0xbf0531a0	-0.52028847
169	0xbe8fbb00	-0.28072357
170	0x3d58e3a1	0.05295146
171	0xbea84bff	-0.3287048
172	0xbf06c9d6	-0.5265173
173	0xbd6ef423	-0.058338296
174	0xbcd70cce	-0.026251223
175	0x3c599a4c	0.013281416
176	0xbea0f605	-0.31437698
177	0xbeb576c4	-0.35442173
178	0xbe0b57ee	-0.13607761
179	0x3d847aac	0.0646871
180	0xbf893f1e	-1.0722387
181	0xbf1a5279	-0.60282093
182	0x3e8fc9c9	0.28083637
183	0x3c02751d	0.007962492
184	0x3c652adf	0.013987272
185	0x3e426d2b	0.18986957
186	0xbeeedff8	-0.4665525
187	0xbf085155	-0.532491
188	0xbe942080	-0.28931046
189	0x3bcec970	0.0063106343
190	0xbcba66aa	-0.022754032
191	0xbe7966f3	-0.24355678
192	0xbe6ed80b	-0.23324601
193	0xbc97ed47	-0.01854576
194	0xbe3abdd1	-0.18236472
195	0x3ee40dab	0.44541678
196	0x3f5a4f43	0.85277194
197	0xbe92484a	-0.28570777
198	0xbddfb2de	-0.10922788
199	0xbcb3d633	-0.021952724
200	0xbeb751e0	-0.35804653
201	0xbe2e1e01	-0.17003633
202	0xbdda98cb	-0.10673674
203	0x3eaee380	0.34157944
204	0xbeb48a71	-0.35261872
205	0x3efdb412	0.49551445
206	0xbd2e77b6	-0.042594634
207	0xbf22e64b	-0.6363265
208	0xbea8aac2	-0.32942778
209	0x3dd4f00a	0.10397346
210	0xbe15dc95	-0.14634927
211	0x3ea3ee6d	0.32017842
212	0xbf09b9f9	-0.53799397
213	0xbd018e40	-0.0316298
214	0xbe09b42b	-0.13447635
215	0x3df6d6c7	0.12052684
216	0xbedca329	-0.4309323
217	0xbe482257	-0.1954435
218	0xbd35f5c8	-0.04442385
219	0xbea76d4b	-0.3270057
220	0x3d9c4191	0.07629693
221	0xbd63e4f4	-0.05563827
222	0xbe84370f	-0.25823256
223	0x3cceb3bd	0.02523219
224	0xbe870341	-0.2636967
225	0xbf0887b0	-0.5333204
226	0xbe0fa1d9	-0.14026584
227	0x3ea8dc24	0.32980454
228	0xc01a07e4	-2.4067316
229	0xbf2dec4f	-0.67938703
230	0x3ea4dc39	0.32199267
231	0x3d294b1e	0.041331403
232	0xbed5b7fe	-0.41741937
233	0xbf0d5eb5	-0.55222636
234	0x3e947577	0.2899587
235	0x3cdebd6b	0.02718993
236	0x3f8b8983	1.090134
237	0xbf02c2bd	-0.510784
238	0xbe637309	-0.22211851
239	0xbefdc057	-0.49560806
240	0x3e760044	0.24023539
241	0xbe000651	-0.1250241
242	0x3de4feeb	0.11181434
243	0xbe120be1	-0.14262344
244	0x3ac096e4	0.0014693406
245	0x3e7469e6	0.23868522
246	0xbd6818a3	-0.05666412
247	0x3af6a1fa	0.0018816583
248	0x3d7c76e6	0.061636828
249	0xbe06fbef	-0.13182043
250	0xbc549d3c	-0.012976941
251	0xbe573678	-0.21016872
252	0xbd5d5742	-0.054038294
253	0xbd0cb92b	-0.034356277
254	0x3f06cf95	0.52660495
255	0xbdffa191	-0.12481988

network.0.bias f4 [128]
0	0xbf0dcfba	-0.5539509
1	0x3e872a82	0.26399618
2	0xbd958744	-0.073011905
3	0x3e16ce3f	0.14727114
4	0x3eaf7e3c	0.34275997
5	0xbedce5df	-0.43144128
6	0xbf0ceb5c	-0.5504663
7	0xbed7e917	-0.4217002
8	0x3e3c0593	0.18361501
9	0xbedaa307	-0.42702505
10	0x3ccc9e92	0.024977956
11	0x3eb857dd	0.36004534
12	0xbe007dbb	-0.12547962
13	0xbe1b3c11	-0.15159632
14	0xbe7ccd99	-0.24687804
15	0xbef9dff2	-0.4880367
16	0x3ecd7fef	0.40136668
17	0x3dd310bf	0.103059284
18	0xbe2173d2	-0.15766838
19	0xbdb11d00	-0.086481094
20	0xbf089cc5	-0.5336421
21	0xbe9fcc0a	-0.31210357
22	0x3e38aa86	0.180338
23	0x3e064864	0.13113552
24	0xbedbc825	-0.42926136
25	0xbae369d7	-0.0017350268
26	0x3e80ec1e	0.25180143
27	0xbef86b12	-0.48519188
28	0x3edfc89b	0.43707737
29	0xbf077cd6	-0.5292486
30	0x3e36c297	0.17847668
31	0xbeb11082	-0.34582907
32	0x3e0492a6	0.12946567
33	0xbf0ba7c3	-0.5455286
34	0xbf0253fb	-0.50909394
35	0xbdd74600	-0.10511398
36	0xbe8d9b2c	-0.2765745
37	0x3def6c6c	0.11690602
38	0xbef19e2f	-0.47190997
39	0x3de9b002	0.11410524
40	0x3e6d1458	0.23152292
41	0x3e936d7f	0.28794476
42	0xbef2fa64	-0.47456658
43	0xbece926d	-0.4034609
44	0xbe9f628d	-0.31129876
45	0x3ed38242	0.41310316
46	0xbef715f2	-0.4825893
47	0x3e8a2624	0.26982224
48	0x3d97bcee	0.07409082
49	0xbf0e1403	-0.55499285
50	0xbe6474d6	-0.22310194
51	0x3e8ff1fc	0.28114307
52	0x3e79b681	0.24386026
53	0x3e5128ce	0.20425722
54	0x3e3b04b4	0.18263513
55	0x3e47ae01	0.19499971
56	0xbeff8488	-0.499058
57	0xbebac8a3	-0.364812
58	0x3e92c329	0.2866452
59	0xbe432e38	-0.190606
60	0x3eaff74b	0.34368357
61	0xbe876fb5	-0.26452413
62	0x3e929443	0.2862874
63	0x3e528735	0.2055939
64	0x3e392bd3	0.18083124
65	0xbf45e9af	-0.773097
66	0x3eb663c6	0.35622996
67	0xbef78049	-0.4834006
68	0xbee8f558	-0.45499682
69	0x3e8df60d	0.27726784
70	0xbe49d1b9	-0.19708909
71	0xbdfcf199	-0.123507686
72	0x3cfa1d12	0.03053144
73	0xbec8da2a	-0.39228946
74	0xbeee0207	-0.46485922
75	0xbeabfd4c	-0.33591688
76	0x3dcd8c12	0.10036482
77	0x3efb766b	0.49113783
78	0x3f12d090	0.5734949
79	0xbe9e4cf2	-0.3091808
80	0xbf056fde	-0.5212382
81	0xbe7a8e6b	-0.2446839
82	0xbd88205a	-0.066467956
83	0x3e54d5ba	0.20784655
84	0xbf0a0b15	-0.5392316
85	0x3e275d3e	0.16344163
86	0xbea342b8	-0.3188684
87	0xbe83a626	-0.257127
88	0xbed21538	-0.41031814
89	0xbea6f59f	-0.3260927
90	0xbea5ed0c	-0.32407415
91	0x3d9a9c86	0.07549386
92	0xbe99a4b7	-0.3000848
93	0xbe4febd5	-0.20304807
94	0xbe133632	-0.14376143
95	0x3c1c5c8f	0.009543552
96	0xbee25ea6	-0.44212836
97	0x3ee53504	0.4476701
98	0xbf13c85c	-0.577276
99	0x3e7cfc3f	0.24705599
100	0x3dc98b44	0.09841016
101	0xbcc6d5b6	-0.024271827
102	0xbf0efa02	-0.5585023
103	0x3e15874b	0.14602391
104	0x3d3cbe37	0.04607984
105	0xbe8ec8cb	-0.27887568
106	0xbd6a990e	-0.05727487
107	0xbdd6dba0	-0.10491109
108	0xbdf0e255	-0.117619194
109	0xbed55763	-0.41668233
110	0x3ead5ef5	0.3386151
111	0x3ebb7ff2	0.36621052
112	0x3e621979	0.2208003
113	0xbe9c39a6	-0.30512732
114	0x3e474740	0.19460773
115	0x3f133b3a	0.5751225
116	0xbe719fc6	-0.23596105
117	0x3db62c0f	0.08895122
118	0xbf03feb9	-0.5156055
119	0xbae361f2	-0.0017347916
120	0xbe2daa19	-0.16959418
121	0xbe25de74	-0.1619814
122	0xbe73a5bf	-0.23793696
123	0xbe5a0db4	-0.2129429
124	0xbeb128a7	-0.34601328
125	0x3ecc152a	0.39859897
126	0xbe83a74d	-0.25713578
127	0xbec679c8	-0.38764787

network.2.weight f4 [64, 128]
0	0xbd66ec1d	-0.05637752
1	0xbe309182	-0.17243007
2	0x3cea5fe9	0.028610187
3	0x39886195	0.00026012646
4	0xbed72740	-0.42022133
5	0x3d72eae1	0.05930603
6	0x3cc8b2ff	0.024499414
7	0xbdb14a01	-0.08656693
8	0xbe4fe5a9	-0.20302452
9	0xbed4064d	-0.41411057
10	0xbcbdf690	-0.02318886
11	0xbd8d4696	-0.06898229
12	0xbe4aed26	-0.19817027
13	0x3bfe33d5	0.0077576437
14	0xbe610de3	-0.21977954
15	0x3d38a967	0.04508343
16	0xbdc56a49	-0.09639413
17	0xbe10636a	-0.14100423
18	0xbe07bec3	-0.13256364
19	0xbe61fc2a	-0.22068849
20	0x3d98895d	0.07448075
21	0x3cfda9f7	0.030964835
22	0xbc69751b	-0.0142491115
23	0xbf37ce3d	-0.7179907
24	0xbe1d15e6	-0.15340385
25	0xbde8e4c7	-0.11371761
26	0xbdf778e8	-0.12083608
27	0xbcf61d09	-0.030043142
28	0xbe8221d5	-0.25416437
29	0xbe44fd78	-0.19237316
30	0xbda1c7e7	-0.078994565
31	0x3cb79e34	0.022414304
32	0xbe981038	-0.29699874
33	0x3c400413	0.011719721
34	0xbc8f6732	-0.017505262
35	0xbec5ba55	-0.38618723
36	0xbdab5ad9	-0.08366937
37	0xbe7f89a3	-0.24954848
38	0x3d90e6f4	0.07075301
39	0xbe2dfbda	-0.16990605
40	0xbe59e511	-0.21278788
41	0xbe235d3d	-0.15953536
42	0xbcacd9e1	-0.021099987
43	0x3db4c4ae	0.08826576
44	0xbc9018e0	-0.017589986
45	0xbe401f2e	-0.18761894
46	0x3d720c3b	0.059093695
47	0xbe0ac19a	-0.13550416
48	0xbf0ddedc	-0.5541818
49	0xbc96b364	-0.018396087
50	0xbe0dcf8a	-0.13848701
51	0xbeae1597	-0.34000847
52	0x3d4543ab	0.048160236
53	0xbe7a01b6	-0.24414715
54	0xbdd0ccd9	-0.101953216
55	0xbdc6d881	-0.097092636
56	0x3d859ef8	0.065244615
57	0x3cbb4c56	0.022863548
58	0xbe5105bc	-0.20412344
59	0xbc9ef528	-0.019404009
60	0x3db33443	0.087502025
61	0x3d5d8f33	0.054091644
62	0x3e4add4d	0.19810982
63	0xbe95cccc	-0.2925781
64	0x3c1b2dd4	0.0094713755
65	0xbdc677e5	-0.09690837
66	0xbd8a0377	-0.06738942
67	0xbd48add3	-0.048993897
68	0xbd9e8cf1	-0.07741726
69	0xbecf5e3e	-0.4050159
70	0xbd59004f	-0.05297881
71	0xbecbd66e	-0.39812034
72	0xbeb0a444	-0.34500325
73	0x3db1a717	0.08674448
74	0x3cda2d42	0.026632909
75	0x3da56e6d	0.08077703
76	0x3e776fa7	0.24163686
77	0xbbd80ad7	-0.006593089
78	0x3e4a4d77	0.19756113
79	0x3d1291c5	0.035783548
80	0xbda740b5	-0.08166639
81	0xbe0b2c13	-0.13591032
82	0xbe08a9fb	-0.13346092
83	0xbe90225e	-0.2815122
84	0xbdfc072c	-0.123060554
85	0x3d039659	0.032125805
86	0xbe8083f4	-0.25100672
87	0xbd48cf07	-0.04902556
88	0x3e1be9f5	0.15225966
89	0xbdfa3c75	-0.122185625
90	0x3d598f5d	0.053115238
91	0x3e07d539	0.13264932
92	0xbd930887	-0.07179361
93	0x3db0cb1f	0.08632492
94	0xbc4da228	-0.012550868
95	0x3c875534	0.01652012
96	0xbd8058f3	-0.06266966
97	0xbe0ade84	-0.13561445
98	0x3c9b9e10	0.018996269
99	0xbd2870ff	-0.041123386
100	0x3c406586	0.011742955
101	0xbe12672e	-0.14297172
102	0xbda5b65b	-0.08091422
103	0xbe389b7d	-0.18028064
104	0xbe2f958b	-0.1714689
105	0x3da472fa	0.080297425
106	0xbd387864	-0.04503669
107	0xbdcd9ebc	-0.10040042
108	0xbd9a3470	-0.07529533
109	0x3d942ba6	0.07234888
110	0xbe2e3a18	-0.17014349
111	0xbd0e7d38	-0.034787387
112	0x3d93fcb0	0.07225931
113	0xbe79e2b3	-0.24402885
114	0xbe8aadff	-0.27085873
115	0xbde515bd	-0.11185787
116	0x3bfbe128	0.007686753
117	0x3ebe8a05	0.37214676
118	0x3d3b376f	0.045707162
119	0xbf3d5ec4	-0.73972726
120	0x3d667e5c	0.05627285
121	0x3d91d3a1	0.07120443
122	0xbda65272	-0.08121194
123	0xbda6955c	-0.08133957
124	0xbed8024a	-0.42189246
125	0x3ec81d1b	0.39084706
126	0xbd0657ac	-0.032798454
127	0xbe76f018	-0.24115026
128	0x3c5453b2	0.012959408
129	0xbce9d387	-0.028543247
130	0x3d502b1d	0.050822366
131	0xbd9783ce	-0.073981866
132	0xbd9eefc3	-0.07760575
133	0x3d8bc35d	0.06824372
134	0xbc9c7feb	-0.019103965
135	0xbcae68ff	-0.0212903
136	0xbd8e106e	-0.069367275
137	0x3d5bb266	0.05363693
138	0xbd7bb4cb	-0.061451714
139	0x3d79919b	0.060929876
140	0x3c917887	0.017757667
141	0xbd97fb1a	-0.07420941
142	0x3bcb149c	0.006197525
143	0x3d2d50eb	0.042313498
144	0x3d9e1e03	0.07720568
145	0x3da67eea	0.08129676
146	0x3d80b637	0.06284755
147	0xbd36aaf0	-0.044596612
148	0xbd396d45	-0.045270223
149	0xbd33abb7	-0.043864932
150	0xbd8b9fac	-0.06817564
151	0xbc176376	-0.009240022
152	0xbca8323a	-0.020531762
153	0x3d7fc5c4	0.062444463
154	0x3c685c62	0.014182182
155	0x3d6ec934	0.05829735
156	0xbd9bde44	-0.07610753
157	0xbd4a6797	-0.049415197
158	0xbc67a4ef	-0.014138444
159	0x3d8a21ca	0.06744726
160	0x3d30d683	0.043173324
161	0xbd70edaa	-0.058820404
162	0x39061e47	0.00012790515
163	0x3d529566	0.05141201
164	0xbd3156b2	-0.04329557
165	0xbd6107bf	-0.054939028
166	0xbd724ba6	-0.059154175
167	0xbd828d34	-0.063745886
168	0x3c5d4a20	0.013506442
169	0xbd341dac	-0.04397361
170	0xbdac30a1	-0.08407713
171	0xbdadaa5e	-0.084797606
172	0x3c6104c3	0.013734045
173	0x3d7ffc6f	0.0624966
174	0x3d1c3eb0	0.03814572
175	0xbcbe4321	-0.023225369
176	0xbd9df2a0	-0.07712293
177	0x3dafc1b3	0.08581867
178	0x3b163dd6	0.002292504
179	0x3ce0335f	0.027368246
180	0x3c2eb5a7	0.0106634265
181	0xbd3fa1b5	-0.046785075
182	0xbd3edd9c	-0.046598062
183	0x3d161ecd	0.036650468
184	0xbd3c5cf5	-0.04598709
185	0xbcb835fd	-0.022486681
186	0xbbfd136c	-0.0077232625
187	0x3d5efa77	0.05443808
188	0xbd099648	-0.033590585
189	0x3d965adb	0.07341548
190	0xbca9154c	-0.020640038
191	0xbced257e	-0.028948542
192	0xbda11f94	-0.07867351
193	0x3daef76a	0.08543284
194	0xbdb0468f	-0.08607208
195	0xbd78b4c7	-0.060719278
196	0x3b945550	0.0045267716
197	0xbc0ced4b	-0.008601497
198	0xbdafb6f6	-0.08579819
199	0x3d8abed6	0.0677468
200	0x3dab4921	0.083635576
201	0xbbc5580a	-0.006022458
202	0xbc2b85bd	-0.010468897
203	0xbd86ca83	-0.06581595
204	0x3d1e9a7e	0.038721554
205	0x3d880e64	0.0664337
206	0xbc8df5dd	-0.01732915
207	0x3d00aa2c	0.03141229
208	0x3d281301	0.04103375
209	0x3d022c7f	0.031780716
210	0xbda3ec75	-0.08004085
211	0xbd4a8a1b	-0.049448114
212	0x3d0d419b	0.034486394
213	0xbd3a62d9	-0.045504425
214	0xbdb141ed	-0.086551525
215	0xba9c300f	-0.0011916178
216	0x3ccb25ef	0.024798362
217	0xbd3153e4	-0.043292895
218	0x3b221917	0.0024734193
219	0xbc1e4a6f	-0.009661301
220	0xbd4cb8c7	-0.049980905
221	0xbd630bb9	-0.0554311
222	0xbc949c33	-0.018140888
223	0x3da6b794	0.081404835
224	0x3be4ca73	0.0069821416
225	0xbc3c7612	-0.0115027595
226	0xbd2ef33a	-0.042712428
227	0xbc90262e	-0.01759633
228	0x3db044fe	0.08606909
229	0x3d4bf6ad	0.049795795
230	0xbd3a8f9b	-0.04554711
231	0x3c3e1081	0.0116006145
232	0x3d9962bc	0.07489535
233	0x3daf4882	0.08558752
234	0x3d4ac03f	0.049499746
235	0xbd1f3e93	-0.038878035
236	0x3d7b245e	0.06131398
237	0xbc754c84	-0.014971856
238	0x3d9742e7	0.073858075
239	0x3d374b51	0.04474956
240	0x3d8f1ecc	0.06988296
241	0x3c078a4e	0.0082727205
242	0xbdb2733c	-0.087133855
243	0x3cd7f218	0.026360556
244	0x3c8f7ffd	0.017517084
245	0xbd96255e	-0.07331346
246	0x3d9d73a5	0.07688073
247	0xbdb05d30	-0.08611524
248	0xbd3d7b48	-0.04626015
249	0x3cc15e89	0.023604648
250	0xbcf57aec	-0.02996584
251	0x3d607396	0.05479773
252	0x3db4d8ea	0.088304356
253	0xbcd2cf13	-0.025733506
254	0xbcc648c9	-0.024204629
255	0xbd526e91	-0.051374976

network.2.bias f4 [64]
0	0xbf3243f5	-0.69634944
1	0xbdb410bd	-0.08792255
2	0xbf172521	-0.5904103
3	0xbda7ded3	-0.08196797
4	0xbbcae869	-0.006192256
5	0x3c84d1b7	0.016213281
6	0xbd5c7a78	-0.053827733
7	0xbd7ae113	-0.061249804
8	0xbdd05d0a	-0.10173996
9	0xbf5e602b	-0.8686549
10	0xbcecaf1f	-0.028892098
11	0xbc15e948	-0.009149857
12	0xbf119acf	-0.56876844
13	0xbf1284a4	-0.57233644
14	0xbefe1fb8	-0.49633574
15	0xbf3c7757	-0.736196
16	0xbd6061b2	-0.05478067
17	0xbf4ec8f5	-0.80775386
18	0x3cc6ac13	0.024251973
19	0xbd1ee143	-0.038789045
20	0xbc14f22a	-0.00909094
21	0xbf23feee	-0.64060867
22	0xbf1ae7c3	-0.6050989
23	0xbf596c12	-0.8493053
24	0xbf218927	-0.630999
25	0xbd915b31	-0.070974715
26	0x3da18b99	0.07887954
27	0x3c6e6b5d	0.014551965
28	0xbf28d378	-0.65947676
29	0xbf1c15b7	-0.60970634
30	0xbf11ba98	-0.56925344
31	0xbf244a38	-0.6417575
32	0xbcc504e5	-0.024050185
33	0x3bf9b10a	0.0076199817
34	0xbdd6c26b	-0.10486301
35	0xbf28b602	-0.6590272
36	0xbdfade83	-0.12249472
37	0xbf4174b5	-0.75568706
38	0xbf15cc8b	-0.5851523
39	0xbd102e66	-0.0352005
40	0xbd89ec3a	-0.0673451
41	0x3d4a3937	0.04937097
42	0xbd55b541	-0.05217481
43	0xbd2721fd	-0.040803898
44	0xbc8981de	-0.016785558
45	0xbdddc9b3	-0.10829487
46	0xbf45dd2f	-0.77290624
47	0xbd94de9d	-0.072690226
48	0xbcd49b54	-0.025952972
49	0xbedce5bc	-0.43144023
50	0xbdc9e96e	-0.09858976
51	0xbd9c522f	-0.07632863
52	0xbd0a39b9	-0.033746455
53	0x3cc4cc14	0.024023093
54	0xbcf90bbd	-0.030401105
55	0xbd7c4e44	-0.061598077
56	0x3cea5d3c	0.02860891
57	0xbb1d72a9	-0.0024024642
58	0xbf1010ec	-0.5627582
59	0xbcb5d59c	-0.022196583
60	0xbd2cb9ee	-0.042169504
61	0xbd8842c7	-0.06653362
62	0x3bcdb83c	0.006278066
63	0xbd9260c8	-0.07147366
