models/demo_model.pth (torch, 196898 bytes, 36 tensors)

network.0.weight f4 [128, 19]
0	0xbe1ac239	-0.15113153
1	0xbdcae48c	-0.09906873
2	0xbd61488d	-0.05500083
3	0x3cf4c4c0	0.029878974
4	0x3db1891a	0.08668728
5	0x3e23f759	0.16012324
6	0xbe09584d	-0.1341259
7	0xbdba42d8	-0.09094781
8	0x3d08321e	0.03325092
9	0x3de94171	0.11389435
10	0xbdeb141e	-0.114784464
11	0xbe29b7a6	-0.16573963
12	0x3e439f97	0.19103847
13	0x3e2cfeb5	0.16894038
14	0xbb024bc4	-0.0019881586
15	0x3e1d5589	0.1536466
16	0xbd1dc2a7	-0.038515713
17	0x3e708169	0.23486866
18	0x3deeeedf	0.11666655
19	0x3e068730	0.13137507
20	0xbe1bf6db	-0.15230887
21	0xbd8da7d0	-0.06916773
22	0xbe3b7781	-0.18307306
23	0xbe67a304	-0.2262078
24	0xbe009c69	-0.12559666
25	0x3dd81b96	0.105521366
26	0xbe2b0304	-0.16700369
27	0x3bca07da	0.0061654868
28	0xbe5f7578	-0.21822155
29	0xbe076209	-0.13220991
30	0x3d6a061a	0.057134725
31	0xbe154910	-0.14578652
32	0x3e65e094	0.22448951
33	0xbdbfba05	-0.09361652
34	0x3e26d321	0.16291477
35	0x3e4d6edc	0.20061821
36	0x3d753ef6	0.059874497
37	0xbdb858a6	-0.09001283
38	0x3e249aba	0.16074648
39	0x3d9ffbd5	0.07811705
40	0x3ddba3eb	0.10724624
41	0xbd1538a3	-0.036430966
42	0xbdbdbfad	-0.09265075
43	0xbe3536e7	-0.17696725
44	0xbd4aed0f	-0.049542483
45	0x3e38183f	0.17977999
46	0x3da19c80	0.07891178
47	0x3bbefb74	0.0058283154
48	0xbe7b7cc0	-0.24559307
49	0xbe2f90bb	-0.17145054
50	0x3dbbbf75	0.09167377
51	0xbd382978	-0.044961423
52	0x3dc9831a	0.09839459
53	0x3d35fe51	0.04443199
54	0xbdc1ecf7	-0.094690256
55	0x3da26c43	0.079308055
56	0x3e2d12d7	0.16901718
57	0xbd3be73e	-0.045874827
58	0x3d8c0cb5	0.06838361
59	0xbd91df87	-0.071227126
60	0xbddba9d2	-0.1072575
61	0x3c27a83a	0.010232979
62	0x3dd3e523	0.10346439
63	0x3e218576	0.15773568
64	0x3e1aef36	0.15130314
65	0x3e4cff5a	0.20019284
66	0x3d4c2462	0.049839385
67	0x3e4312a4	0.1905008
68	0x3ded23cc	0.11579093
69	0xbd4afe1a	-0.049558736
70	0x3e722d4c	0.23650092
71	0xbe6f0cef	-0.23344778
72	0x3e644bf5	0.222946
73	0xbbf75e09	-0.0075490517
74	0x3d405d6e	0.0469641
75	0xbc26f026	-0.010189092
76	0x3d3b6ff0	0.04576105
77	0x3d6adb02	0.05733777
78	0x3e121459	0.14265575
79	0x3e82ba9f	0.25533006
80	0x3dbf384e	0.09336911
81	0x3d2f170a	0.04274658
82	0x3da28aa7	0.07936602
83	0x3e338d22	0.17534307
84	0xbc503efe	-0.012710331
85	0x3dbbd831	0.091720946
86	0x3e7b36f1	0.24532677
87	0x3e53243a	0.20619288
88	0x3cf567d1	0.02995673
89	0x3d3396f3	0.04384513
90	0x3e5056de	0.20345637
91	0xbe118b4b	-0.14213292
92	0x3d16502a	0.036697544
93	0x3de21ee3	0.110410474
94	0x3e673191	0.22577502
95	0xbca6198b	-0.020275852
96	0x3e420da2	0.18950513
97	0xbda84e3c	-0.08218047
98	0xbe72530e	-0.23664495
99	0xbe4393a8	-0.19099295
100	0x3e585bfb	0.21128838
101	0xbdc7c3e9	-0.09754164
102	0x3ddbfe3f	0.10741853
103	0xbe223e89	-0.15844168
104	0x3e224de2	0.15850022
105	0x3e0ac3d5	0.13551266
106	0x3ce818ad	0.028332079
107	0xbe536852	-0.20645264
108	0x3dc14efd	0.09438894
109	0x3e1e93c7	0.1548606
110	0xbca31161	-0.019905748
111	0xbe2c9524	-0.16853768
112	0xbe34ea60	-0.17667532
113	0xbe3b8750	-0.18313336
114	0xbd7259fc	-0.059167847
115	0x3e6a0356	0.22852835
116	0xbdcc7d6e	-0.09984861
117	0xbcb9dec6	-0.022689234
118	0xbc040b43	-0.008059326
119	0xbd3de1b2	-0.046357818
120	0x3d168a58	0.03675303
121	0xbe5c9964	-0.21542889
122	0xbe536611	-0.20644404
123	0xbe16bef9	-0.14721288
124	0xbdc2f5f0	-0.09519565
125	0x3e647e5f	0.22313832
126	0xbcfe12b0	-0.03101477
127	0x3e0d2a0a	0.13785568
128	0xbe2ffd43	-0.17186455
129	0xbe558a54	-0.20853549
130	0x3e5c875e	0.21536013
131	0xbd266e07	-0.040632274
132	0xbd866176	-0.06561558
133	0x3e89fab3	0.2694908
134	0xbe0207df	-0.12698315
135	0x3e481d23	0.19542365
136	0xbe0dfae3	-0.13865237
137	0x3df2f630	0.11863363
138	0xbe1543a3	-0.14576583
139	0x3e153e1b	0.14574473
140	0x3d03ae50	0.03214866
141	0x3dc3e241	0.09564639
142	0x3d995e62	0.07488705
143	0xbd9e7c5c	-0.077385634
144	0xbda60383	-0.081061386
145	0x3e4febeb	0.2030484
146	0xbe38a980	-0.18033409
147	0x3e8fa865	0.28058162
148	0xbdc5c3f7	-0.09656518
149	0x3d3db093	0.046310972
150	0x3e55cb8c	0.20878428
151	0x3e65e135	0.22449191
152	0xbd675e46	-0.05648639
153	0xbe28f2d9	-0.16498889
154	0x3e3d7165	0.18500288
155	0x3dd01839	0.1016087
156	0x3d0b2e97	0.03397998
157	0x3e24bab3	0.16086845
158	0x3e1428d8	0.14468706
159	0xbd91bd52	-0.07116188
160	0xbd85bc2a	-0.0653003
161	0x3e267246	0.1625453
162	0x3db603bf	0.08887433
163	0x3e39cd20	0.18144655
164	0xbd6e7736	-0.058219157
165	0xbcc7acb7	-0.024374349
166	0x3c51e433	0.012810755
167	0x3cb56e73	0.022147393
168	0x3df7b4a7	0.120950036
169	0xbc2e8aa0	-0.010653168
170	0x3e7a49c5	0.24442203
171	0xbd66bc3e	-0.056331865
172	0xbc7874d3	-0.015164572
173	0xbd8876f8	-0.066633165
174	0x3dd8bd33	0.10582962
175	0x3d45f1b8	0.048326224
176	0xbe47e3ff	-0.19520567
177	0xbe1994c2	-0.14998153
178	0xbd728a90	-0.059214175
179	0x3e11f83d	0.14254852
180	0x3e4e506f	0.2014787
181	0xbb9bf9cf	-0.004760004
182	0xbda2213c	-0.07916495
183	0xbdf08732	-0.117445365
184	0x3e0dc264	0.13843685
185	0xbcd52eca	-0.026023287
186	0xbe35e441	-0.17762853
187	0x3e34158b	0.17586343
188	0xbde2896a	-0.11061366
189	0xbd946cf7	-0.07247346
190	0xbdbb5b82	-0.09148313
191	0xbe0cb490	-0.13740754
192	0x3e64a4f3	0.22328548
193	0x3e34f6b0	0.17672229
194	0x3e2664c8	0.16249382
195	0x3d8e7333	0.06955566
196	0x3e4662fc	0.19373697
197	0x3de20abd	0.110372044
198	0xbe1a3d8b	-0.1506254
199	0x3e2235b5	0.158408
200	0x3cf2447c	0.029573672
201	0xbcdfea40	-0.027333379
202	0xbe02fcc6	-0.12791738
203	0x3ca90b57	0.02063529
204	0x3da27054	0.07931581
205	0x3e3466f3	0.17617397
206	0xbce32ac5	-0.027730355
207	0x3cbc0f77	0.022956593
208	0xbe2aa7a8	-0.16665518
209	0x3e7807cb	0.24221723
210	0xbdc9cc66	-0.09853439
211	0x3c98202b	0.018570026
212	0xbda1433b	-0.07874151
213	0x3ca421bf	0.020035623
214	0xbe4871e8	-0.19574702
215	0x3db14818	0.08656329
216	0x3bd34588	0.0064474978
217	0x3e4a1d05	0.19737633
218	0x3d856aef	0.065145366
219	0x3e61d1ab	0.22052638
220	0xbdbde0c0	-0.09271383
221	0xbce09484	-0.027414568
222	0x3e301d19	0.171986
223	0x3cd9f738	0.02660714
224	0xbdac724e	-0.084202394
225	0xbd7c56a5	-0.06160607
226	0xbe1c37e5	-0.15255697
227	0xbc337c9a	-0.010955
228	0xbd85608f	-0.06512558
229	0x3d9dd166	0.07705955
230	0x3d1e26e4	0.038611308
231	0xbdacc60d	-0.08436213
232	0x3d75f8de	0.06005179
233	0x3e490a66	0.19632873
234	0xbd464b29	-0.048411522
235	0xbde1491a	-0.11000271
236	0x3d3e4123	0.046448838
237	0xbcdb5210	-0.026772529
238	0xbe39df11	-0.181515
239	0x3dafa330	0.085760474
240	0xbe5b58eb	-0.21420638
241	0xbdf7aa66	-0.12093048
242	0xbd99d5cb	-0.07511481
243	0x3bae29d1	0.0053150435
244	0xbdadfe09	-0.08495719
245	0x3e08fcac	0.13377637
246	0x3da08995	0.07838742
247	0xbe447d69	-0.19188465
248	0x3d019b36	0.03164216
249	0x3e4cfee7	0.20019113
250	0x3dbd2449	0.092354365
251	0xbe7a4961	-0.24442054
252	0xbdb96678	-0.090527475
253	0xbe36ca41	-0.17850591
254	0xbdca2a71	-0.09871376
255	0xbdeaf05b	-0.114716254

network.0.bias f4 [128]
0	0xbd86f7ab	-0.06590208
1	0x3e4e05cf	0.20119403
2	0xbdad3bda	-0.084586814
3	0xbe56a05c	-0.2095961
4	0xbd2ba060	-0.041900992
5	0x3d9001d4	0.07031599
6	0xbe649df6	-0.22325882
7	0x3e21abfc	0.15788263
8	0x3e6ce52c	0.23134297
9	0x3df43000	0.11923218
10	0x3d800f4c	0.06252918
11	0x3e670ef6	0.22564301
12	0x3dff34e2	0.124612585
13	0x3e433bf9	0.19065847
14	0xbe4deb3b	-0.20109265
15	0xbe3ebb63	-0.1862617
16	0xbdecb377	-0.11557668
17	0xbc97c058	-0.018524334
18	0x3e2ff966	0.17184982
19	0x3cbb196c	0.02283927
20	0x3e4fbb9b	0.2028641
21	0x3e49100e	0.1963503
22	0xbe181e01	-0.14855196
23	0xbc0dce69	-0.008655169
24	0xbdba6f35	-0.09103242
25	0xbdb1cbc4	-0.08681443
26	0x3ae47f55	0.0017432967
27	0x3e11f70d	0.14254399
28	0xbe159636	-0.14608082
29	0xbe66c7d4	-0.22537166
30	0xbe5a6087	-0.21325885
31	0xbd47609d	-0.048676122
32	0x3e4b71cd	0.1986763
33	0xbe18180e	-0.14852926
34	0x3e0fa6cc	0.14028472
35	0x3b92d01f	0.0044803764
36	0x3e699c6f	0.22813581
37	0xbc8df8c3	-0.017330533
38	0xbd35201b	-0.04422007
39	0x3e0c4738	0.13699043
40	0x3e020656	0.1269773
41	0x3e2af51d	0.16695066
42	0x3e5c3d18	0.2150768
43	0xbdfd3928	-0.12364417
44	0xbe03b3b4	-0.1286152
45	0x3d315ff3	0.043304395
46	0xbc467f14	-0.012115259
47	0x3da5c16f	0.08093535
48	0x3e3663e0	0.17811537
49	0x3e2c9956	0.16855368
50	0x3e3412da	0.17585316
51	0xbc001582	-0.007817628
52	0x3de0f309	0.10983855
53	0x3c97fa00	0.018551826
54	0x3e0dc4d5	0.13844617
55	0x3e04adaf	0.1295688
56	0x3da3d7e8	0.08000165
57	0x3d92d204	0.071689636
58	0xbe62bff0	-0.22143531
59	0x3da41bfd	0.08013151
60	0x3d8149f0	0.063129306
61	0xbd71cb93	-0.059032034
62	0xba9ba7ba	-0.0011875548
63	0xbc742199	-0.014900588
64	0x3cf8ca13	0.030369794
65	0x3e823139	0.2542818
66	0xbe126dfc	-0.14299768
67	0xbe325dde	-0.1741862
68	0x3dd8b105	0.10580639
69	0xbe2a8230	-0.16651225
70	0xbdb7cd00	-0.089746475
71	0x3e807258	0.25087237
72	0xbd3ee142	-0.04660154
73	0x3d96ce65	0.073635854
74	0xbe2f7966	-0.17136154
75	0xbd0345f6	-0.03204914
76	0xbddf15f2	-0.108928576
77	0xbe50081b	-0.20315592
78	0x3e4d91ab	0.20075099
79	0xbd98241d	-0.07428763
80	0xbccf0168	-0.025269225
81	0xbda1ca71	-0.07899941
82	0x3d291c34	0.041286662
83	0xbe635ca5	-0.2220331
84	0xbc8b4b4c	-0.017003678
85	0x3dccb2b7	0.09995025
86	0x3e1a7799	0.15084685
87	0x3dffa2d4	0.12482229
88	0x3de346d0	0.11097491
89	0x3c13b385	0.009014969
90	0x3cffc8aa	0.031223614
91	0x3ccc00c5	0.02490271
92	0x3e38d1f6	0.18048844
93	0x3d011a29	0.03151909
94	0xbc53faea	-0.012938241
95	0x3e2b8236	0.1674889
96	0x3e45d345	0.19318874
97	0x3de7ed37	0.11324542
98	0x3dc44d7f	0.09585094
99	0xbe0a5fc1	-0.1351309
100	0x3e10a89c	0.1412682
101	0x3c9fad34	0.01949177
102	0xbe34ca17	-0.17655216
103	0x3d94fed8	0.0727517
104	0xbd1ec150	-0.038758576
105	0x3cab6b6c	0.020925246
106	0x3e05136e	0.12995693
107	0x3d265ba1	0.040614728
108	0x3d41ad2d	0.047284294
109	0x3e1a46fb	0.1506614
110	0x3d547913	0.051873278
111	0x3e3e8735	0.18606265
112	0xbe1cc6ee	-0.1531026
113	0xbd7eb36c	-0.06218283
114	0xbdaf6f52	-0.085661545
115	0xbdf0ff64	-0.11767462
116	0xbe437fbe	-0.19091699
117	0x3e88553c	0.2662753
118	0x3e73acd6	0.237964
119	0x3e5479c1	0.2074957
120	0x3d75e434	0.060032085
121	0x3d06ced0	0.032912076
122	0xbd2c0367	-0.041995432
123	0x3d4dd836	0.050255023
124	0xbe67cb7a	-0.22636214
125	0xbe51a923	-0.20474677
126	0xbe6964e2	-0.2279239
127	0xbd7f0fbe	-0.062270872

network.2.weight f4 [64, 128]
0	0x3d07117a	0.03297565
1	0x3d7f9451	0.062397305
2	0x3c7b2fa2	0.015331181
3	0xbca67834	-0.02032099
4	0x3d9b9611	0.07596982
5	0xbd30866e	-0.043096952
6	0x3b665e1e	0.0035151313
7	0xbcd89cbd	-0.026441926
8	0xbd85e0ac	-0.065369934
9	0x39058b33	0.00012735724
10	0xbd736ddc	-0.059430942
11	0xbd314805	-0.043281574
12	0xbd5948bf	-0.05304789
13	0xbbc67cf5	-0.0060573765
14	0xbc2a06cc	-0.010377597
15	0xbd667837	-0.05626699
16	0x3d5f43a1	0.054507855
17	0x3d5bbe41	0.053648237
18	0x3d8ecc77	0.06972592
19	0xbd4b24c9	-0.049595628
20	0xbd8fd1e5	-0.07022456
21	0xbcebf2e0	-0.028802335
22	0xbd09aab6	-0.03361007
23	0xbd22167f	-0.039572235
24	0xbb07fc8b	-0.0020749893
25	0x3d80bc61	0.062859304
26	0xbd066ff6	-0.032821618
27	0xbd9e6d0f	-0.07735645
28	0x3cd1d7d4	0.02561561
29	0xbd817fdc	-0.06323215
30	0x3d090fe8	0.033462435
31	0xbd86d6c9	-0.06583936
32	0xbd9ec7af	-0.077529304
33	0xbcda4b84	-0.026647337
34	0xbc8fa0bc	-0.017532699
35	0x3d7142c5	0.058901567
36	0xbd69a54e	-0.057042412
37	0xbd809437	-0.0627827
38	0x3d5f867e	0.05457162
39	0xbd096f88	-0.03355363
40	0x3da4eff0	0.08053577
41	0x3d47cdc3	0.048780214
42	0xbcdd5f75	-0.027023057
43	0x3d976eac	0.07394156
44	0xbc984776	-0.018588763
45	0x3c0ac588	0.008469947
46	0x3c8bb840	0.01705563
47	0xbd10120e	-0.03517347
48	0xbdc27724	-0.094953805
49	0x3bed2138	0.007236626
50	0xbda11a4c	-0.07866344
51	0x3d8aeda6	0.06783609
52	0xbcad256e	-0.021136012
53	0xbdaa8374	-0.08325854
54	0x3d682e15	0.056684572
55	0x3c8a08bb	0.016849866
56	0xbc9a9e8f	-0.018874435
57	0x3d29cbb6	0.04145404
58	0x3d24d64f	0.040243443
59	0xbc0b36d5	-0.00849696
60	0x3d84c031	0.0648197
61	0xbc6759b7	-0.014120511
62	0xbd890f75	-0.06692401
63	0x3d9ca6d9	0.07649011
64	0xbd6c6999	-0.057717893
65	0x3c979f7f	0.01850867
66	0xbcc94c7a	-0.0245726
67	0x3d0b591e	0.034020536
68	0x3d30876b	0.043097895
69	0x3d7ceb8a	0.061748065
70	0x3d0fc693	0.035101485
71	0xbca4ebe2	-0.020132009
72	0x3d0c629c	0.03427373
73	0x3d67aa7b	0.056559067
74	0xbd835d60	-0.06414294
75	0xbc235b6d	-0.009970528
76	0x3bb59248	0.0055411197
77	0xbd95d2fb	-0.07315632
78	0xbdb42bb3	-0.087973975
79	0xbdb667b6	-0.089065
80	0x3d298730	0.04138869
81	0x3d623074	0.05522199
82	0xbdaa6fe1	-0.083221205
83	0x3cb7327b	0.022362938
84	0xbda342e1	-0.079717405
85	0x3d8730b3	0.066010855
86	0xbd4abdf7	-0.04949757
87	0xbd878409	-0.066169806
88	0xbda56c37	-0.08077281
89	0x3cd006ca	0.025393862
90	0xbd00804d	-0.031372357
91	0xbdb33df2	-0.087520495
92	0x3d1ef03b	0.03880332
93	0xbd792ed4	-0.060835674
94	0x3ccfc449	0.02536215
95	0xbc3e9c49	-0.011633941
96	0xbd3fa137	-0.046784606
97	0x3d26345d	0.04057728
98	0xbc9e312d	-0.019310558
99	0x3d38809a	0.04504452
100	0x3cffa8d1	0.031208428
101	0xbda6dda5	-0.08147744
102	0xbd4e6293	-0.050386976
103	0xbc930eec	-0.017951451
104	0xbdb2eafd	-0.08736227
105	0xbaa657b7	-0.0012690936
106	0x3d351027	0.044204857
107	0x3d9573a4	0.07297447
108	0x3d8930c9	0.06698758
109	0xbc8533ba	-0.016260017
110	0x3c827d4b	0.015928885
111	0xbcae5b04	-0.021283634
112	0xb9f89a70	-0.0004741731
113	0x3d5f1c95	0.054470617
114	0x3c912309	0.017716901
115	0xbda19f73	-0.07891741
116	0xbdc2e2a8	-0.095158875
117	0xbd585859	-0.05281863
118	0xbc461667	-0.012090302
119	0x3d82940d	0.06375895
120	0xbd3bd2fc	-0.045855507
121	0x3cfc838b	0.030824443
122	0xbd1af40f	-0.03783041
123	0xbdbc5baa	-0.09197171
124	0xbae7c171	-0.0017681551
125	0x3d7714b8	0.060322493
126	0xbd7500a3	-0.05981506
127	0xbdbc5ad2	-0.0919701
128	0xbbafe32e	-0.005367658
129	0xbcd6ac36	-0.026205163
130	0xbd55f48f	-0.052235182
131	0xbb9ea9af	-0.004842005
132	0x3d2fa55e	0.042882316
133	0x3c0198de	0.0079099815
134	0xbd07d391	-0.03316075
135	0x3cf323bf	0.029680131
136	0xbb5f6c7b	-0.003409176
137	0x3d33c7a0	0.04389155
138	0x3d9ff2da	0.07809992
139	0x3d3fd9d2	0.04683859
140	0x3d91f9a7	0.071276955
141	0x3d837713	0.06419196
142	0xbcd8c234	-0.02645979
143	0x3d6ca584	0.057775036
144	0xbcacced4	-0.021094717
145	0xbbb2be95	-0.005454848
146	0x3ccbda36	0.024884325
147	0x3be25fb8	0.006908383
148	0x3d898648	0.06715065
149	0x3dbc8e9f	0.0920689
150	0x39ce58ac	0.00039357448
151	0x3e045be7	0.12925683
152	0x3de9944b	0.11405238
153	0x3d980c84	0.07424262
154	0xbd662418	-0.056186765
155	0x3d8bfc52	0.06835236
156	0x3c378dea	0.011203269
157	0xba6730d6	-0.0008819228
158	0xbdceec00	-0.10103607
159	0x3da6477b	0.081191026
160	0x3c541ee5	0.012946819
161	0x3c2a4309	0.010391959
162	0x3d9bc7c9	0.07606465
163	0x3d3d5a3c	0.046228632
164	0x3d766da9	0.060163174
165	0xbc6e745d	-0.01455411
166	0xbdce7148	-0.100802004
167	0xbcf50fce	-0.029914763
168	0x3d9ea05b	0.07745429
169	0x3ccb05a3	0.024782961
170	0x3d0a0482	0.033695705
171	0x3d08330f	0.03325182
172	0xbc21c8a7	-0.009874499
173	0x3d8a55c3	0.06754639
174	0xbaaf8606	-0.0013391383
175	0x3dae186e	0.08500753
176	0x3d92cba2	0.07167746
177	0x3da9d713	0.08292975
178	0x3dbb061f	0.09132027
179	0xbc1d95e3	-0.009618255
180	0x3ca096c2	0.019603137
181	0x3d0fcd90	0.03510815
182	0xbcb8cd95	-0.022558967
183	0x3d65ad9c	0.05607377
184	0x3d05e7e2	0.032691844
185	0x3cac0069	0.02099629
186	0x3cc6b1fe	0.024254795
187	0x3c30da5b	0.0107942475
188	0x3d674939	0.056466315
189	0xbd47c2f5	-0.04876991
190	0x3cde38d6	0.02712671
191	0x3dd60a4c	0.10451183
192	0xbd08e0ff	-0.033417698
193	0xbd0ffc65	-0.03515281
194	0xb96e8fb6	-0.00022750985
195	0x3d8e4ed4	0.06948629
196	0xbe2927e4	-0.16519123
197	0xbcb390fd	-0.021919722
198	0x3d987050	0.07443297
199	0x3dddefe0	0.10836768
200	0x3d701f6d	0.05862372
201	0x3daf0734	0.08546296
202	0x3d1341b7	0.035951342
203	0xbd135d68	-0.03597775
204	0xbd90bc72	-0.07067193
205	0xbd14e587	-0.036351707
206	0xbd31d9d3	-0.043420624
207	0xbb9164e4	-0.004437076
208	0x3dde95aa	0.1086839
209	0xbd11f9ec	-0.035638735
210	0x3ddf55c0	0.109050274
211	0x3d8e90b5	0.069611944
212	0x3d1e7a1a	0.038690664
213	0x3dd87523	0.10569217
214	0xbca08be6	-0.019597959
215	0x3dcf7e1d	0.10131476
216	0x3ce1e91d	0.027576977
217	0xbcf1027a	-0.029420126
218	0xbd911b33	-0.07085266
219	0x3d905e8f	0.070492856
220	0x3c08165f	0.008306115
221	0xbc8a596d	-0.016888345
222	0xbd63dbb9	-0.055629466
223	0x3d131547	0.035908964
224	0x3e085e39	0.13317193
225	0x3d321f5d	0.04348694
226	0xbd32558e	-0.043538623
227	0xbd95f6f1	-0.07322491
228	0x3c334289	0.010941156
229	0x3c1538f5	0.009107818
230	0xbde5ed98	-0.11226958
231	0x3d14d745	0.03633811
232	0xbd600dd9	-0.054700706
233	0x3db170f3	0.086641215
234	0x3d5b8622	0.053594716
235	0xbdc41b8c	-0.09575567
236	0x3df3455e	0.11878465
237	0x3d962065	0.073303975
238	0x3c6f4971	0.014604912
239	0x3df5c091	0.1199962
240	0xbdc6e4ec	-0.09711632
241	0x3dad65d6	0.08466689
242	0xbcf506e7	-0.029910518
243	0xbb365ff8	-0.0027828198
244	0xbc65671e	-0.014001636
245	0x3d8454f7	0.06461518
246	0x3b85d297	0.004083942
247	0xbd51394b	-0.05108003
248	0x3d51685a	0.051124908
249	0xbd49a827	-0.04923263
250	0x3d858d58	0.065211
251	0xbd933ea9	-0.07189686
252	0x3d94a2d0	0.072576165
253	0x3ba776ce	0.005110598
254	0x3d025db7	0.031827655
255	0x3d2dd417	0.042438593

network.2.bias f4 [64]
0	0x3d8f8537	0.070078306
1	0x3ce5a1e9	0.028031306
2	0xbd009cb8	-0.03139946
3	0xbdb6ba2b	-0.089222275
4	0xbc589402	-0.013218882
5	0x3d34220c	0.043977782
6	0xbd8bad75	-0.06820194
7	0xbcd2a743	-0.025714522
8	0xbc640362	-0.013916822
9	0xbd832e16	-0.064052746
10	0x3d71df44	0.059050813
11	0x3d351427	0.044208672
12	0x3dad3313	0.08457007
13	0x3ddb9b61	0.107229955
14	0x3bb57e83	0.005538763
15	0x3db319f0	0.087451816
16	0x3d9e625b	0.077336036
17	0x3d4b301c	0.049606428
18	0x3cbe602d	0.02323922
19	0xbc77a8a6	-0.0151158925
20	0x3d32a5fb	0.043615323
21	0xbd8a00b3	-0.067384146
22	0x3d2d9ad6	0.04238399
23	0x3d23f6d4	0.040030316
24	0x3b8ddc90	0.0043292716
25	0x3c2038b8	0.009779148
26	0x3dd2a7cf	0.10285913
27	0xbc254d10	-0.010089174
28	0x3d547835	0.05187245
29	0x3d930ff1	0.07180775
30	0xbd113b6c	-0.03545706
31	0x3d47256e	0.04861968
32	0xbdb33f1d	-0.08752272
33	0x3d3585c6	0.04431703
34	0xbbef42c1	-0.007301659
35	0xbd64ec7b	-0.055889588
36	0x3dbef664	0.09324339
37	0xbc567497	-0.013089321
38	0x3dbee55c	0.093210906
39	0x3ddf75ce	0.10911141
40	0x3d9f0ba7	0.077658944
41	0x3d38311e	0.044968717
42	0x3d42d2f6	0.04756447
43	0x3d85fb25	0.06542043
44	0x3b44576c	0.0029959334
45	0xbd2e6ee8	-0.042586237
46	0x3d00adaf	0.031415638
47	0x3d909660	0.07059932
48	0x3daa55a2	0.083171144
49	0x3ddadecd	0.10687027
50	0x3c21fd84	0.009887103
51	0xbd1f5a64	-0.038904563
52	0xbd279787	-0.040915992
53	0xbdaa321c	-0.08310339
54	0xbcd641a5	-0.026154349
55	0xbd955816	-0.07292192
56	0x3daf1e3f	0.08550691
57	0xbd35e056	-0.044403397
58	0x3cfeff08	0.031127468
59	0x3d6ad46c	0.057331488
60	0x3c7caa48	0.015421458
61	0xbc8e9409	-0.017404573
62	0x3cddfc59	0.027097868
63	0xbb42d503	-0.0029729016

network.4.weight f4 [32, 64]
0	0xbc6a5a71	-0.0143037895
1	0x3daa7e3b	0.08324858
2	0x3cc3a500	0.023882389
3	0xbdc61d02	-0.096735016
4	0xbd854004	-0.06506351
5	0x3d773b41	0.060359243
6	0x3da66a8e	0.081257924
7	0xbd9eb50f	-0.07749378
8	0x3c9ffc0a	0.019529361
9	0xbd35a709	-0.04434875
10	0xbc0df837	-0.008665136
11	0xbb269bbb	-0.0025422412
12	0x3bdd8ed2	0.0067614103
13	0x3dd4bf6a	0.10388072
14	0xbb7ac008	-0.0038261432
15	0xbd72622c	-0.059175655
16	0x3daf5042	0.0856023
17	0x3ba4622d	0.0050165863
18	0xbd8498bc	-0.06474444
19	0xbc94fdb8	-0.018187389
20	0xbd66db8b	-0.056361716
21	0xbded5b92	-0.11589731
22	0xbdc70ca6	-0.097192094
23	0x3d4c9605	0.049947757
24	0xbb5a8200	-0.0033341646
25	0xbdf7e933	-0.12105026
26	0x3ddce8a3	0.107865594
27	0xbdb3337f	-0.087500565
28	0x3da7819d	0.08179019
29	0x3d8dbf30	0.06921232
30	0x3cc246e2	0.02371544
31	0x3d8821f6	0.066471025
32	0xbc346960	-0.0110114515
33	0x3d9e2835	0.07722513
34	0xbd5ac64d	-0.05341177
35	0xbd460c40	-0.048351526
36	0xbd047ef1	-0.032347623
37	0x3d272813	0.040809702
38	0xbdc3ce07	-0.09560781
39	0x3d8a7057	0.067597084
40	0xbdbff294	-0.0937244
41	0xbd0385e2	-0.032110102
42	0x3d684268	0.056703955
43	0x3dda5d44	0.1066232
44	0x3de35949	0.11101014
45	0xbd9aa210	-0.07550442
46	0xbdf7b2dd	-0.12094662
47	0xbdf177d5	-0.11790434
48	0x3cb4aa6d	0.022053922
49	0xbdb4468c	-0.08802518
50	0x3d99ae89	0.07503993
51	0xbc8fa3ee	-0.017534222
52	0xbd8c2c9e	-0.068444476
53	0x3d73f624	0.05956091
54	0xbdd0eed7	-0.10201805
55	0x3b4f2ddb	0.0031613025
56	0xbdbc4d3b	-0.09194418
57	0x3cc6b875	0.024257878
58	0xbdf9fb5f	-0.12206148
59	0xbd8b7929	-0.06810219
60	0x3dd2d979	0.10295386
61	0x3cf24b80	0.029577017
62	0xbdb9f843	-0.09080555
63	0xbd2c986c	-0.04213755
64	0x3d0e6444	0.03476359
65	0xbd7ee263	-0.062227618
66	0xbd882404	-0.066474944
67	0x3de4772c	0.11155543
68	0x3cc7d734	0.024394609
69	0xbc0ce650	-0.008599833
70	0x3d961e22	0.07329966
71	0xbcd71d2b	-0.026259026
72	0xbcca6941	-0.024708392
73	0xbdfac591	-0.12244714
74	0x3d2386ba	0.039923407
75	0xbdbb4e07	-0.09145742
76	0x3dacdd91	0.08440698
77	0x3e0bd64b	0.13655965
78	0xbd50f5d7	-0.0510157
79	0x3d977b7a	0.07396598
80	0x3d85bacb	0.065297686
81	0xbcbd2206	-0.023087513
82	0xbd9ebeb2	-0.07751216
83	0xbd050a2b	-0.0324804
84	0x3db80884	0.08985999
85	0x3ddbb882	0.107285514
86	0x3cca1dbe	0.024672385
87	0x3db5cf66	0.08877449
88	0x3de3b9cc	0.11119422
89	0x3dd363c4	0.10321763
90	0x3dd0853a	0.10181661
91	0x3d5d74d1	0.054066483
92	0xbd7dcb0d	-0.061961222
93	0x3d8f602e	0.07000767
94	0xbc1081b5	-0.008819987
95	0xbde2a64e	-0.11066876
96	0x3d1b7d74	0.03796144
97	0xbd541b24	-0.051783696
98	0x3dded1ed	0.10879884
99	0x3d6661ec	0.05624573
100	0x3e0cd7a7	0.1375414
101	0xbdc3a5b7	-0.09553092
102	0xbd23d1e7	-0.0399951
103	0x3c984ab2	0.018590305
104	0xbdd9db36	-0.10637514
105	0xbadd6c6a	-0.0016893272
106	0x3c1c42f3	0.009537446
107	0xbd491243	-0.04908968
108	0x3dbba1bc	0.09161708
109	0x3dede066	0.11615066
110	0x3d3f39a0	0.046685815
111	0xbd27b1d4	-0.040941074
112	0xbc984ca1	-0.018591227
113	0xbda2d0d3	-0.07949986
114	0x3dc226c8	0.09480053
115	0xbdd83530	-0.1055702
116	0x3d92069d	0.07130168
117	0x3ddf6c72	0.10909356
118	0x3d20bad2	0.039240666
119	0x3d8be62f	0.068310134
120	0x3ca4ed6a	0.02013274
121	0xbddbb0f3	-0.1072711
122	0x3e03fe53	0.12889986
123	0x3d2c7e57	0.042112675
124	0xbddf5a18	-0.10905856
125	0xbd10a308	-0.03531173
126	0x3c539587	0.012914068
127	0x3d58ee64	0.052961722
128	0xbde8d912	-0.11369528
129	0x3d5ab051	0.053390805
130	0xbbfd2840	-0.0077257454
131	0x3d664b4a	0.056224145
132	0x3dba1013	0.09085097
133	0x3c32b7be	0.010908065
134	0xbc8fd668	-0.017558292
135	0xbdb31d81	-0.08745862
136	0xbe2ac345	-0.16676052
137	0x3d76a146	0.060212396
138	0x3dcd8a77	0.10036176
139	0xbd040ff0	-0.03224176
140	0x3e16c2f3	0.14722805
141	0x3d9166a0	0.07099652
142	0x3dbfbf77	0.09362691
143	0x3e2087cc	0.15676802
144	0x3daa5284	0.0831652
145	0x3db87873	0.09007349
146	0xbd411835	-0.047142226
147	0x3d3b3235	0.045702178
148	0xbda2381e	-0.0792086
149	0x3d26610a	0.040619887
150	0xbd9fd52f	-0.078043334
151	0x3b9f296d	0.0048572333
152	0xbbe2c440	-0.0069203675
153	0x3c492d06	0.012278801
154	0xbcff0aff	-0.031133173
155	0x3d0efcfa	0.034909226
156	0xbdfbc3f1	-0.12293232
157	0x3e020f9d	0.12701268
158	0x3d914346	0.070929095
159	0xbd99f9f1	-0.07518376
160	0x3dbd716c	0.09250149
161	0x3d576698	0.052588075
162	0x3d36b6cf	0.044607934
163	0x3dc8a80c	0.097976774
164	0xbd355283	-0.044268142
165	0x3c544fbb	0.012958462
166	0x3d3bee33	0.04588146
167	0xbdb120c6	-0.08648829
168	0x3dc34a14	0.09535614
169	0x3d74009c	0.059570894
170	0xbd84fa1a	-0.064930156
171	0x3de19753	0.11015191
172	0x3c2ae461	0.010430426
173	0x3df817ac	0.1211389
174	0x3d949f4e	0.072569475
175	0x3d979a0d	0.0740243
176	0x3e23116b	0.15924613
177	0x3c0f2ad7	0.008738241
178	0xbdcac877	-0.09901517
179	0xbd31c74b	-0.04340295
180	0x3d1c1665	0.038107295
181	0x3e060b0a	0.13090149
182	0xbd826498	-0.06366843
183	0x3d389706	0.045065902
184	0x3d29069e	0.041266076
185	0xbc9bfba3	-0.019040888
186	0x3e17deb7	0.14831053
187	0x3e0757fb	0.13217156
188	0x3dcbfb2c	0.099600166
189	0x3cfb04f8	0.030642018
190	0xbd921ffc	-0.07135007
191	0xbcb3da50	-0.021954685
192	0xbdac9343	-0.084265254
193	0x3e11e015	0.14245637
194	0x3da47d80	0.0803175
195	0xbd987648	-0.07444435
196	0xbd2ceffe	-0.042221062
197	0xbb9cfac9	-0.004790638
198	0x3b897f80	0.0041961074
199	0x3d8691d0	0.0657078
200	0xbc8fb939	-0.017544376
201	0xbd217c49	-0.03942517
202	0xb99a573d	-0.00029438167
203	0xbcc80bf7	-0.024419768
204	0xbd121496	-0.035664164
205	0x3da10cae	0.078637466
206	0xbd40cf0e	-0.047072463
207	0x3e14f3ab	0.14546077
208	0x3dbf64b6	0.09345381
209	0xbd7846a0	-0.06061423
210	0x3d998584	0.07496169
211	0xbccca160	-0.024979293
212	0x3d8f8eee	0.070096835
213	0xbd5938ce	-0.05303269
214	0xbccf5ba5	-0.025312254
215	0x3d4e32ba	0.050341345
216	0x3df30518	0.11866206
217	0xbd847c26	-0.06468992
218	0xbe09a095	-0.13440163
219	0x3daa86f6	0.08326523
220	0x3de47db2	0.11156787
221	0xbd9c5feb	-0.076354824
222	0xbd46e062	-0.048553832
223	0xbd906a85	-0.07051567
224	0x3d2d0ca4	0.042248383
225	0x3ddcb767	0.10777169
226	0x3dba6f97	0.09103315
227	0x3df3b392	0.11899485
228	0xbcd898f6	-0.026440125
229	0xbda2f94a	-0.07957704
230	0xbcf17a35	-0.029477218
231	0x3ce9e10a	0.02854969
232	0xbd80da53	-0.06291642
233	0x3dbcfa27	0.092274
234	0x3e2f7335	0.17133792
235	0x3dd5e197	0.104434185
236	0xbdde0969	-0.108416386
237	0x3e12dda9	0.14342369
238	0x3ceae250	0.028672367
239	0x3cbae990	0.02281645
240	0x3e0c0c37	0.13676535
241	0x3d9ed49c	0.07755396
242	0x3db0146a	0.08597644
243	0xbdca14c2	-0.098672405
244	0x3db2978d	0.08720312
245	0xbd9b8ecc	-0.07595596
246	0x3de8acfd	0.1136112
247	0x3ca874b0	0.020563453
248	0xbe16f8ad	-0.147433
249	0xbd7ae697	-0.061255064
250	0xbd1ae23d	-0.037813414
251	0x3e17cc3f	0.14824007
252	0x3c3d8674	0.011567701
253	0x3b183640	0.0023225695
254	0x3d9836d4	0.07432333
255	0xbcdc96f8	-0.026927456

network.4.bias f4 [32]
0	0x3bbccbc6	0.0057615964
1	0xbdaadc64	-0.083428174
2	0x3d289494	0.04115732
3	0x3db5dc3f	0.08879899
4	0x3cc24b6c	0.023717605
5	0x3e09d698	0.13460767
6	0x3d197391	0.03746373
7	0xbd92d30f	-0.071691625
8	0x3df94125	0.121706285
9	0x3e053a65	0.13010557
10	0xba87b43c	-0.0010353397
11	0xbe070c02	-0.13188174
12	0xbdde0ef9	-0.108426996
13	0x3bcd4329	0.0062641096
14	0xbd50f42f	-0.05101412
15	0x3d00b740	0.03142476
16	0xbdb0a6a0	-0.08625531
17	0xbd04cb48	-0.032420427
18	0x3df3e5cc	0.11909065
19	0xbd749e01	-0.059720997
20	0xbde4d278	-0.11172956
21	0x3dbd1716	0.09232919
22	0x3dd41fe0	0.10357642
23	0x3d980de4	0.074245244
24	0x3d50af66	0.050948523
25	0x3e072247	0.1319667
26	0x3e0473d2	0.12934807
27	0x3a11a928	0.0005556517
28	0xbd5eb828	-0.054374844
29	0xbdb3c5b4	-0.08777943
30	0xbd8c12f1	-0.0683955
31	0xbced23dc	-0.028947763

network.6.weight f4 [1, 32]
0	0x3b5428c9	0.0032372943
1	0xbde89789	-0.11357028
2	0xbdcb1af3	-0.099172495
3	0xbdd3949d	-0.1033108
4	0xbd814c2f	-0.06313359
5	0x3da7f963	0.082018636
6	0xbe088df2	-0.13335398
7	0xbbb7f89f	-0.0056143547
8	0xbe3f3363	-0.18671946
9	0x3e490bce	0.1963341
10	0x3e25fe14	0.16210204
11	0xbdb75255	-0.089512505
12	0x3ca40591	0.020022186
13	0x3e5949fa	0.21219626
14	0x3da1d284	0.07901481
15	0xbe446de7	-0.1918255
16	0xbd46f613	-0.04857452
17	0x3dd0724c	0.101780504
18	0x3df8d172	0.121493235
19	0x3e18abd1	0.14909293
20	0xbda51563	-0.0806072
21	0x3da1a511	0.07892812
22	0xbe0620a0	-0.13098383
23	0xbe076556	-0.1322225
24	0xbe47c8cd	-0.19510193
25	0xbe39710d	-0.18109532
26	0xbe4ccd49	-0.20000185
27	0x3d81ffba	0.06347604
28	0xbdcd4cde	-0.10024427
29	0x3e0dbe70	0.13842177
30	0x3e426fde	0.18987986
31	0xbe1d6701	-0.15371324

network.0.weight f4 [64, 18]
0	0x3dad0300	0.08447838
1	0xbdd67f9e	-0.1047356
2	0x3e74f91e	0.23923156
3	0xbdb35b96	-0.08757703
4	0x3e047b75	0.1293772
5	0x3d4c5172	0.04988236
6	0xbe679a5a	-0.22617474
7	0xbc515732	-0.012777137
8	0x3dedf843	0.11619618
9	0xbe455923	-0.19272284
10	0xbe5a1e58	-0.21300638
11	0x3d2ddc42	0.042446382
12	0xbe137417	-0.14399754
13	0xbe5de44b	-0.21669118
14	0x3e3ae767	0.18252335
15	0x3e25fde2	0.1621013
16	0x3dc5ad06	0.09652142
17	0x3e7b7c77	0.24559198
18	0xbd298bd2	-0.04139311
19	0x3dadef4a	0.084929064
20	0xbe667b6c	-0.22508019
21	0x3e57f85e	0.21090838
22	0x3da54152	0.080690995
23	0x3d94cff4	0.072662264
24	0x3db0cff2	0.086334124
25	0xbe10d0e1	-0.14142181
26	0xbe23903e	-0.15972993
27	0x3d799e44	0.06094195
28	0xbd320793	-0.043464255
29	0x3e6ea167	0.23303758
30	0xbd9add90	-0.07561791
31	0xbe09c438	-0.13453758
32	0xbd4a1f19	-0.049346063
33	0xbc6e67df	-0.014551132
34	0xbe1fd27c	-0.15607637
35	0x3d0ded9f	0.03465044
36	0x3dce2131	0.100649245
37	0x3c338f00	0.010959387
38	0xbb20fdf4	-0.002456543
39	0x3e2adce9	0.16685833
40	0x3d89ffed	0.06738267
41	0xbe2745aa	-0.16335168
42	0x3db4ad46	0.08822112
43	0xbdcac187	-0.09900194
44	0xbe435d08	-0.19078457
45	0x3df4a493	0.119454525
46	0xbe73ded0	-0.23815465
47	0x3d5fdde3	0.054654967
48	0xbd9cd52f	-0.07657849
49	0xbe193274	-0.14960653
50	0xbe5a3c18	-0.21311986
51	0x3daa1223	0.083042406
52	0x3c788ae4	0.015169833
53	0x3e0c66ac	0.13711041
54	0x3d72c0aa	0.05926577
55	0x3d13cac6	0.03608205
56	0x3d246a09	0.040140186
57	0x3df09813	0.11747756
58	0x3e52925f	0.20563649
59	0xbe5c726a	-0.2152802
60	0x3e4efcd0	0.20213628
61	0x3e7499cd	0.23886795
62	0xbe54790b	-0.20749299
63	0x3e5930eb	0.21210067
64	0xbe1aa3df	-0.15101574
65	0x3cd0f3bc	0.025506847
66	0x3d8ba872	0.06819238
67	0x3e3c4a14	0.18387634
68	0x3d810704	0.06300166
69	0x3e03d234	0.12873155
70	0x3dcf1aa7	0.101125054
71	0xbe16ae52	-0.14714935
72	0x3e439b32	0.19102171
73	0x3e4fc633	0.20290451
74	0x3d5ecdf0	0.054395616
75	0xbd5441a1	-0.0518204
76	0xbe0d5f78	-0.1380595
77	0xbde1f637	-0.1103329
78	0xbdbf19f7	-0.09331124
79	0xbe224d76	-0.15849862
80	0xbe0c4dca	-0.13701549
81	0xbd02a88e	-0.031899028
82	0x3e64d485	0.22346695
83	0xbe10d9fb	-0.14145653
84	0xbe24ee4a	-0.16106525
85	0xbe66ff1e	-0.22558257
86	0x3e8c6b09	0.2742541
87	0x3ce13bbc	0.027494304
88	0xbe6697fe	-0.22518918
89	0x3e48c5c7	0.19606696
90	0xbd88660c	-0.06660089
91	0x3e2fc8ab	0.17166393
92	0x3e5b7200	0.21430206
93	0x3ce34eb5	0.027747491
94	0x3e22fc94	0.15916663
95	0x3e06317c	0.13104814
96	0x3e389954	0.1802724
97	0x3e76aac8	0.24088585
98	0x3d125dd3	0.03573401
99	0xbdef6981	-0.11690045
100	0x3be9da66	0.007136631
101	0x3e3434d0	0.17598271
102	0x3e0f72d9	0.14008655
103	0x3dbc018d	0.09179983
104	0xbd3beec2	-0.045881994
105	0xba388c38	-0.0007039937
106	0x3e0b363a	0.13594905
107	0x3e765ad4	0.24058086
108	0x3e3b2b44	0.18278223
109	0xbda004f2	-0.07813443
110	0xbe6d4a28	-0.2317282
111	0xbe456ff1	-0.19280984
112	0x3e066b54	0.1312688
113	0x3cb36cb6	0.021902423
114	0xbe5cce42	-0.21563056
115	0x3e1952a5	0.14972933
116	0xbe168546	-0.14699277
117	0xbd220570	-0.039555967
118	0x3e5581ce	0.20850298
119	0x3e2240ae	0.15844986
120	0x3e28e52f	0.16493677
121	0xbe7455ba	-0.23860827
122	0xbd134c6a	-0.035961546
123	0x3e4bb3b9	0.19892778
124	0xbe51e59a	-0.20497742
125	0xbe20ffec	-0.15722626
126	0xbdf8a443	-0.121407054
127	0xbe0af205	-0.13568886
128	0x3e5930d4	0.21210033
129	0xbd3c4183	-0.045960914
130	0xbd9c512b	-0.07632669
131	0xbe3c923b	-0.18415157
132	0x3dc3ef15	0.09567086
133	0x3e5aa62c	0.21352452
134	0x3e8a6c49	0.2703574
135	0xbd3820af	-0.044953045
136	0x3e06a7d5	0.1314996
137	0x3e38a4a7	0.1803156
138	0x3da06143	0.07831051
139	0xbe01c8d1	-0.12674262
140	0x3dba941c	0.09110281
141	0x3e1c738a	0.1527845
142	0x3e85a8b4	0.26105273
143	0x3df61423	0.120155595
144	0x3de61dc7	0.11236148
145	0xbe04657c	-0.12929338
146	0xbc63bad8	-0.0138995275
147	0x3e1f669d	0.15566488
148	0x3e837574	0.25675547
149	0xbbe3f8b9	-0.0069571403
150	0xbdc149af	-0.09437882
151	0xbd45d297	-0.048296537
152	0xbe18a1f3	-0.14905529
153	0x3d874956	0.066057846
154	0x3e471776	0.19442543
155	0x3dfacc0c	0.1224595
156	0x3ad90f36	0.0016560319
157	0x3e881ea7	0.26585886
158	0xbd1bf45a	-0.03807483
159	0xbda4cf63	-0.080473684
160	0x3d52142f	0.05128878
161	0x3e14af22	0.14519933
162	0xbb54b539	-0.003245665
163	0xbde7f2c8	-0.11325604
164	0xbe398faf	-0.18121217
165	0x3de377fd	0.1110687
166	0x3d921a9a	0.0713398
167	0xbdce2423	-0.10065486
168	0x3e305460	0.17219687
169	0x3db5d8c0	0.088792324
170	0x3cbb03af	0.022828905
171	0x3e4ba4a8	0.1988703
172	0xbcca4094	-0.024688996
173	0x3de32e78	0.110928476
174	0x3dc8ccc2	0.098046795
175	0xbdbc3ac7	-0.091908984
176	0xbe2bb58f	-0.16768478
177	0x3e5f3171	0.21796204
178	0x3dcdf16a	0.10055812
179	0xbde47f2a	-0.11157067
180	0xbb78c4de	-0.003795914
181	0x3db9e67b	0.09077164
182	0xbd52d16d	-0.051469255
183	0xbe504833	-0.20340042
184	0xbe486959	-0.19571437
185	0xbd8e61fc	-0.06952283
186	0xbd8d3e64	-0.06896666
187	0xbe4869f7	-0.19571672
188	0xbb86d297	-0.0041144597
189	0xbde7ba6e	-0.113148555
190	0xbe6d4021	-0.23168994
191	0xbe492c0a	-0.19645706
192	0xbdab8ce6	-0.083764836
193	0xbe160080	-0.14648628
194	0xbe5c0bea	-0.2148892
195	0x3c902750	0.01759687
196	0xbc99f521	-0.018793644
197	0xbdb96031	-0.0905155
198	0xbe659cb4	-0.22423059
199	0x3cc911a9	0.024544554
200	0xbe22e864	-0.15908962
201	0xbd5dcfea	-0.05415336
202	0x3dd6566d	0.10465703
203	0xbdfe4a1b	-0.12416478
204	0xbd88173a	-0.06645055
205	0x3df3aeeb	0.11898597
206	0xbd8c68f7	-0.06855958
207	0xbe54add1	-0.2076943
208	0x3df22dae	0.11825119
209	0xbe0d03cc	-0.1377098
210	0xbe574917	-0.21023975
211	0xbe2642a6	-0.16236362
212	0xbe37c4c9	-0.17946161
213	0xbe05690d	-0.13028355
214	0x3e2e2f17	0.17010151
215	0xbda1ee72	-0.07906808
216	0x3cf006f4	0.02930019
217	0x3c976a5b	0.018483331
218	0x3e024c73	0.12724476
219	0x3e183d1c	0.14867061
220	0xbd775993	-0.06038816
221	0x3e2cdf8f	0.16882156
222	0x3e54a9ee	0.20767948
223	0x3e23f2af	0.16010545
224	0x3e3541df	0.17700909
225	0x3e7bd424	0.24592644
226	0x3e1fd9fb	0.15610497
227	0x3e4660bd	0.1937284
228	0xbcffe9c8	-0.031239405
229	0x3d2e524a	0.042558946
230	0x3e3f0ada	0.18656483
231	0x3e110828	0.14163268
232	0x3e1704fe	0.14747998
233	0x3c988b16	0.018621009
234	0x3e083edb	0.13305227
235	0x3e570139	0.2099656
236	0x3e663eb8	0.22484863
237	0xbdc2f3b2	-0.095191374
238	0xbd7eebb0	-0.062236488
239	0x3ddb7f15	0.10717598
240	0xbe781fb8	-0.2423085
241	0xbdf867b7	-0.12129157
242	0x3d159756	0.03652128
243	0xbe6e5010	-0.23272729
244	0x3d0fceaf	0.03510922
245	0x3e3805d3	0.17970972
246	0xbe711f7a	-0.23547164
247	0xbdc06a65	-0.09395293
248	0x3d9add35	0.07561723
249	0x3e3ab1d8	0.18231905
250	0x3e2590ed	0.16168566
251	0xbe02103e	-0.12701508
252	0xbc2b3cc4	-0.010451499
253	0xbd203b09	-0.0391188
254	0xbe784150	-0.24243665
255	0x3e350df9	0.17681111

network.0.bias f4 [64]
0	0x3dd0aa5b	0.10188743
1	0xbd936a76	-0.0719804
2	0xbda87b3a	-0.082266286
3	0xbe2ab5e5	-0.1667095
4	0x3e29f202	0.16596225
5	0x3d66e8e3	0.05637444
6	0x3dc8a55b	0.09797164
7	0x3d0a4e1f	0.03376591
8	0x3e2d1ab5	0.16904719
9	0xbb91f0b6	-0.004453744
10	0x3e4fc6f7	0.20290743
11	0xbe70d5a4	-0.23518997
12	0x3e6b0462	0.2295089
13	0x3e074a7d	0.13212009
14	0x3cc2a047	0.023758067
15	0x3d61aa0f	0.05509382
16	0xbdb5ae54	-0.08871141
17	0x3e5b4728	0.21413863
18	0x3dd41473	0.10355463
19	0x3db2fdd3	0.087398194
20	0x3e2c402b	0.16821353
21	0xbe1f2169	-0.15540089
22	0xbccbaf50	-0.024863869
23	0xbda95517	-0.08268183
24	0xbe3f1a0b	-0.18662278
25	0x3d134d2f	0.03596228
26	0xbdec1d76	-0.11529057
27	0xbdfe16c0	-0.12406683
28	0xbde956d9	-0.11393518
29	0xbe4baa67	-0.19889222
30	0xbdc7a63d	-0.09748504
31	0x3cd83288	0.026391283
32	0x3d0ab606	0.033864997
33	0x3e2aaf3c	0.16668409
34	0x3e340a3e	0.17582032
35	0xbe4b0341	-0.1982546
36	0x3e2381e5	0.1596752
37	0x3e10d449	0.1414348
38	0xbe17b73a	-0.14815989
39	0xbe1a47a2	-0.15066388
40	0xbe4c6528	-0.19960463
41	0xbe3bda2d	-0.18344946
42	0xbd442ad1	-0.047892395
43	0xbde4af38	-0.11166233
44	0xbe544f24	-0.20733315
45	0xbe52024b	-0.20508687
46	0xbdfa7a2e	-0.12230335
47	0xbcb8df3a	-0.02256738
48	0xbda0e194	-0.078555256
49	0x3e4e9797	0.20175014
50	0xbcaa6a12	-0.020802531
51	0xbced7da9	-0.028990583
52	0x3d770c20	0.060314298
53	0x3e3f27f4	0.18667585
54	0x3d5b6546	0.05356338
55	0x3e01fc20	0.12693834
56	0x3e6a4d9d	0.2288117
57	0xbe27ae9e	-0.16375205
58	0x3df259ab	0.11833509
59	0xbe0ef1ee	-0.13959476
60	0xbd04fcc0	-0.032467604
61	0x3e4efcf9	0.20213689
62	0x3aab9fd5	0.0013093898
63	0xbc49f5d8	-0.01232668

network.2.weight f4 [32, 64]
0	0xbd78608d	-0.060638953
1	0x3d99e443	0.075142406
2	0x3d90f423	0.070778154
3	0xbd0c3fb5	-0.034240443
4	0x3dcd4d07	0.100244574
5	0x3d8b0171	0.06787384
6	0x3df0f758	0.11765927
7	0xbd5027a2	-0.050819047
8	0x3d2bba43	0.04192568
9	0xbde88a7c	-0.11354539
10	0x3af39900	0.0018585026
11	0xbdcc1a20	-0.099659204
12	0x3c6799fc	0.014135834
13	0x3dbc20c8	0.0918594
14	0xbddd3f7c	-0.10803124
15	0x3dabccc2	0.08388664
16	0x3c22a245	0.009926383
17	0xbda08203	-0.07837298
18	0xbd7e78f4	-0.06212707
19	0xbd57b0d7	-0.052658882
20	0xbd6d65cd	-0.057958413
21	0x3d177f34	0.036986545
22	0x3d06e86f	0.03293651
23	0x3d99eb85	0.07515625
24	0xbd6603d6	-0.056156002
25	0x3d183bb2	0.037166305
26	0xbe1aa4a6	-0.15101871
27	0xbd535bbe	-0.051601164
28	0xbd013fa0	-0.03155482
29	0xbdf550f6	-0.11978333
30	0xbd48df76	-0.049041234
31	0xbd2e7753	-0.042594265
32	0xba50b568	-0.0007961602
33	0x3cb189e9	0.021672206
34	0x3d9c6765	0.076369084
35	0x3c55827b	0.013031597
36	0xbbe7020f	-0.007049806
37	0xbd8bb181	-0.068209656
38	0x3dbd1980	0.09233379
39	0xbd461c97	-0.04836711
40	0x3df74b40	0.120749
41	0xbd93cbdf	-0.0721662
42	0x3cf71d1f	0.030165253
43	0xbd9c84bb	-0.07642504
44	0xbd0af3d9	-0.033923957
45	0xbd301592	-0.04298932
46	0xbda1153e	-0.0786538
47	0xbd9ab21c	-0.07553503
48	0x3dda9b6a	0.10674174
49	0xbc7c2521	-0.015389712
50	0x3da504eb	0.08057579
51	0x3dc3391e	0.095323786
52	0xbdfe1136	-0.124056265
53	0x3da131a4	0.07870796
54	0x3da46f37	0.08029025
55	0x3d86a1e8	0.0657385
56	0xbdf59018	-0.11990374
57	0x3ced113d	0.028938884
58	0x3d8065b1	0.06269396
59	0xbcce54a4	-0.025186844
60	0x3d3b9e4a	0.045805253
61	0x3b5e15cd	0.0033887506
62	0x3d4711b1	0.048600856
63	0x38a58a6a	7.893595e-05
64	0xbceedfd6	-0.029159468
65	0x3dbcfd19	0.09227962
66	0xbe1dfaac	-0.15427655
67	0xbc82100b	-0.01587679
68	0xbda29c28	-0.07939941
69	0x3e21cfc1	0.15801908
70	0x3d790586	0.060796283
71	0x3d961249	0.07327706
72	0x3de7dd76	0.11321537
73	0x3d4cb2c6	0.04997518
74	0x3c446fb0	0.011989519
75	0x3de05c4c	0.10955104
76	0x3d8c0d24	0.06838444
77	0x3dcca1b5	0.09991781
78	0x3cfe1ca8	0.031019524
79	0xbe0813f4	-0.13288862
80	0xbe3a6a56	-0.18204626
81	0x3def8caa	0.116967514
82	0xbde00a36	-0.109394476
83	0x3b864f00	0.004098773
84	0x3a33ab10	0.00068537984
85	0x3c8957f8	0.01676558
86	0x3d42df75	0.047576386
87	0x3cf97847	0.03045286
88	0x3e077a87	0.13230334
89	0x3d1d7b0e	0.038447432
90	0x3dc6daad	0.09709678
91	0x3d836ef7	0.06417649
92	0xbde0cbac	-0.10976347
93	0xbc562823	-0.013071093
94	0x3e06cbd0	0.13163686
95	0xbd664762	-0.05622042
96	0xbdd0ad27	-0.10189276
97	0xbd9f0379	-0.07764334
98	0xbc580b66	-0.013186311
99	0x3c915416	0.01774029
100	0xbd1ba13f	-0.037995573
101	0xbdcc5c64	-0.099785596
102	0x3df6b7b8	0.1204676
103	0xbb1bf471	-0.0023796821
104	0x3d9d2ce5	0.076745786
105	0x3d089067	0.033340838
106	0xbd9387a7	-0.07203608
107	0x3e0170a2	0.12640622
108	0xbd842b7c	-0.064536065
109	0x3c542a25	0.012949501
110	0x3d393de0	0.045225024
111	0xbd8efc28	-0.06981689
112	0xba85f1b4	-0.0010219128
113	0xbd870f1b	-0.06594678
114	0x3d187504	0.03722097
115	0xbd02e0b2	-0.031952567
116	0x3ad4c51d	0.0016233061
117	0xbd8fa25e	-0.07013391
118	0xbdb67b41	-0.089102276
119	0xbd725cd9	-0.059170578
120	0x3e15404a	0.14575306
121	0x3d821045	0.063507594
122	0xbb49bbc6	-0.0030782088
123	0x3dfb6b31	0.122763045
124	0x3e006725	0.12539347
125	0x3d108ffe	0.03529357
126	0xbe2575e5	-0.16158254
127	0x3e0f3d0d	0.13988133
128	0x3d859042	0.065216556
129	0x3c6a1080	0.0142861605
130	0x3d89d798	0.06730574
131	0x3d8915d0	0.066936135
132	0x3ca69050	0.020332485
133	0x3bc28280	0.005935967
134	0xbdff15e4	-0.12455347
135	0xbd8e1e16	-0.06939332
136	0xbdc0be9c	-0.09411356
137	0x3d491d7c	0.049100384
138	0x3be00e80	0.006837666
139	0x3d76bae0	0.06023681
140	0xbcca4bc8	-0.024694338
141	0xbdcff13c	-0.10153434
142	0x3d501628	0.05080238
143	0x3d3f09b4	0.046640113
144	0x3c819810	0.01581958
145	0x3d3498a4	0.044090882
146	0xbd264390	-0.040591776
147	0xbdc63dba	-0.09679742
148	0xbc2bf260	-0.010494798
149	0xbdc9cb98	-0.098532856
150	0x3d8ccd8c	0.068751425
151	0x3c891fe8	0.016738847
152	0xbd69ce78	-0.05708167
153	0x3cdae028	0.026718214
154	0x3cfb1848	0.030651227
155	0xbdf303ce	-0.1186596
156	0x3d136738	0.03598711
157	0xbd58d7ec	-0.052940294
158	0x3cb45d18	0.022017047
159	0x3dcc2146	0.09967284
160	0xbde6cd04	-0.112695724
161	0x3cc17ab0	0.023618072
162	0xbcfeb660	-0.031092823
163	0xbde77ce0	-0.11303115
164	0xbdf1fb52	-0.11815514
165	0x3ddc9c76	0.1077203
166	0x3d921994	0.07133785
167	0x3bbfb5e0	0.0058505386
168	0xbcba99d0	-0.022778422
169	0x3de9e354	0.114203125
170	0xbd945436	-0.072426245
171	0x3c99df28	0.018783167
172	0xbda0ff10	-0.07861149
173	0x3cbe8218	0.023255393
174	0xbd7d302c	-0.06181352
175	0xbde6f606	-0.11277394
176	0x3ce33320	0.02773434
177	0x3bfdbdc0	0.007743567
178	0xbde5d224	-0.11221722
179	0xbd8e20d0	-0.06939852
180	0xbd52cc5c	-0.051464424
181	0xbd8b2e12	-0.067958966
182	0x3d51cb18	0.051219076
183	0x3a804980	0.000978753
184	0xbdfd82d4	-0.12378469
185	0xbdbf269e	-0.093335375
186	0xbde36fde	-0.11105321
187	0xbdae9f24	-0.085264474
188	0xbb2f8c00	-0.0026786327
189	0xbde5f926	-0.11229162
190	0x3ddace12	0.10683836
191	0xbd84bebc	-0.06481692
192	0xbe2f4176	-0.17114815
193	0xbdc11d31	-0.09429396
194	0xbc3ee9f7	-0.011652461
195	0x3d99722b	0.07492479
196	0xbdd8a72a	-0.10578759
197	0x3e17f9f4	0.14841443
198	0xbe05305e	-0.13006732
199	0xbd7834af	-0.060597118
200	0x3e04ff6e	0.12988064
201	0x3da34f99	0.079741664
202	0xbcb32760	-0.021869361
203	0xbd1fa94c	-0.038979813
204	0x3c371335	0.011174013
205	0xbcb6df3c	-0.022323243
206	0x3cc9facf	0.024655728
207	0xbd9c408b	-0.07629498
208	0x3c9a2d55	0.018820444
209	0x3ba76d1e	0.0051094433
210	0xbdbe094a	-0.092791155
211	0x3dd2d9ea	0.1029547
212	0x3bf9ca4d	0.007622993
213	0x3d5d1624	0.053976193
214	0x3e2758ca	0.16342464
215	0xbcce1644	-0.025157101
216	0x3b8597a0	0.004076913
217	0x3e17989e	0.14804313
218	0x3e213c21	0.15745594
219	0x3b5d8cb8	0.0033805799
220	0x3d2e15e4	0.042501345
221	0xbcd1363d	-0.025538558
222	0xbd93e1e8	-0.072208226
223	0x3dd0073c	0.1015763
224	0xbdc676fb	-0.096906625
225	0xbdc218d4	-0.09477392
226	0xbd67e94f	-0.056618985
227	0x3caa0da2	0.020758454
228	0xbd91f89d	-0.07127497
229	0x3c1c64a2	0.009545477
230	0xbd2b249c	-0.04178296
231	0xbc71500f	-0.01472856
232	0x3da4692b	0.08027872
233	0xbe2fd73c	-0.17171949
234	0xbdbfdf14	-0.09368721
235	0xbcabe67e	-0.02098393
236	0xbd9d3c29	-0.0767749
237	0x3d67aeae	0.056563072
238	0xbd0389c0	-0.03211379
239	0x3cc78edf	0.024360118
240	0x3db6f8f9	0.089342065
241	0xbd56aa81	-0.0524087
242	0x3d6e9276	0.058245145
243	0xbdcba56d	-0.09943662
244	0x3cda81ca	0.026673216
245	0x3c846351	0.016160639
246	0x3c1b6c15	0.009486218
247	0xbdd3e02b	-0.10345491
248	0x3dfed5fb	0.12443157
249	0xbdb7f3b8	-0.089820325
250	0x3e0ae574	0.13564092
251	0x3d62b097	0.05534419
252	0x3da5434e	0.08069478
253	0x3d844440	0.0645833
254	0x3cae5e22	0.02128512
255	0x3d8aae71	0.06771553

network.2.bias f4 [32]
0	0x3d2b8b38	0.041880816
1	0xbc83314a	-0.016014714
2	0x3c037220	0.008022815
3	0x3da1069b	0.07862588
4	0xbdb5ea56	-0.08882587
5	0x3daf4b36	0.08559267
6	0x3dd10b63	0.1020725
7	0x3dd0b3f0	0.1019057
8	0x3e012e39	0.12615289
9	0x3d13d558	0.036092132
10	0x390e8a3a	0.00013593669
11	0xbced3788	-0.028957143
12	0x3df139cf	0.11778604
13	0xbdee2a62	-0.11629178
14	0xbc7a94b0	-0.015294239
15	0xbddd8038	-0.108154714
16	0x3d200eee	0.039076738
17	0x3d074396	0.03302344
18	0xbd443d0b	-0.047909778
19	0xbdede90c	-0.11616716
20	0xbd8e2528	-0.06940681
21	0x3d35f560	0.04442346
22	0x3db9fb14	0.090810925
23	0xbd094a76	-0.033518277
24	0xbd77f724	-0.060538426
25	0x3d0e8b3c	0.034800753
26	0x3d0d6db9	0.034528468
27	0x3d5b371a	0.053519346
28	0x3dee21cb	0.11627539
29	0x3c8174f1	0.015802832
30	0x3d44b8a2	0.048027642
31	0xbd665800	-0.056236267

network.4.weight f4 [1, 32]
0	0x3cc43cdb	0.0239548
1	0xbd4d1a1f	-0.05007374
2	0xbaf93058	-0.00190116
3	0xbdabb1e4	-0.08383539
4	0x3c165843	0.009176317
5	0x3d97e4ff	0.074167244
6	0x3e074cf2	0.13212946
7	0xbe07370e	-0.13204595
8	0xbe07fc9d	-0.13279958
9	0x3e311183	0.17291836
10	0x3db61612	0.08890928
11	0x3e011232	0.12604597
12	0x3e40855e	0.18800876
13	0x3df0c67c	0.11756608
14	0x3dea679e	0.11445545
15	0xbcb811f8	-0.022469506
16	0x3db207b6	0.08692877
17	0x3dcef934	0.101061255
18	0x3e23c5ef	0.15993474
19	0xbd093744	-0.03349997
20	0xbd6fe45e	-0.058567397
21	0x3d9ffd58	0.07811993
22	0xbe31d25c	-0.17365402
23	0x3e24d959	0.16098537
24	0xbe185d5d	-0.14879365
25	0xbe0139ca	-0.12619701
26	0x3e15963b	0.1460809
27	0x3e560f1b	0.209042
28	0xbd8a17a8	-0.06742793
29	0xbe2ca58a	-0.16860023
30	0xbd6c5429	-0.05769745
31	0x3e36f7a3	0.17867903
