models/sudoku_ltn_4x4.pth (torch, 280626 bytes, 42 tensors)

network.0.weight f4 [128, 4]
00000000: 99a1 823e 941a a7be df79 0fbc db2e b63e
00000010: 31be f7bb 3964 f33e 0b66 9e3e 0803 3ebe
00000020: 559b 023f 0b46 d8be 6ef1 49be ad2e 0a3f
00000030: 8059 e83e 7337 3c3e b801 94be 056b f63e
00000040: a3c0 bd3d e4af 89be b607 b13e 6de0 c13e
00000050: 3b48 853e f7e6 d7be b5d3 4d3e 94d9 afbe
00000060: bd75 0f3f c6e7 153e a758 c0be b57c d0bc
00000070: 6853 4e3e c808 e43d 12a2 b1be 08bf f7be
00000080: 6cd6 8a3e 10c0 96bd 1420 053f b030 473d
00000090: 9548 8c3e d50d 86be 365c 413e 6ffe e03e
000000a0: 1005 b6bd 707c ed3d 9c91 81be 08d0 2cbe
000000b0: a049 a63d 1079 70be dcd9 633e ac3c b6be
000000c0: 2c3f 953e be99 113e 6194 f13b 079b ed3e
000000d0: 9269 a03e 2f28 e53b e32e 4dbe d46a 84be
000000e0: a88f b3bd c094 c63d 96f8 83be dc93 99be
000000f0: 9922 c9bd 7480 3fbe 6322 e23d 8bd8 24be
00000100: c7a4 a6be 3738 b3be ac6f 0e3e ada9 273e
00000110: 0651 85be 212e 97be 9113 d53e df33 13be
00000120: 3380 8e3d 5b38 a13e d373 5e3d f053 863e
00000130: 9251 a2bd 0e4a f0bc 83e3 2dbe b8f6 af3e
00000140: 14ec ddbe 701b 2c3d 705f 763d 268a f1be
00000150: 40ee 35be 781c 8a3d 7c42 6fbe 2093 2fbe
00000160: 8c5b e2be 7e04 b4be e2c4 b83e 5ec3 bdbe
00000170: d435 bd3e 981b 31be df31 673d b910 533e
00000180: 0cd1 b1bc 35ba 36be 084b 0b3f 4672 b1be
00000190: 438d f83e ad29 c9be 515f 883e 57e6 aa3e
000001a0: 3e57 ccbe 0d38 e33e ffa8 b7be 4c1c d23e
000001b0: 706c 8d3e dc8d 93be e7b7 a23e 010d 013e
000001c0: 8d79 2a3e 15c6 e03c ac14 073f 8ff9 03be
000001d0: 6cc7 69be 080b 27be e6b5 f0be 6e71 d5be
000001e0: fb69 3b3e d466 4a3e 9f43 193e 5d45 423e
000001f0: c045 f9bd f8c3 d9be c4a0 ffbe 80f8 71bd
00000200: 7d71 79be 14d1 cf3e 3521 6a3c 1014 ed3e
00000210: d03d da3d 4a6d 563e 05e3 d13e 4f0a 013f
00000220: 4db3 8e3d dc40 853d 9dea d83e 115d f13e
00000230: 2484 3f3e 8455 953e b089 52bd a054 fcbe
00000240: e05c 20bd 6804 d3bd 6c46 a03e 74b5 a4be
00000250: 046f f13e 42c8 01be 099d c83e df86 0ebe
00000260: 1449 d03c 2058 373c 640c c3bd 5842 553d
00000270: dd3d 7b3c 5a61 0abd 4c1f be3e e6be a53e
00000280: 007b f4bb 4013 8dbd 000d abbe 608f 7b3d
00000290: 62dd bcbd 7f9c e23e 10be f43e ced8 83bd
000002a0: 86c8 0c3f 732d ec3e 82f6 a93e dce8 d23e
000002b0: fcee 11bd 7c29 263e 123d 143d 2237 f13e
000002c0: b64d 2e3e 4ac4 4ebd 3827 073f 4b2c b33c
000002d0: 4af3 df3e d673 963c 045d 863e ef38 6cbc
000002e0: e05b e5bc 30e6 323e 147d 4e3e 1081 febe
000002f0: e014 89bc 9f3a 58be a2f4 503e e06f 0abd
00000300: 17cd a93e 61df d4be 9487 b03e d3cb d53b
00000310: 8041 4b3d c68c 8fbe 30af f3bd 58b8 6cbe
00000320: 08d0 38be 34ec 8c3e c357 26be 0590 1cbe
00000330: 5f3f 913e f239 8b3e 6631 5d3e 30ff 84be
00000340: 7ad8 783e b908 d4be 5677 0b3f f17d 103e
00000350: 3338 b8bc e6a1 ba3e 0dca aabe aaa4 d83e
00000360: 52a9 bc3e e08e 69be e25f e8bd a265 8f3e
00000370: ad98 9d3e a2e8 c13e 741b b93b 5013 f83e
00000380: 9c1a 72be 14a3 e6be c074 d53e 8e1e f7be
00000390: a146 323e 5de2 ba3e d90b 7c3e 745b c3be
000003a0: 500b 48be db63 8a3d 74c5 053e a1f6 013f
000003b0: 7974 ae3e dbc0 4f3d b667 d33c 65f0 843e
000003c0: bbc1 f0bd 980e 823d 6ece 0c3f 8139 183c
000003d0: 88dc 3dbd 0d8e 78be f1c3 b13d dda5 103f
000003e0: 0a98 f8be 1269 bbbe 1004 37bd 0029 7e3b
000003f0: 43d6 cf3e 68e4 da3e 4c3e 523d 7379 173e
0.25513914 -0.32637465 -0.008757084 0.35582623 -0.0075605144 0.475374 0.30937228 -0.18555844
0.5101827 -0.4224094 -0.19721004 0.5397747 0.45380783 0.18380527 -0.2890756 0.48128524
0.09265258 -0.26892006 0.34576195 0.37866536 0.2603167 -0.421684 0.20100291 -0.34345686
0.5603903 0.14639196 -0.37567636 -0.02545009 0.20149004 0.111344874 -0.34693962 -0.48387933
0.27116716 -0.07360852 0.5200207 0.048630416 0.27399126 -0.26182428 0.18882832 0.43944117
-0.08887684 0.11596 -0.25306404 -0.16876233 0.081195116 -0.23483682 0.22251076 -0.35593164
0.2914976 0.14218804 0.0073724245 0.4640734 0.31330544 0.0069933156 -0.20037417 -0.25862753
-0.08767635 0.096963406 -0.25775594 -0.2999562 -0.09821052 -0.18701345 0.11041715 -0.1609823
-0.3254759 -0.35003826 0.13909787 0.1637332 -0.26038378 -0.2952738 0.4161649 -0.14375256
0.06958046 0.31488308 0.054309677 0.26235914 -0.079257146 -0.029332187 -0.1698132 0.3436792
-0.43344176 0.042018354 0.06014961 -0.4717571 -0.17766666 0.06743711 -0.23365206 -0.17145967
-0.4421047 -0.35159677 0.3608771 -0.37063116 0.3695513 -0.17295682 0.056444045 0.20611848
-0.021706127 -0.1784447 0.54411364 -0.34657496 0.48545274 -0.3928961 0.2663522 0.3337886
-0.3991031 0.443787 -0.3587112 0.41037214 0.27621794 -0.28819168 0.3178093 0.12602617
0.1664793 0.027438203 0.5276592 -0.12888168 -0.2282998 -0.16312802 -0.47013777 -0.41688102
0.18302147 0.19765788 0.14967202 0.18971772 -0.12171507 -0.42532325 -0.49927342 -0.05907488
-0.24359699 0.405892 0.014290144 0.4630437 0.10656321 0.20940128 0.40993515 0.50406355
0.06967793 0.065065116 0.42366496 0.47141317 0.18702751 0.29166806 -0.05140084 -0.49283314
-0.039151073 -0.10303575 0.31303728 -0.32169688 0.4715501 -0.12674049 0.39182308 -0.13918637
0.025425471 0.011190444 -0.09523848 0.052065223 0.015334574 -0.033784248 0.37133253 0.32372206
-0.007460952 -0.06888437 -0.33408356 0.06141603 -0.09221913 0.44260022 0.47801256 -0.064378366
0.54993474 0.46128425 0.33195883 0.41193283 -0.035628304 0.16226763 0.036191054 0.47112375
0.17021832 -0.050480165 0.5279422 0.021871706 0.43740302 0.018365782 0.2624284 -0.014417871
-0.027997911 0.17470622 0.20164901 -0.49707842 -0.016733587 -0.21116112 0.2040582 -0.0337981
0.33164284 -0.41576675 0.34478438 0.006524542 0.049623013 -0.2803709 -0.11898649 -0.23117197
-0.18048108 0.2752396 -0.16244416 -0.15289314 0.2836866 0.27192646 0.21600875 -0.25975943
0.2430133 -0.41412905 0.5447897 0.14110543 -0.022487735 0.36451644 -0.33357278 0.4231313
0.3684793 -0.22808409 -0.11346413 0.28007227 0.30780545 0.37872797 0.0056490246 0.48452234
-0.23642963 -0.45046294 0.41690636 -0.482655 0.17409755 0.36500826 0.24613895 -0.3815571
-0.19535565 0.06757327 0.13063604 0.5076695 0.34073237 0.05072103 0.02580629 0.25964656
-0.11755701 0.0635044 0.55002487 0.009291054 -0.046352893 -0.24272938 0.08679951 0.5650309
-0.48553497 -0.366036 -0.04468161 0.0038781762 0.40593156 0.42752385 0.051328942 0.14792423

network.0.bias f4 [128]
00000000: cbf9 e23e 5eca bc3e b3ce 42bd 7be5 8c3e
00000010: be59 26be d5d3 043f 5876 18be 8422 c7be
00000020: 2a5e d3be f97f 1b3e 9049 30be 06b1 fcbe
00000030: 8a42 3ebe 4229 ea3e 9a57 e4be b9cd f13e
00000040: 5db6 413e 5283 9b3b b4d2 8fbe e07c b23b
00000050: f8d7 45be c400 09be 100b d0bd bb1b f0bd
00000060: 6391 6c3e 7149 c4be fe40 ef3e 6add 98bc
00000070: 7b58 3abe b088 a8bd ac63 e93e e6d0 a7be
00000080: b0c4 c6be 4f7e a43e 2b20 98be 8068 e6bb
00000090: d6ba 89be 8d25 ca3e f370 703e 9062 7d3e
000000a0: feee 90be 753d bb3e 7ab5 7b3e 09a3 2cbd
000000b0: 6603 d0bd c169 053f a0d1 883c 2604 063f
000000c0: 05b5 473e 4061 b5bc e69d eb3e 08a5 b23e
000000d0: dbd8 8abe 169f d3be 8d06 ee3d 5c29 e2be
000000e0: 00a7 eabb 2265 a13e 39af bc3e 06fc 08be
000000f0: 2fc9 cfbd 2c89 8ebe 5c31 7bbe 8dd5 2f3e
00000100: 444b ea3d c59c 43bd 3036 043e a1e6 393d
00000110: b827 043f 349f 6fbe 05ce 7b3e 40e9 b6be
00000120: d60e b53e 0f61 f03e e726 d43e 118b d83e
00000130: 888b f33e 7683 81be 2bf9 93be 680b 5c3e
00000140: 4e50 93be d75b ed3e ae93 81be 9e52 ae3e
00000150: 9827 e23e 7275 043e 67b3 a0be ccb2 233e
00000160: 40f5 f93d 1347 cbbe 7eae f8be c3a0 c03e
00000170: cd79 80bd 825a 413e 20cc c3bc 9a5c a8be
00000180: 241e 2cbe dd0a 003e 9050 203d 988a 063f
00000190: 7e3e 7f3e 7ef6 a03e a7b9 dc3e 74df 84be
000001a0: 70b8 633d a384 8f3e d6ac cd3e c74d a83d
000001b0: 8666 3b3e ec08 24be 457c 96bd f264 01bf
000001c0: 4cc7 863e 4e63 a3be b547 5d3e ebcb c33e
000001d0: baeb b3be a070 7ebe 3a26 af3e 0245 fc3d
000001e0: 4465 6cbe abeb ddbe d7b0 f23e 6bbc d33e
000001f0: 126f 893e 1c24 2cbe d0e6 82be 8e04 cd3e
0.44331202 0.36873144 -0.047560405 0.2751883 -0.16245171 0.5188573 -0.14888895 -0.3889352
-0.4128278 0.15185536 -0.17215562 -0.49353808 -0.1858007 0.45734602 -0.44598085 0.47227266
0.18917222 0.004745879 -0.2809044 0.005447015 -0.19320667 -0.13379198 -0.1015836 -0.11724039
0.23102336 -0.3833728 0.46729273 -0.018660266 -0.18197815 -0.08229196 0.45583856 -0.32776564
-0.38821936 0.32127616 -0.29712042 -0.0070315003 -0.26900357 0.39481774 0.23480587 0.2474463
-0.28307337 0.36570325 0.24580947 -0.04214767 -0.10156898 0.5211449 0.01670152 0.5235008
0.19502647 -0.022141099 0.46018904 0.34891534 -0.27118573 -0.4133231 0.11622343 -0.4417218
-0.007161021 0.3152247 0.36852434 -0.1337739 -0.101457946 -0.2783903 -0.24530548 0.17171307
0.11440137 -0.04775693 0.12911296 0.04538596 0.51623106 -0.23400575 0.24590309 -0.3572483
0.3536288 0.4694905 0.4143593 0.422936 0.4756739 -0.2529561 -0.28901038 0.21488726
-0.28772205 0.4635913 -0.25307983 0.34047407 0.44170833 0.12935427 -0.31386873 0.15986174
0.12204981 -0.39702663 -0.48570627 0.3762265 -0.06273232 0.18882182 -0.023901045 -0.3288315
-0.16808373 0.12504144 0.03913933 0.5255523 0.24926183 0.3143806 0.43110391 -0.2595173
0.055595815 0.2803088 0.40170926 0.0821796 0.18300828 -0.16019028 -0.07347921 -0.50544655
0.26323926 -0.319117 0.21609385 0.38241515 -0.35140783 -0.2484765 0.34208852 0.1231785
-0.23085505 -0.43343863 0.47400543 0.4135469 0.26842552 -0.1681065 -0.2556672 0.40042537

network.2.weight f4 [64, 128]
00000000: 7c55 523d f31e 503c 73a1 963c 1aad b0bd
00000010: cbfe 0a3d 66a7 693d 2d31 613d 48e2 f7bc
00000020: 3189 83bd 1d5d d3bc 93e3 aebd fa53 01bd
00000030: 32c7 a4bd 2f52 75bd d9f5 143d 4773 b1bc
00000040: 5b9a 1cbd 93df 423c 22b6 bcbc c527 f1bc
00000050: 56a7 be37 1100 483d 3c00 15bd 8d81 0cbc
00000060: bd21 a83d 16c2 273d af06 4e3d feab 46bd
00000070: f580 42bd 2ab7 ca3c 7510 a5bd a9e7 4f3c
00000080: 0000 4c3d 4550 43bd e4c0 f33c e576 f6bc
00000090: 58ae 513d ebe4 bfbb 9a8b 08bc 096f ad3c
000000a0: 0e20 82bd 8006 30ba d465 debc 5349 a339
000000b0: ff94 4fbd 3899 9c3d 5ae2 61bd 9c72 3fbd
000000c0: 5f8c 3bbb 4078 d7bb 776a 203c 9fa3 b03d
000000d0: da16 9fbc ba4b 80bd fe36 ab3d 3d50 023b
000000e0: 0d6f 3d3d 0d22 a0bc 7303 823d 8e04 303b
000000f0: 55ae d1bb 3404 253d b1ea a03c be6c 2a3d
00000100: da2c 9d3a b1ae a73d f982 b0bd 9ad1 b13d
00000110: 0bc3 86bd d597 7a3d 63fa 1f3b 9ed9 3cbd
00000120: 972d abbd 3adb a73d 83a4 24bd 38ce 3ebd
00000130: df18 abbd 27e1 733d 1a3e d5bc d2fa 9abd
00000140: 2aef 4bbd 8c23 84bc b76c 2bbd 18dd a3bd
00000150: 9e1f 983c 92d9 52bd 17c1 f7bc ae5b 8fbc
00000160: 90c7 aebd 9cf5 c6bb 37bf 81bd f1f4 4bbb
00000170: 98e3 773d 6cd8 2e3d 0e01 1dbd aa76 7c3d
00000180: da6c 6bbd 0df7 1f3d 0df1 853d 5676 e2bc
00000190: 69b6 6cbd 1c6e 9b3d 99f8 9fbd 4a10 873d
000001a0: 2eac 423a 59d8 a53c 8240 27bd 8a48 1d3d
000001b0: 7b92 1c3c 4b26 0b3d eabb 093d 17af b43d
000001c0: 2afb a7bd d294 7b3d 764e 4bbc 8268 35bd
000001d0: 586b 873d e55e 8bbd bf8b 83bd 27d0 893d
000001e0: db41 a53d dc08 4abd e0a9 b3bd 93f9 ea39
000001f0: 1a78 04bd 7f25 9e3d afec d6bc 32e9 92bd
00000200: 1b21 8dbd 9a55 f23c 64cf 98bd 42a7 193d
00000210: 3107 963d 2eb7 13bd 04ab 063d adf3 89bd
00000220: d1cd 9d3d 1ed9 4e3d 881c 84bd 7cd7 323c
00000230: 5804 0dbd 8803 8bbd ffe7 39bc 2f53 783d
00000240: 8eca e43c eb87 203d d5b4 d73c 5357 db3c
00000250: 55d2 5d3b a94f 6ebd bba9 9bbd b6d8 bfbc
00000260: 64f7 bebd 870d 4b3d 8640 86bd cd48 b5bd
00000270: 0a78 513d 1a38 963d 178a 56bd e5e1 86bd
00000280: 5057 57bd f00b 9c3b 098a 453d 2a1a 02bd
00000290: 9d8c 4c3d 0b52 413d 3bee 853d 95c7 c6bd
000002a0: 0b84 00bc 76e6 69bd 6c94 9e3c ee9c 193d
000002b0: 62c4 c33c a4fd b2bd 1a67 adbc ed55 4ebc
000002c0: a635 433c 3160 d2bc 8d5d 4cbd a63e 93bd
000002d0: 22a2 75bd 4d65 ed3c c661 7cbd 8c52 633d
000002e0: 6047 8d3d 8c16 1bbd df44 503d be21 64bd
000002f0: b50d 9cbd 9999 4c3c 4f04 b53d 2374 cbbd
00000300: c902 123d cde9 5ebd 476e 2cbd 6481 183d
00000310: 8f6f 8dbd 8f39 cbbb 0e47 8d3d f544 9c3d
00000320: 0f16 30bd 306b 5ebc c434 f83c 380e c0bc
00000330: 9feb a3bb 66de a5bc 2e53 adbd 429c 97bd
00000340: 6a63 c2bc 5d8b c5bc a969 693c a64b c4bc
00000350: 68f9 2b3d c908 abbd e944 34bd 979c 77bd
00000360: f52f 84bb d0f7 843d 9c90 813c 7570 84bc
00000370: f329 0fbc 9b10 e8bb 073c 7a3c 9e83 af3c
00000380: 8fb8 41bd 62f4 7c3b 26bc 263d 7f3d 9abd
00000390: dbee 1bbc c6d0 82bd 7b3f 383d f2ff a43d
000003a0: 2a4c 813c 85e2 743b 6409 c3bb ecc4 61bd
000003b0: e56d 803d e3cc a8bb 2b7e b4bd 656e fd3c
000003c0: cd7b b93c ea1a a8bd 9ce5 3d3d 35e7 62bd
000003d0: 1de1 85bd 3661 4d3d a102 143d 9e8c 313c
000003e0: 701f 053d f997 d43c e821 223d 8474 993a
000003f0: 6662 f6bc 50bb 603c 6002 863d e7a5 823d
0.051351056 0.012702691 0.018387532 -0.086267665 0.033934396 0.05704441 0.05497854 -0.030259266
-0.064226516 -0.025801236 -0.085395 -0.031574227 -0.08045806 -0.05989283 0.03636727 -0.021661414
-0.038233142 0.011894125 -0.023036066 -0.029437909 2.2727687e-05 0.04882819 -0.036377177 -0.008575809
0.0820956 0.04095658 0.050299343 -0.04850387 -0.047486264 0.024745543 -0.080597796 0.012689509
0.049804688 -0.047683973 0.029755063 -0.03008599 0.051191658 -0.0058561466 -0.008334065 0.02117111
-0.0635377 -0.0006714836 -0.027148165 0.00031144414 -0.050679203 0.07646412 -0.055147506 -0.04674016
-0.0028617603 -0.006575614 0.009791008 0.08624958 -0.019420076 -0.06264444 0.08360098 0.0019884252
0.046248484 -0.019547487 0.06348314 0.0026858184 -0.006398956 0.04028721 0.01964316 0.04160761
0.0011991516 0.081876166 -0.08618731 0.086825565 -0.0658017 0.061179955 0.0024410717 -0.046105973
-0.08358305 0.08196111 -0.040195953 -0.046583384 -0.08354353 0.059540894 -0.026030589 -0.075673714
-0.04978863 -0.016130231 -0.041851725 -0.08001155 0.018569764 -0.051477022 -0.03024344 -0.017499771
-0.08534157 -0.0060717594 -0.063352995 -0.0031121338 0.060519785 0.042686865 -0.038331084 0.061636604
-0.057476856 0.039053965 0.065401174 -0.027644318 -0.057791147 0.07589361 -0.07811088 0.06594904
0.00074261695 0.020244764 -0.040833004 0.038399257 0.009556408 0.033972066 0.033626474 0.08822458
-0.082022026 0.061421223 -0.012408843 -0.04428912 0.06612271 -0.06805209 -0.06423139 0.06729155
0.080692016 -0.049324855 -0.087726355 0.00044817905 -0.0323411 0.077219956 -0.026235906 -0.07173385
-0.0689108 0.029581834 -0.074614316 0.037513025 0.073255904 -0.036063366 0.032877937 -0.067359306
0.07705272 0.050500028 -0.064507544 0.010915633 -0.03442797 -0.06787783 -0.011346816 0.060626205
0.027928617 0.03919212 0.026331345 0.026775038 0.0033847291 -0.05818144 -0.07600733 -0.023418766
-0.0932453 0.049573448 -0.065552756 -0.08851776 0.05113987 0.07334919 -0.052377786 -0.06586055
-0.052573502 0.0047621652 0.048227344 -0.031763233 0.049938787 0.047197383 0.065395795 -0.09706036
-0.0078439815 -0.05710455 0.019357882 0.037503175 0.023897354 -0.08739784 -0.021167327 -0.0125937285
0.011914646 -0.025680633 -0.049893904 -0.071896836 -0.059969075 0.028978968 -0.06161668 0.055498645
0.06898379 -0.0378633 0.05084693 -0.05569624 -0.07619802 0.012487792 0.088387124 -0.09934261
0.035647187 -0.05442219 -0.042097356 0.03723277 -0.06906044 -0.00620193 0.06898318 0.0763034
-0.042989787 -0.01357536 0.030298598 -0.02344428 -0.0050024535 -0.02024765 -0.08463131 -0.07402851
-0.023729045 -0.024114305 0.014246383 -0.023961853 0.0419859 -0.08351285 -0.04401103 -0.06045207
-0.0040340372 0.06492579 0.015816025 -0.016166905 -0.008738029 -0.0070820577 0.015273101 0.021425065
-0.04729515 0.0038597812 0.040706776 -0.07531261 -0.009517397 -0.063874766 0.044982415 0.0805663
0.015783388 0.0037366461 -0.005952047 -0.05511944 0.06270961 -0.0051513775 -0.08813127 0.03093643
0.02264204 -0.082082585 0.04636155 -0.055396277 -0.065370776 0.050141536 0.03613532 0.010836748
0.032500684 0.025951372 0.039583117 0.0011707698 -0.030076217 0.013716534 0.06543422 0.063792996

network.2.bias f4 [64]
00000000: 9de0 293d 2cf5 49bc 0304 9d3d 76d9 afbc
00000010: 400f c93c 7633 143b 4e1f a73d b33a 713d
00000020: 2e80 383b 1500 083e 755d 8aba 374d 2b3c
00000030: e29a 973d 966f 683d 3493 dcbc c0e7 21bd
00000040: fe9f ec3d de92 ec3d feb8 e8bc 5f98 093e
00000050: d1a8 6b3d b15c da3d ac5c d33d 63a9 a23c
00000060: f7f3 703c 9391 97bd 6774 c23e 7cab 80bd
00000070: f240 463d c28c b53d d789 033e 2984 95bd
00000080: db54 acbd 2956 69bc e017 c0bd e8c3 d8bb
00000090: f72c 183e 77ee d93d d76e 463d b4a5 903c
000000a0: 7d2d 76bd a93d 07bd 0431 07bd c3a5 c53d
000000b0: c9d3 71bd e60d 923d c08c 843c 476a 9dbd
000000c0: 93a5 a63d fea1 8bbd 6e01 283d d542 503c
000000d0: fa56 0abd 2e6a 063d 36fa 943d f7a6 94bb
000000e0: 1091 31bd 2ce0 143d bea5 cc3d eabd 59bc
000000f0: be2b f6bb f8d3 77bb 03c1 e63d e42f 0f3d
0.041473974 -0.01232652 0.07666781 -0.021465998 0.024543405 0.002261368 0.08160268 0.05889387
0.0028152573 0.13281281 -0.0010556417 0.010455421 0.074025884 0.05674704 -0.02692566 -0.039527655
0.115539536 0.1155145 -0.028408524 0.13437031 0.057534043 0.10662211 0.1032041 0.01985616
0.014706603 -0.07400813 0.37979433 -0.06282708 0.04840178 0.08864738 0.1284555 -0.07300598
-0.084146224 -0.014241734 -0.09379554 -0.0066151507 0.14860903 0.10641187 0.04844555 0.017657138
-0.060101975 -0.033017788 -0.03300573 0.09650757 -0.059039865 0.07131557 0.016180396 -0.076862864
0.081370495 -0.06818007 0.04101699 0.0127112465 -0.033774354 0.032816105 0.072742864 -0.0045365053
-0.043351233 0.0363466 0.0999255 -0.013289908 -0.0075125387 -0.0037815552 0.11267283 0.03495778

network.4.weight f4 [32, 64]
00000000: 68c1 a33c be33 a6bc 0b6d 6fbd bfea 1f3c
00000010: f4fd ed3d 1032 c83d f4f5 153d e8c5 acbb
00000020: 6bc5 e8bc 3289 33bd d2d1 503c 3efd b1bd
00000030: 5d9f f73c e73d 74bc a0d7 d8bd 60ad ecbd
00000040: 829d aebd d25d 01be d822 673d eb0e 89bd
00000050: ca58 68bd cbe0 9c39 2252 193d e01d 873b
00000060: 961e 94bd c6c7 95bd e053 a3bd 5c54 81bd
00000070: 49da 9a3d 700a b63c 4eb3 d3bd e64d e2bd
00000080: 50d0 ee3c a812 31bd fc6a 29bc a5aa 9d3c
00000090: 46d4 003d 9158 073d 7542 b73d 41f9 01be
000000a0: ff99 b23d 0c70 cd3d c9b8 01bc 9d49 bc3d
000000b0: 9e71 813d cc7c 05be d4b0 82bd 5a78 7ebd
000000c0: 7e0d 87bd 4cba a03d 52f6 06be e814 fc3d
000000d0: a48c 823d 1cf9 acbd cb45 b63d 7246 8c3d
000000e0: e0c0 8a3d 1333 93bd 2ade cc3d 19b7 e73c
000000f0: 3463 82bd 9637 573d 409e 943d c660 c43d
00000100: 42a2 dbbd bcf4 503d c623 d8bd 9a6c 71ba
00000110: 8c7a 9bbd 38dc 6bbd ccd0 76bd a35c cabd
00000120: 0e9a c73d b540 a63d ecff f1bd 28a3 70bd
00000130: b32a 5b3c 0bcc 22bd 8015 9cba a59f 51bd
00000140: 766c a7bc 34ad ab3d b043 22bd 4047 00bd
00000150: 1963 cebb fb4c a83c ed33 20bd 40bb e8bb
00000160: 5f6d b5bd 0d3c eebd 187f eb3c d01b bcbc
00000170: 85aa aabd e223 4c3d e6ef 04bc 78f4 663d
00000180: 2a1b c1bd 0214 d23c 5515 c93c cba5 00bc
00000190: 773d 10be 9810 bebd 1725 f339 efc9 4dbd
000001a0: 51de 923d 0159 d4bd 0c74 b23d 5009 6b3d
000001b0: c8e8 3ebd 3961 ae3c 488d bdbc 40dc d8bd
000001c0: 1d68 bbbd b0df a43c 5d15 ac3d 80b8 ad3a
000001d0: a5f8 be3d 70ca 2cbc 852a b0bd 1a30 81bd
000001e0: de93 fc3c 6984 5cbd 1a1a 8f3d 4df9 823d
000001f0: 4cf3 763d d830 c93d f6c0 54bc fa45 853d
00000200: d0bb a03d c41f 1d3d 5460 24bd 2f9d f1bb
00000210: 7428 b3bd 48cd 7fbd 251c 953d 1a3d d8bc
00000220: 2c96 383d 70fb 8bbd 2283 edbd 94dd 893d
00000230: d389 893d 1094 d33d 3677 f03d 50e9 0fbd
00000240: b178 60bd 11c0 323d 5622 c6bd 0187 14bd
00000250: f0c5 f6bd a30b 583d 6aad f3bd 4876 9ebd
00000260: 511d 123d fe06 e43d 7c4b 163d 2c2f 48bd
00000270: 5cba b03b d566 e93d c604 f8ba 0045 20bd
00000280: 003f 893a 3c54 dbbd 3034 d8bd 3544 d03d
00000290: 06f9 c4bd 3708 d2bd 1e72 d73d 7aac 923d
000002a0: 7652 fc3d 2a75 c8bd 2630 71bd 154e 83bd
000002b0: 5ee0 c6bd ea38 12bd 46b3 aa3d 8028 423b
000002c0: eba8 1b3d c24e e7bd ca56 ab3d 76e0 abbd
000002d0: 585b af3c 4e86 dabd 900e ebbc 6267 cf3b
000002e0: 2496 a8bd d6ba cebc 4fc3 cabc c013 9c3c
000002f0: a8a2 3a3d 40e7 94bd 32df fe3c 2a69 323d
00000300: 2acc d9bd bb35 e0bc 2b01 aa3a f1d1 93bd
00000310: 98eb 63bd 1035 2e3c 2a0c 0abe 923a e6bd
00000320: 0360 21bd ea30 06be 4d34 973d 907e f63c
00000330: 7eec c3bc 2af4 f5bd e0f0 263d ce22 c73d
00000340: 6a48 04bd 84eb f6bd 5000 b53d 2a5f 983d
00000350: 3d45 003d 9a6c 02be 4ae1 52bd 50bd edbd
00000360: 3304 debd baac 843d 505e a7bd 3807 36bd
00000370: b4af a73d 7904 71bc 9ed9 c0bd 94aa 6abd
00000380: 3212 dabd 8dca b8bb 5799 44ba d65f 91ba
00000390: d04f 0e3d b84b a0bb 664c d9bd 3c5e 37ba
000003a0: c8b5 9a3d 35f0 2fbd 9fd7 e23d 11a5 da3d
000003b0: 608b 993d 6ac9 723d 8290 d13d 5c85 603d
000003c0: 72c6 bc3c d279 b63d a1f0 06bd f4ac ccbd
000003d0: a8df 6bbd 8010 253c 4ebd a9bd f737 00be
000003e0: f575 b03d c9e8 773d e866 8b3d cc6e 00be
000003f0: 1e21 8ebd fa22 1cbd 9dbb 803d 589d cabd
0.019989684 -0.020288344 -0.0584536 0.009760558 0.11620703 0.09775174 0.036611512 -0.0052726157
-0.028414449 -0.04383201 0.012745338 -0.0869088 0.030227358 -0.014907337 -0.10588002 -0.11556506
-0.08526136 -0.12633446 0.056429714 -0.066922985 -0.0567253 0.00029922122 0.037431844 0.0041234344
-0.07232396 -0.073134944 -0.07974982 -0.063149184 0.07561166 0.022221774 -0.10336934 -0.11050014
0.029152066 -0.043230683 -0.0103404485 0.019246409 0.03145244 0.033043448 0.089482225 -0.12692739
0.08720779 0.10031137 -0.007917591 0.09193728 0.06320499 -0.13035887 -0.063813835 -0.062126495
-0.0659437 0.07848033 -0.13179901 0.12308675 0.06374481 -0.08445951 0.08900031 0.06849374
0.06775069 -0.07187476 0.10003312 0.02828555 -0.06366578 0.052543245 0.07256746 0.095887706
-0.107243076 0.051014647 -0.10553698 -0.00092096033 -0.07591733 -0.057583064 -0.060257718 -0.0988095
0.097461805 0.08117811 -0.11816391 -0.058749348 0.0133768795 -0.03974537 -0.0011908263 -0.05117764
-0.02043746 0.08382645 -0.039615333 -0.03131795 -0.0062984345 0.02054452 -0.03911202 -0.0071024
-0.088587515 -0.116325475 0.028747126 -0.02296248 -0.08333305 0.049838908 -0.008113837 0.056385487
-0.09429009 0.025644306 0.024546305 -0.007852028 -0.14085947 -0.09280509 0.00046376206 -0.050241407
0.0717131 -0.10368539 0.087135404 0.057381928 -0.046608716 0.021286594 -0.023138657 -0.10588884
-0.091507174 0.020126194 0.08402512 0.0013253838 0.09324769 -0.010546312 -0.0860186 -0.06308003
0.030832227 -0.053837214 0.069874 0.063952066 0.06029062 0.09823769 -0.012985459 0.065074876
0.078483224 0.038360372 -0.04013093 -0.007373474 -0.0874795 -0.06245163 0.07280759 -0.026396323
0.04506509 -0.06835067 -0.11597277 0.06731716 0.06715741 0.10330975 0.11741488 -0.035134614
-0.0548026 0.0436402 -0.09674518 -0.036261562 -0.12049472 0.052745473 -0.118983105 -0.07737404
0.03567249 0.11134146 0.03669308 -0.04887311 0.0053933095 0.11396567 -0.0018922321 -0.039128304
0.0010471046 -0.10709426 -0.10556829 0.101692595 -0.0961781 -0.10255473 0.10519813 0.071618035
0.12320416 -0.09787972 -0.05888381 -0.06411377 -0.097107634 -0.03569881 0.08334975 0.002962619
0.03800289 -0.11294319 0.08366163 -0.08392422 0.02140586 -0.10670148 -0.028693467 0.006329463
-0.08231762 -0.025235575 -0.024751334 0.019052386 0.045565277 -0.0727067 0.031112287 0.043557324
-0.10634644 -0.02736937 0.0012970319 -0.072177775 -0.0556446 0.010632768 -0.13481203 -0.1124164
-0.039398205 -0.13104597 0.073830225 0.030089647 -0.02391648 -0.12009461 0.04075706 0.09723435
-0.032295622 -0.1205664 0.0883795 0.07440026 0.03131603 -0.1273674 -0.051484384 -0.11608374
-0.10840645 0.064782575 -0.081722856 -0.044440478 0.081878096 -0.014710539 -0.09416507 -0.057291582
-0.10648002 -0.0056393803 -0.0007499656 -0.0011091183 0.034744084 -0.004891839 -0.10610275 -0.0006994938
0.07554203 -0.04295369 0.11076283 0.10676015 0.07497287 0.059274115 0.10232641 0.05481468
0.023043845 0.08909954 -0.032944325 -0.09993926 -0.057586342 0.010074735 -0.0828806 -0.12521349
0.086162485 0.060524736 0.06806737 -0.12542266 -0.0693991 -0.038119294 0.062857844 -0.09893292

network.4.bias f4 [32]
00000000: 954c 11bd 47b4 8e3c 367e a7bd 60de 9d3d
00000010: 15b1 223d 8d53 59bc 129b 873d 8499 3fbb
00000020: 0068 9fbd d486 6abd f6c1 cc3c 7570 cbbc
00000030: 5625 d03c f5e8 a63c a8b4 b93b cdde 203d
00000040: cf3c acbd c789 463d 702a f73c fd04 e53d
00000050: 7201 94bb 1228 b7bd 30ae 273e 64b2 9cbd
00000060: 4560 0cbd 34bb 01bd 6e0b 963d fe22 b33d
00000070: 3461 29bd d79a f23d 322d 6f3d df93 04bd
-0.035473425 0.017419947 -0.0817837 0.0770843 0.03971966 -0.013264549 0.06621374 -0.002923579
-0.07783508 -0.05725749 0.024994832 -0.024833897 0.025408428 0.020374754 0.005667288 0.03927498
-0.08410036 0.04847124 0.030171603 0.11182592 -0.004516774 -0.0894319 0.16375041 -0.07651213
-0.034271497 -0.03167267 0.07326399 0.087469086 -0.041352466 0.118459396 0.05839271 -0.032367583

network.6.weight f4 [1, 32]
00000000: a961 0abe c91d 9ebc c037 6cbd 3314 febd
00000010: b8dc 0bbe c0d9 12be fcdc 0abb 15ae 2a3e
00000020: d5e8 b6bc a197 353d 2871 11be aaa9 943d
00000030: 0c6f f53d fbfb 673e 5218 f1bd c2c1 ca3d
00000040: 0386 91bd 203d 8dbd 3121 213e c89c ce3d
00000050: a1ed 993d b5be c7bd a6ab a83d 5102 d53d
00000060: ced8 e43d d6e8 c33e ed23 173e 3417 8bbd
00000070: ebc0 f8bd f5cc 5c3e e461 263e c98a c8bd
-0.13513817 -0.019301312 -0.057670355 -0.124061964 -0.13658416 -0.14340878 -0.0021188846 0.1666797
-0.02232782 0.044334058 -0.14203322 0.07258923 0.11984071 0.22654717 -0.11772217 0.099002376
-0.07105639 -0.06896424 0.15735318 0.100884974 0.07516027 -0.09753171 0.08235864 0.104008324
0.11174165 0.38263577 0.14759798 -0.06791535 -0.12146171 0.2156256 0.1624828 -0.09792096

network.0.weight f4 [128, 3]
00000000: cd23 b5be c5ee b53e ff43 5e3c 0c9e 983e
00000010: e36c 8d3d d93e 8ebe e7d7 a8be a75a b4bd
00000020: df6f e83e 32e1 f4be c9b1 adbb f713 40be
00000030: 3e32 13bf 5a04 223e b751 073f a901 0d3f
00000040: 7dd3 89be 9faa 60be 2799 c73d 5a13 9ebe
00000050: 723f 01be 0c5e dc3d c599 afbe 2171 303e
00000060: e957 553c 7f58 4bbe 4344 133e ca31 18bf
00000070: ca05 7dbd 9851 b73e 4adb 50be 97cd 843e
00000080: ca6a da3d 6ae7 513e 8de7 12be 4c4a e33d
00000090: 35f1 02bf 8a30 923e 1fc5 71be ed9e 11bf
000000a0: 2c2c bf3e f002 9b3e 7a36 e0be 1571 e6be
000000b0: f609 fb3e 7a8f 7f3e 9cbb ca3e 2210 36bd
000000c0: daf0 53be c36f 543e 0652 0fbf 84bb 8b3e
000000d0: d828 d93e 9093 003d 51f5 47bd f2e3 d8be
000000e0: 4a4f 41be bfef 7e3d 84df 72be 3858 0cbd
000000f0: 105f fa3e c263 e8be b5db 943e b435 3b3e
00000100: aa82 cdbe d409 ca3e 73a9 083f 1fb6 8ebe
00000110: a4a3 2fbd 3977 c3bc 1502 95be 9255 02bf
00000120: 72c3 5bbe 07fb e33e 05cd 17be 21b0 bb3d
00000130: afb5 97bd 94d8 4d3e 1561 dd3e 8283 b73e
00000140: 221d 6c3e 73e1 a23e 54b9 b43e d1df 8e3d
00000150: c45c f13e dd39 ff3c 0004 27be 8b3f d0be
00000160: d5e8 b23e 5b01 cb3e c534 b1be bf66 3dbe
00000170: 1952 a93e cd74 c0bd 7cc5 e73d 7556 f93e
00000180: dbef a93e 4b93 b9be f300 013d 8495 b2be
00000190: 83aa dcbe a954 553e 1154 043f 6e83 953d
000001a0: 7e80 d13e a8a7 e33d ac5e d7be 5421 073f
000001b0: 4ff3 583e b1ef bebe 5122 d8be befc 063e
000001c0: 548b 20bd 567b 313e ba40 153e 7f97 1ebe
000001d0: 8411 6b3e ed1b 73be 0f24 0abf e083 af3e
000001e0: 23af debe bd4d efbe 3fd9 a7be 15ac 073f
000001f0: 796e bfbd ebc0 293e 71ce 6b3c 0244 01bf
00000200: 11a8 89be def3 7b3e 1538 b33e 8514 bb3e
00000210: bdab 773e e7e1 e2be 83a7 4d3e fcfa 7bbd
00000220: e44a a13e 746d 0fbf b865 9d3e d114 0fbf
00000230: 05ed 69be ebce f3bd 4818 a1be bd66 fabe
00000240: 0236 10bf a70f a63e 8a56 c0be 6bfa f73e
00000250: 49f1 40be 1517 503d 03e3 d2be 27a5 98be
00000260: 7428 b73e 85c3 9d3e 31d7 9dbd bc32 9a3d
00000270: bd3b 30be 4071 00bc a328 1ebe 7af6 063e
00000280: 3b52 243e cf75 07bf 13f8 29bd 87b1 0e3e
00000290: a5d1 773e a703 14bf 122f afbe 5dbd ef3e
000002a0: 5778 a0be 7fe2 e7be 2de1 8a3e 8c9c 663e
000002b0: 3348 acbc dfab 9bbe 5763 9e3e 254d 9ebe
000002c0: 7347 97be 3a94 f33e 7190 13bf 1c5a 3abe
000002d0: a2ac 953e f934 b33e cba2 a1be fb5e cebe
000002e0: b4e4 c33e 1a3a 9c3e 0d1b ad3e 2c63 c7be
000002f0: a1d4 18be 5a4d 81be 836f e13e dcca 063f
00000300: 1889 f53e 8e1c a5be 8ebf 91be 3af0 29be
00000310: 77c4 f7be 44d0 ea3d 41b7 80be ccb2 1ebe
00000320: 69a0 eb3d dae6 e9ba ad54 b5be d738 9c3d
00000330: 309e d93e 0902 cb3e 33f3 3dbe 08aa 813d
00000340: 324b 913e bb2d 06bf 3043 053f fb58 5cbe
00000350: efc8 bcbe 9ecd 913e 858d 08bf 38fc 053f
00000360: 9379 7a3c 1b23 fb3e 2597 eb3e 39f8 fdbd
00000370: 9008 edbd 7f5e f83d 4c28 d03e ad15 02bd
00000380: 737e 2c3e 2ebc 253e 61c6 763e 9313 723e
00000390: 949d 093f 880c b83d 1813 803e d2cd 5dbe
000003a0: 2ce3 80be 9efa 8fbb bace 633e cd3f c2be
000003b0: 7118 17bf 6172 573e 037d ba3d 2622 b8be
000003c0: 004a c93e 5886 b8be f605 03bf 78aa b5be
000003d0: 7af3 dbbd c50d f73e a35b dabe cbb8 06be
000003e0: f2c2 0dbf c7b0 d9be 7fdf ee3d 5879 00bf
000003f0: ca11 0b3f abb1 06bf 8f67 f8be 9a85 39be
-0.35378876 0.3553373 0.013566016 0.2980808 0.06905534 -0.27782324 -0.3297722 -0.08806353
0.4539785 -0.4782806 -0.0053007347 -0.18757616 -0.5749854 0.15821972 0.5285906 0.5508066
-0.26919165 -0.21940087 0.09746008 -0.3087414 -0.12621859 0.107601255 -0.34297004 0.17230655
0.013021448 -0.19857977 0.14381509 -0.5945097 -0.0617731 0.3580444 -0.20396152 0.25938103
0.106649 0.20498434 -0.14346142 0.110981554 -0.511493 0.28552657 -0.23610352 -0.56883126
0.37338388 0.3027568 -0.43791562 -0.4500815 0.49031037 0.24957076 0.3959626 -0.04444898
-0.20697346 0.20745759 -0.5598453 0.272915 0.42413974 0.031390727 -0.048817936 -0.42361408
-0.18877903 0.06224036 -0.23718077 -0.03426382 0.48900652 -0.4538861 0.29073873 0.18282205
-0.4013875 0.39460623 0.5338356 -0.27873322 -0.04288067 -0.02386056 -0.2910315 -0.5091182
-0.21461275 0.44527456 -0.14824302 0.09164453 -0.074077 0.20102149 0.4323813 0.3584252
0.23057988 0.3181263 0.35297644 0.06976283 0.47141087 0.031155521 -0.1631012 -0.4067348
0.34943262 0.39649472 -0.34610572 -0.18496226 0.33070448 -0.09397278 0.11316964 0.48698774
0.33190808 -0.36245188 0.031495046 -0.34879696 -0.4309884 0.20833077 0.51690775 0.07300459
0.40918344 0.11115962 -0.42064416 0.5278523 0.21186565 -0.37292245 -0.4221368 0.13182351
-0.039195374 0.17332205 0.14575472 -0.15487479 0.229559 -0.23741122 -0.5396127 0.342803
-0.43492994 -0.46738997 -0.32782933 0.5299695 -0.09347243 0.16577499 0.014392481 -0.50494397
-0.26886037 0.24604747 0.35003725 0.36539093 0.24186607 -0.44312975 0.20083432 -0.061518654
0.3150245 -0.5602639 0.30741668 -0.5589114 -0.22844322 -0.11904701 -0.31463838 -0.48906508
-0.5633241 0.32433817 -0.37566024 0.4843324 -0.18842043 0.050803263 -0.4118882 -0.298135
0.3577305 0.30813232 -0.0770706 0.07529208 -0.17210288 -0.007839501 -0.15445189 0.13179961
0.16046993 -0.52914137 -0.041496348 0.13934909 0.24201067 -0.57818073 -0.342156 0.4682416
-0.31341812 -0.4528999 0.2712492 0.22520655 -0.021030521 -0.30404565 0.30935165 -0.30918232
-0.295467 0.47574025 -0.57642275 -0.18198436 0.2923327 0.35001352 -0.31569514 -0.4030684
0.38260424 0.30513078 0.338097 -0.3894285 -0.14924861 -0.25254327 0.4403039 0.5265329
0.47956157 -0.32248348 -0.28466457 -0.16595545 -0.48392078 0.11465505 -0.25139812 -0.15497893
0.11505205 -0.0017845288 -0.35416165 0.07628029 0.425035 0.3964999 -0.18549804 0.06331259
0.28377682 -0.5241353 0.52055645 -0.21518318 -0.3687205 0.28477186 -0.5334094 0.5233798
0.015287775 0.4905022 0.46013752 -0.1240086 -0.11573899 0.12127399 0.40655744 -0.031758953
0.16845112 0.16185066 0.24099113 0.2364028 0.5375607 0.08986765 0.25014567 -0.21660545
-0.25173318 -0.0043938896 0.22246829 -0.379393 -0.5902167 0.21039726 0.09105875 -0.35963553
0.3931427 -0.36039996 -0.5118097 -0.3548162 -0.10739799 0.48252693 -0.42648038 -0.1315643
-0.5537559 -0.42517683 0.11663722 -0.50185156 0.5432402 -0.5261485 -0.4851651 -0.18117371

network.0.bias f4 [128]
00000000: 62db 21bc c6a9 023f 7350 e43e 723a 203e
00000010: 2903 203e c50f 03bf 23e5 843e f44a 5ebe
00000020: 11c5 87be 066b a43d d698 c6be e18d 12bf
00000030: 2131 0abf d6d7 a5bd 45ec ff3e ac9c dbbc
00000040: 80a4 d9bd 4f03 05bf 4df0 d3be 08ee d6be
00000050: 522a 863c 8945 15bd 67d0 593e 4332 fd3e
00000060: 162a a2be ff22 5bbe 2900 c7bd 5cc8 0a3e
00000070: d14a e8be 3a62 a0be 491e 833e fff7 a1be
00000080: baf4 77be f8b4 13bf 493b f73e 9a53 5a3d
00000090: 0117 ff3d 3b48 a8be 0600 83be ab3f e73e
000000a0: d598 ff3e e3ae 043f 27df ab3e 028e 8ebe
000000b0: 4ba6 d73e d271 c13d 6bcc 253e b43d 48bd
000000c0: 3ea7 6ebe d977 03bf 641a 5d3d cc8a e1be
000000d0: ad4a 09bf 12cc 043f c4f5 0cbf 7d51 65be
000000e0: de6c d8be ab9d f03e 163e 333d 5969 a5be
000000f0: 1c66 03bf 978b 90be c4c5 a7bd 9d76 9ebe
00000100: d3ad 273e 7a1b 0dbf 9006 0d3b e158 d2bc
00000110: 55f7 8b3d 54af d33e 1939 11bf d259 743e
00000120: cf7d a33e bfe9 903d 2614 f63e cd3d 91be
00000130: 5d38 2ebe 396e 8fbe 5b80 013f 8ca4 193d
00000140: 2e1e 093e 1b44 86be 2402 2a3e 6aec 23bd
00000150: 7a3a 813e 5974 bc3e 971e 973e 1de0 60bb
00000160: b1f7 cabe f06f cd3d 94c6 7b3e ca50 993c
00000170: cd4c d2be e78c c03e ab4b 823d f20b 0fbf
00000180: dd7a 0a3f f3da ff3e 3616 103d 3a2d aabe
00000190: fc19 693e 98d1 12bf 0796 d4be 3955 df3e
000001a0: b571 e73d 558d 25be 4898 d3be 5b6a f63e
000001b0: 89df a43d 140c 19bf 69af 0fbf 517a bfbd
000001c0: e5eb a6bd ca09 05bf 3d1e b23e 6854 a63e
000001d0: 75e3 b83c 78d1 e43e a860 f73e c44d d0be
000001e0: 6567 043f 43d7 e93e 7ce2 8dbe 8c2e d6be
000001f0: 01cc bdbe 9b33 c3be 2645 f9be be35 2d3d
-0.009878965 0.51040304 0.44592628 0.15647295 0.15626206 -0.5119594 0.25956067 -0.2170828
-0.26517537 0.080282256 -0.3878848 -0.5724774 -0.53981215 -0.08097808 0.49984947 -0.026808105
-0.10627079 -0.51958174 -0.41394272 -0.41978478 0.016377602 -0.036443267 0.21270905 0.4945241
-0.31672734 -0.21400069 -0.097168274 0.13552994 -0.4536958 -0.3132494 0.25609043 -0.31634519
-0.2421445 -0.5769801 0.48287418 0.053302385 0.124555595 -0.32867607 -0.25585955 0.45165762
0.4992129 0.51829356 0.3356869 -0.27842718 0.4211906 0.094455376 0.1619126 -0.04888697
-0.23305985 -0.5135475 0.053980246 -0.44051206 -0.5362957 0.51873887 -0.5506251 -0.22394367
-0.4227056 0.4699529 0.04376038 -0.32306936 -0.5132768 -0.282315 -0.08192018 -0.3094987
0.16374902 -0.5512005 0.0021518804 -0.025677146 0.06834284 0.41344702 -0.5672775 0.23862389
0.31931922 0.070758335 0.48062247 -0.28367463 -0.17013688 -0.2801378 0.5058648 0.03751044
0.13390419 -0.26223835 0.16602379 -0.040020384 0.25239927 0.36807516 0.29515526 -0.003431327
-0.396421 0.10031116 0.2458747 0.018715281 -0.4107422 0.376075 0.06362089 -0.558776
0.54093724 0.49971732 0.035177432 -0.3323763 0.22763819 -0.57351065 -0.41520712 0.43619707
0.11300985 -0.16167195 -0.4132712 0.48128018 0.080504484 -0.59784055 -0.5612703 -0.09349502
-0.08150462 -0.5196806 0.34788695 0.32486272 0.022569397 0.44691062 0.4831593 -0.4068433
0.5172027 0.45672044 -0.27711856 -0.41832387 -0.37069705 -0.3812531 -0.4868557 0.04228758

network.2.weight f4 [64, 128]
00000000: 76b9 b1bd 41f3 59bd a149 acbc 7951 a0bd
00000010: 938b 953d 3eec ac3c c047 783c d283 283d
00000020: b496 353d 3cc6 6b3c d44c a53d 558c 21bc
00000030: 0f17 4cbd c007 a73d 7a43 88bd 5d49 723d
00000040: 3cc3 e63b 9c00 19bd 599f 92ba 533d 923b
00000050: c9b5 88bd 74d9 8cbc 1ad1 ec3c 7cd0 8d3d
00000060: c5af 81bd 8e89 803d 0c5b 2bbc 2045 a0bd
00000070: 22a0 013d 08fd 9b3d 24d2 823d b0be 74bd
00000080: af7f 983d 938b b4bd 622a 3d3d 0bdd 3cbd
00000090: 3393 26bd 193c 3abd 4ac0 b1bd 0295 933d
000000a0: 6d25 c7bb 55f9 a6bd 7427 9d3d e00c b63b
000000b0: 0b77 77bd db63 403d 8b79 2b3d 2c5f 87bc
000000c0: 109c a9bd f91d a93d 77fc 123c 940a b63b
000000d0: eaba 49bd cd2d 4b3d 6d57 b3bd 7329 49bd
000000e0: 2594 8bbd 9893 95bd 5df7 eabc 55a2 eabc
000000f0: 06dd a7bd 4e64 813c 7baa aebd 2a91 2bbd
00000100: 2759 50bc a102 afbd b090 b6bc b14a 973c
00000110: 704c 86bd 6e05 a23d 14d2 65bd 8620 6cbc
00000120: 33fb 283b 3aa1 8ebb adca d2bc 4c80 e73c
00000130: 7926 783b 1f23 acbd 0871 d6bb 211f a43d
00000140: b73d 873c 0682 54bd a936 c7bc 33bd 233d
00000150: 2c51 6cbd a00f aebd c25b 8dbc ab87 7abd
00000160: aa49 aebd db35 71bd 9f73 d53b 2dd2 a5bd
00000170: 46a6 9a3d 6791 5cbd 246b 993d f37a 693d
00000180: 6e2d 7b3d 7f85 993d f3ba 3ebd eb93 8d3d
00000190: 6bdf 49bd a557 593d 7b08 81bd bd59 acbd
000001a0: c7a6 70bd 950c 793d 4cd3 1d3d 1fd8 f2bb
000001b0: 77f5 b33d dc50 bc3c 136e 9a3b 22e4 133c
000001c0: a649 9b3d 0e21 1ebd 5137 12bd 2ec3 a4bd
000001d0: 1018 593d 96f0 5cbc 8a6d 67bd 6b32 47bc
000001e0: 4bf9 b3bd 4316 f63c ffff ae3d 269e 6c3d
000001f0: b93f 813d 2c48 97bc 5ffe 653d 16f7 d73b
00000200: bb9a 123d 4567 8ebd 4d84 3c3c d774 693d
00000210: 7612 9ebd 2ca3 773d 29d1 9fbd 402e 24bb
00000220: 4266 5cbd 5aec 82bd 8c2a b33c 282f 02bd
00000230: c13c 07bd 3def b1bd 420e a6bd 7035 82bd
00000240: c128 7fbc aa63 a53d d8b7 40bd 543a fe3c
00000250: 17b8 633c 1d7b 6ebd f934 38bd 54f7 62bd
00000260: 8c98 8c3d d317 323d 845b bbbc 7a6d b83c
00000270: a5ac 7abd eecf 663d c4b8 0f3d ebcc 54bd
00000280: b1ae 1d3d 0da3 6cbd bfc9 4c3d 7420 9c3d
00000290: b704 9ebc 463e 993d e946 0f3d 3a5c dc3c
000002a0: ef6c 953d e6ac 8abd 2fd8 e6bb 3e02 f2bc
000002b0: 9a05 5fbd cc81 22bd 92c4 94bc b8bb b13d
000002c0: cce3 3ebc 42e8 4dbd 0403 2fbd a9b6 8f3d
000002d0: 468e c33b e012 9ebd fe9c 1fbd 9eb4 e03c
000002e0: 5bca 80bc 6493 9abd 7030 d23b 7f19 3c3d
000002f0: 400f 3b3d a4bb 85bd 86bd 123d 99f2 edbc
00000300: f195 80bd e692 84bd 531e 96bd d7df 75bd
00000310: 1f05 f5bc 399e 143d e9fb 21bd ca1c d33c
00000320: eb34 38bd 7d65 44bd 4c49 923d 19ee 2cbd
00000330: d0d4 0e3d 8099 6dbc 32a4 94bd e8df 82bd
00000340: f759 ad3d de62 4bbd 3ed8 653d 2564 543d
00000350: a847 81bd da10 583d 90c0 85bd 468d 3a3d
00000360: c3bc 16bd ef46 86ba 9075 0e3b 8fa3 d7bc
00000370: 57fe b93c 6874 d7bc 82cb 9d3c 4360 8ebc
00000380: cb4c 71bd 9625 b03d 1e0d 67bd 5139 a93c
00000390: 67dc 49bd de2b 9fbc 078b b33d e1f2 a2bc
000003a0: 9427 813d 9f9d 083d 5586 98bd ae2b 75bd
000003b0: eca4 22bc 5fa6 41bb fb74 a03d de4d b13c
000003c0: d57d 5f3d 7021 8c3d 0b2d 16bd d3a7 a8bd
000003d0: e4ac 8b3d 1167 3ebd 1adf 163c 0468 87bd
000003e0: 1965 d6bb 1a5f a23d 7599 23bd 428e d73a
000003f0: e423 623c 4c42 25bd f31f 4fbc 109e 783c
-0.08677952 -0.0532105 -0.021031203 -0.0782804 0.07302012 0.021108743 0.015153825 0.04114134
0.044333175 0.0143905245 0.080712944 -0.009860118 -0.049826678 0.08155775 -0.06653495 0.059151996
0.0070423167 -0.037354097 -0.0011186405 0.004462877 -0.06675298 -0.017193533 0.028908301 0.06924531
-0.063323535 0.062762365 -0.010458719 -0.078256845 0.031646855 0.07616621 0.063877374 -0.059752166
0.07446229 -0.08815684 0.046182998 -0.04610924 -0.040667724 -0.04546747 -0.08679254 0.07206155
-0.0060774595 -0.08153025 0.07673541 0.005555734 -0.060416263 0.04697023 0.04186396 -0.016524874
-0.0828172 0.0825767 0.008971325 0.00555546 -0.04925052 0.049604226 -0.087569095 -0.049111795
-0.06815366 -0.07303542 -0.028682405 -0.02864186 -0.08196454 0.0157949 -0.0852861 -0.041886486
-0.012716568 -0.08545423 -0.02228579 0.018468233 -0.06557548 0.07911192 -0.05610855 -0.014412051
0.0025784492 -0.004352716 -0.025731409 0.028259419 0.0037864728 -0.08405136 -0.006544236 0.0801375
0.01650892 -0.051881813 -0.024318056 0.039975356 -0.0576946 -0.08499074 -0.017255668 -0.06116454
-0.08510144 -0.05888925 0.0065140272 -0.080967285 0.075512454 -0.053849604 0.074911386 0.05700202
0.061322622 0.074961655 -0.046565007 0.06912979 -0.049285334 0.0530621 -0.06300446 -0.08415554
-0.0587528 0.060803015 0.038531587 -0.0074110175 0.08787053 0.022987776 0.004712829 0.009026559
0.07582407 -0.038605742 -0.035697285 -0.0804504 0.053001463 -0.0134850945 -0.05650095 -0.012158017
-0.08787783 0.030039912 0.08544921 0.05776801 0.06310982 -0.018467031 0.05615079 0.0065907342
0.035792094 -0.06953291 0.011506152 0.056996193 -0.07718365 0.060458347 -0.07803566 -0.0025051981
-0.05380846 -0.06392737 0.021870874 -0.031783253 -0.033016924 -0.08688209 -0.08108188 -0.06357849
-0.015573681 0.0807565 -0.047050327 0.031033672 0.013898871 -0.05822288 -0.044972394 -0.05541165
0.068650335 0.04347975 -0.022870786 0.02251314 -0.061199803 0.05635064 0.035088316 -0.051953238
0.038496677 -0.057772685 0.049997088 0.076233774 -0.019289358 0.07482581 0.034979735 0.026899446
0.07296168 -0.06771259 -0.007044814 -0.029542085 -0.0544487 -0.039674565 -0.018160138 0.08678383
-0.011650991 -0.050270326 -0.042727485 0.070172615 0.005967888 -0.07718444 -0.03896808 0.027429875
-0.01572149 -0.07547644 0.0064144656 0.045922752 0.04566884 -0.0652993 0.035825275 -0.029046344
-0.06278599 -0.06473331 -0.07330003 -0.060027923 -0.029909668 0.036283705 -0.03954688 0.025770564
-0.04497234 -0.04794835 0.071428865 -0.042219255 0.034870923 -0.014501929 -0.0725788 -0.06390363
0.08464425 -0.049654834 0.056114428 0.051853318 -0.063124955 0.052750446 -0.06530869 0.045544885
-0.03680111 -0.0010244529 0.0021737553 -0.026323108 0.022704287 -0.026300624 0.01926208 -0.017379886
-0.058911126 0.08600919 -0.056408994 0.020657213 -0.049282458 -0.019430097 0.08766752 -0.019891204
0.06306377 0.033353444 -0.07447497 -0.05985611 -0.009927016 -0.0029548628 0.07834812 0.021643575
0.054563362 0.06842315 -0.03666405 -0.08235135 0.06820086 -0.04648501 0.009208465 -0.06611636
-0.0065428135 0.079282954 -0.03994127 0.0016445594 0.013802502 -0.04034643 -0.012641895 0.015174404

network.2.bias f4 [64]
00000000: b4e4 d33c d372 e23b 29f9 5a3d 783d 6fbc
00000010: 19cc a2bd da5a 9fbd 77fe febc 0469 c4bc
00000020: 05a9 65bd fb6e a6bd 9c0e bfbb 3497 1dbd
00000030: f6c8 583c 46c2 dabd afc0 c6bd 5c80 12bb
00000040: 1a07 223c 6e15 b4bd 5385 5fbd a40f 183b
00000050: 7738 1bbc 8437 99bd 0cc5 79bd 1d12 393c
00000060: 4379 d8bc 9e20 393d 45be b1bd 22cb ddbd
00000070: 8e9c d0bd 0f49 9fbc cedb 14bd 98ef 53bb
00000080: 048a 69bd 9e7f 18bd 2f5f 55bc 94e8 98bd
00000090: 19c9 babd b3a8 63bc 8b1d 5b3d 16b2 3bbd
000000a0: 1a70 aabd a37c ebbc 2929 d7bd 3e01 eebc
000000b0: c07c 49bd 7cfb a0bd 2d74 3fbd 16b6 9bbd
000000c0: 81b5 83bd 01e2 263d 4116 d0bd e1d7 0dbc
000000d0: 4e85 3ebd 8cf0 09be 9e40 12bc d16e 8dbd
000000e0: ef1e aabd dfc9 4a3d eebf f5bc c2fe 1fbd
000000f0: e32f 56bd cd78 3cbd 7528 92bd e597 333d
0.02586589 0.006910661 0.053460274 -0.014602058 -0.07949085 -0.077810004 -0.031127198 -0.023975857
-0.056069393 -0.081266366 -0.005830599 -0.038474277 0.013231507 -0.10681586 -0.0970472 -0.002235434
0.009889388 -0.0879315 -0.054570507 0.0023202682 -0.0094739115 -0.07481292 -0.060978934 0.011295822
-0.02642501 0.04519712 -0.08678869 -0.1082976 -0.101861104 -0.019444017 -0.036342435 -0.0032338854
-0.057016388 -0.03723108 -0.013023182 -0.07466236 -0.091203876 -0.0138952015 0.05349497 -0.045824133
-0.08322163 -0.028745955 -0.105058976 -0.029053327 -0.049191236 -0.07860467 -0.046741653 -0.076030895
-0.064311035 0.040742878 -0.101604946 -0.008657427 -0.046513848 -0.13470668 -0.008926539 -0.06905902
-0.08306681 0.049508926 -0.029998746 -0.039061315 -0.052291762 -0.046013642 -0.07136623 0.04384603

network.4.weight f4 [32, 64]
00000000: 5cb9 723d 4e8f e1bd dc7a c8bd 579a 103d
00000010: 8e4d ecbd 1483 4cbd 1100 153c b3aa 29bd
00000020: e08a dfbd 6b02 b43d 04ca cebd 7304 a3bd
00000030: fc3a fc3d 3ccb ca3c 1bab 54bc 2515 d5bd
00000040: 9044 463d 73bb be3c 6876 523d c015 483b
00000050: 93da efbc 682f eabc 5ac2 95bd 1067 15bc
00000060: 41e6 2e3d 4cdc 39bd 10af ffbd 4d7b 32bd
00000070: 00ef 193d 5e7f d9bd ee0c b33d ecba 913d
00000080: 3004 5cbc 7e00 ae3c fc1d f3bd 9050 fd3d
00000090: ee29 ecbd 22e4 b8bc b8d2 88bc 7e16 96bc
000000a0: 084d cb3d 0c57 8f3d b36a a1bd 5a10 c8bc
000000b0: 8b35 f7bd c081 1d3d 9e6b afbd 6490 c8bd
000000c0: 3492 08bd e0ab 113d a934 ab3d 1001 49bd
000000d0: f7f4 a03d a037 a0bd 7005 fb3c 04ec 4e3d
000000e0: 40d9 cebc 7e90 ec3d 22a8 023d 3824 94bd
000000f0: 3e23 a93d 84df 9abd 40bd 8ebc 36a1 d2bd
00000100: 76ce 973d 9c9d 4e3d 707e 9c3c bd0f 87bd
00000110: 74a0 a9bd c0bb 82bb 2212 e93b ea7f bd3d
00000120: a2e9 b8bd e171 04bd c409 893d 24de 76bc
00000130: e8d1 64bd 20ef 52bd b569 a33d 0965 83bd
00000140: cc4b 96bd 4338 0f3d 724d 803d 3c9b b1bd
00000150: 937d 6d3d 4889 ddbd 80fc b2ba 4f81 13bd
00000160: d686 79bd 58da 2b3d 9c4b 4d3c 22f7 75bc
00000170: 82b0 423d 1800 e1bd a370 93bd 6a09 ad3d
00000180: bcf4 05bd e724 fabc d2e0 813d 906a 74bc
00000190: 108c 2a3d 1dd5 ae3d 800e 22bd 0a63 223d
000001a0: 68cb 02be 2876 fabd 3763 1abe 4899 8fbd
000001b0: f22a cd3d debf a93d 447f a53c 0dee a5bc
000001c0: 0e47 f03d 3d16 9d3b 022e abbd e814 483d
000001d0: 2621 aabd 87f3 f7bd c796 aa3c 7e42 52bc
000001e0: 28fc 79bd 5234 66bd 2f54 b5bd 623b 433b
000001f0: 00be 713a f477 e63d 08d7 a33c e680 993d
00000200: 30de 90bd b0cf fbbd b457 26bd 8a33 ddbb
00000210: 6b5e e5bd 7e6b f93d 99ec a63d 8c09 e03c
00000220: 47f0 56bc 8d3f 09bd 4d2f 9f3d ff51 94bd
00000230: 9417 c5bd 3623 b3bd 90ff 28bd 6b5e aa3c
00000240: d6fb c3bd 37c1 38bd f6b9 b1bd 6884 aa3c
00000250: f9ef b43d 188a e03d e235 f13d 543f 0c3d
00000260: 22a5 473d a0dd d13d 48c3 02be 4196 563b
00000270: dd8d dcbd 0499 ee3d 3b6b 563d d4f9 d2bd
00000280: ac11 33bd cbb4 8d3d e6f2 ffbd d0ba 1b3c
00000290: ed28 99bd 2710 edbd 32f0 d53d 189d b53d
000002a0: 1153 f9bd 77e3 143d d41d 3d3c ab58 5ebc
000002b0: a5b4 0d3d bb87 fc3d 162b c23d 8f7a 663b
000002c0: 7c21 e83d a7ab df3c 1c40 823d 1c9a 7cbd
000002d0: 37f4 3e3d d80c 8d3d 74b9 f43c 4994 00bd
000002e0: 4048 8f3b f024 b0bd d428 b7bc e608 073c
000002f0: 4cfe 633d 5cd6 b9bd 6082 053c 827e 95bd
00000300: 00b8 f239 a802 f33c 8480 5abd d57c 8bbd
00000310: ca17 ba3d baed ae3d 537f 08be 87fc 03be
00000320: dee9 033e f617 b33d 8432 af3d 2551 dd3d
00000330: 594d 6cbd 0255 833d 0454 f4bc b535 063e
00000340: ac68 d0bc 2149 a4bd 586b 883d d03c 913c
00000350: 4ee9 a83d 2c28 aebd 4646 9e3d 42ac 2fbc
00000360: 2ab3 093b 9c15 29bd 4d42 c63d 825a febd
00000370: bed9 e639 e8d1 9b3c 41d2 58bd 80ab 053b
00000380: f862 d9bd 48b4 88bc 8e47 a03d 4c36 593d
00000390: 18d9 69bd 0c40 fb3b e0c3 f63c 6efa b73d
000003a0: 5158 413d 3907 18bd 186d 053d d56a e7bd
000003b0: 0a48 c33d 34ca 1bbc 3fc9 823d bdfe 3ebd
000003c0: 60ac 233c 0643 73bd 7cee e8bd 086f f53c
000003d0: d97a f4bd 3062 a23d 609a 8f3d e44e 0dbe
000003e0: a0c0 c2bd dd16 ef3d d2e3 71bd e51b adbd
000003f0: 9c49 49bd aaf1 cdbd da1a a0bd 2801 febd
0.059258804 -0.11013661 -0.097890586 0.03530344 -0.1153823 -0.049929693 0.009094254 -0.041422557
-0.1091516 0.08789524 -0.10097125 -0.07959833 0.12315938 0.024755113 -0.012980248 -0.104044236
0.04840523 0.023282742 0.051382452 0.0030530542 -0.029279029 -0.028587058 -0.0731246 -0.00911881
0.042700056 -0.045376107 -0.124845624 -0.04357462 0.037581444 -0.106199965 0.087427005 0.07115731
-0.013428733 0.021240469 -0.118709534 0.12368882 -0.11531435 -0.02256972 -0.016702041 -0.018321272
0.09926802 0.06999025 -0.078816794 -0.02442186 -0.120707594 0.038453817 -0.08565448 -0.09793165
-0.033342555 0.035564303 0.083596535 -0.04907328 0.07859223 -0.078231096 0.030642241 0.05051805
-0.025250077 0.11550997 0.031898625 -0.07233471 0.08258675 -0.075621635 -0.017424226 -0.10284655
0.07412426 0.050443277 0.019103259 -0.06594799 -0.08282557 -0.0039896667 0.0071127573 0.09252913
-0.09028937 -0.032335166 0.06691316 -0.015067611 -0.055864245 -0.05149758 0.079791464 -0.06415755
-0.07338676 0.034965765 0.062647715 -0.08672187 0.057981085 -0.108172 -0.0013655573 -0.03601199
-0.060919605 0.041956276 0.012530234 -0.015012534 0.047531612 -0.10986346 -0.07199218 0.08449061
-0.0327041 -0.030535175 0.06341709 -0.014917985 0.04163748 0.08536742 -0.03956461 0.039645232
-0.12772906 -0.12229568 -0.1507691 -0.07011658 0.10017957 0.08288549 0.020202287 -0.020255113
0.117323026 0.004793911 -0.08358385 0.048848063 -0.08307104 -0.12106996 0.02082385 -0.012833236
-0.06103149 -0.05620224 -0.08853947 0.0029790034 0.00092217326 0.11253348 0.019999996 0.074952886
-0.07073629 -0.122954726 -0.040610984 -0.0067505287 -0.111996494 0.12178706 0.08150596 0.027348302
-0.01311881 -0.033507872 0.07772694 -0.07242202 -0.09623638 -0.0874695 -0.04125935 0.020796975
-0.09569518 -0.04510614 -0.08678047 0.02081509 0.08834834 0.10963839 0.117778555 0.034240082
0.048741467 0.1024735 -0.12769806 0.0032743367 -0.10769246 0.11650279 0.052348357 -0.10301557
-0.043718025 0.06919249 -0.12497501 0.009504989 -0.07478509 -0.115753464 0.10446204 0.08867854
-0.12174047 0.03634974 0.011542756 -0.013570945 0.034596104 0.12330576 0.09480874 0.0035168265
0.11334512 0.02730353 0.06359884 -0.061670408 0.04661962 0.068872154 0.029873587 -0.031391416
0.0043726265 -0.08600795 -0.022358336 0.008241868 0.05566244 -0.09074089 0.00814876 -0.0729952
0.00046294928 0.029664353 -0.05334522 -0.06810919 0.09086569 0.085414365 -0.1332982 -0.128893
0.12882182 0.087448046 0.08554557 0.10806493 -0.057690952 0.06412698 -0.029825218 0.13106425
-0.025440536 -0.08021761 0.06661099 0.017729193 0.08247624 -0.08503756 0.07728247 -0.010722222
0.002101133 -0.041280374 0.096806146 -0.12419607 0.0004403125 0.01902099 -0.05293489 0.0020396411
-0.1061458 -0.016687527 0.07826148 0.053030297 -0.057091802 0.007667547 0.030122697 0.089833125
0.047203366 -0.037116263 0.032574743 -0.112996735 0.09535225 -0.009508658 0.06386041 -0.046629656
0.009989828 -0.05939009 -0.11373612 0.02996017 -0.11937494 0.07928884 0.070118666 -0.13799626
-0.095093966 0.11674283 -0.059055157 -0.08452586 -0.049142465 -0.100558594 -0.078176215 -0.12402564

network.4.bias f4 [32]
00000000: a85c a2bd 4e4c 29b8 a75d 16be 20f0 03be
00000010: 04bb d2bd 66f6 b6b3 3423 bebd fd81 37ba
00000020: 79b8 b4bb 0cf6 8cbd 972b 9cba eac4 63bc
00000030: 9047 1bbc 4f69 3abe fd19 dbbb 5ab5 e2bd
00000040: 331b 4ab7 c018 75b4 dab5 07be 0327 c9bd
00000050: d861 31bd 986c 86bd 51b7 5ebd 545a 4bbd
00000060: 145d abb5 a294 53bc b867 fdbd 644c 63bc
00000070: ebb2 a2bd 40dd 3dbc f84c 89b6 d228 7ebd
-0.07927829 -4.0363804e-05 -0.14684163 -0.12884569 -0.10289577 -8.519855e-08 -0.09284058 -0.0007000266
-0.005515155 -0.06882867 -0.0011914846 -0.013901928 -0.009477511 -0.18204235 -0.0066864477 -0.11069746
-1.2046471e-05 -2.2826407e-07 -0.13252965 -0.09821894 -0.0433062 -0.06563681 -0.054374043 -0.04964669
-1.2767582e-06 -0.012913855 -0.123732984 -0.013873193 -0.07944282 -0.011588395 -4.0918785e-06 -0.062050648

network.6.weight f4 [1, 32]
00000000: 110e da3d e277 9d37 1dcc a0bd f628 e5bd
00000010: 49c0 10bc 48f4 aa33 81be 9abd 2452 343a
00000020: acbb e43b 6eb1 153e a0c4 a8bc 15d2 ab3d
00000030: 8836 183b 764c 91bd 552a 133d de7f b5bd
00000040: b436 8db7 4b21 6334 8b99 01be 3d5f 263e
00000050: 7f7f 973d fd14 bcbd d444 6abd 0579 c3bc
00000060: ca4e 9c35 e6b8 ba3d 5df8 953d 6868 373d
00000070: 2bf2 913d d420 343d 6b09 7936 a9f2 193e
0.10647214 1.8771683e-05 -0.078514315 -0.11189453 -0.008834907 7.9606764e-08 -0.07555867 0.0006878695
0.00698038 0.14618465 -0.02060157 0.08389679 0.0023225863 -0.07094662 0.035929043 -0.08862279
-1.6833983e-05 2.1153134e-07 -0.12656228 0.16247268 0.07397365 -0.09183691 -0.057194546 -0.023861418
1.1645836e-06 0.09117298 0.07322762 0.044777304 0.07126268 0.04397662 3.7109373e-06 0.15033974
