models/sudoku_ltn_integrated_9x9.pth (torch, 348436 bytes, 36 tensors)

network.0.weight f4 [128, 84]
-0.1313401 -0.05231442 -0.10081707 -0.113836214 -0.05153622 -0.041153893 -0.13724728 -0.028441308
-0.12043714 -0.0974139 -0.10660786 -0.08078293 -0.025962144 0.0067550745 -0.033635102 -0.07972335
-0.08700071 -0.06637054 -0.05438895 -0.09716948 -0.13245085 -0.05682105 0.009041131 0.07843066
-0.00504365 -0.1451257 -0.016002305 0.045577727 -0.05962086 -0.06875514 -0.05613348 -0.07342446
-0.024238437 -0.06984166 0.0025146576 -0.122423455 0.04305336 0.05713094 -0.1773751 -0.12636688
0.0048353714 -0.031900834 0.013152266 -0.0065817297 -0.00262194 -0.14839508 -0.08048623 -0.07781111
0.061422966 -0.0020834622 -0.13881175 0.002538336 -0.043576237 -0.020442907 -0.14192976 -0.05162232
0.06254364 -0.024357662 -0.016865833 -0.022572814 -0.122220054 0.0029443551 -0.053847473 -0.11820337
-0.019675085 -0.071467794 -0.039402466 -0.04135392 0.065019585 -0.01766958 0.04331713 0.058901906
-0.18192966 -0.119854994 -0.13484186 -0.019513687 -0.05421826 -0.025741827 -0.091120414 -0.12782578
-0.06907676 -0.110693686 -0.06521021 -0.113322034 0.01468642 -0.025590932 -0.14029516 -0.14029905
-0.008260418 0.020506637 -0.12695742 0.025401149 -0.06727081 -0.11609882 -0.03498352 -0.11235648
0.059755318 -0.13460696 -0.16061154 -0.043528426 -0.071211256 0.0084896665 -0.14821516 -0.025000812
-0.17908302 0.016199697 -0.06310748 -0.11852287 -0.0764915 -0.024872286 -0.1251248 -0.057836395
0.046512347 -0.13909651 0.008532821 -0.06190927 -0.08330154 -0.023698542 0.04463011 -0.014001913
-0.008053177 -0.14040102 0.051862802 0.009337213 -0.156642 -0.11374319 0.0053112986 -0.07796957
-0.15905125 -0.021481788 -0.018825922 0.06238783 -0.016282806 -0.1413445 -0.008927877 0.06669015
-0.027187796 -0.14685534 -0.10195572 0.027958639 -0.0689238 -0.047500014 -0.1482289 -0.028401595
-0.028985688 -0.004618131 -0.060080096 -0.037203815 -0.04805648 -0.021217482 -0.1341087 0.06365952
0.038430095 -0.008089871 -0.07303654 0.041918576 0.0045316494 -0.052129954 -0.029640105 -0.047367707
0.022215748 0.027260281 -0.034891613 -0.1675494 -0.03751897 0.0015428014 0.005057071 -0.011043261
-0.034123875 -0.13867827 -0.024251953 0.044367924 -0.054611526 -0.07302909 -0.068895705 -0.0118958065
-0.122969 -0.12588127 0.05102973 -0.09881458 -0.012241807 0.03264099 -0.025161775 -0.05321995
-0.046373338 -0.041128393 -0.060477655 -0.09146489 -0.12235422 -0.035820447 0.002605464 0.034588233
0.067532234 -0.09932089 0.06568154 0.045402847 -0.06303092 -0.07176933 0.041738283 -0.05063904
0.0031124477 0.0009194031 -0.053720284 -0.07615463 -0.13061284 -0.0007264673 -0.009132705 0.047616847
-0.015861632 -0.10326098 -0.0043794364 -0.01404887 -0.13343683 -0.104372755 -0.07309987 -0.09382175
-0.13323581 -0.10098117 0.013588619 -0.07231334 -0.08236869 -0.054662097 -0.08781171 0.05649153
0.010394436 0.049577475 -0.06671411 0.028127138 -0.035185426 -0.051527474 -0.06970332 -0.14114976
0.010912533 -0.13910668 -0.08361218 0.033799164 -0.021253094 0.05728339 -0.064246394 0.07311792
0.004224399 0.006777947 -0.09080992 0.04312703 -0.13035148 -0.10245203 -0.12515156 -0.08325724
-0.0020826748 -0.027145023 0.09007971 0.046614505 0.005904492 -0.0830076 -0.009712406 -0.15588678
00000000: 057e 06be a547 56bd 2e79 cebd f622 e9bd
00000010: a517 53bd fc90 28bd 8d8a 0cbe bffd e8bc
00000020: bfa7 f6bd f080 c7bd 3955 dabd 8571 a5bd
00000030: 90ae d4bc ac59 dd3b f6c4 09bd ff45 a3bd
00000040: 6e2d b2bd 47ed 87bd f3c6 5ebd cb00 c7bd
00000050: 32a1 07be 30bd 68bd 4021 143c 41a0 a03d
00000060: 3445 a5bb d59b 14be 4417 83bc b6af 3a3d
00000070: 0135 74bd 7fcf 8cbd 38ec 65bd 905f 96bd
00000080: b08f c6bc 2509 8fbd f4cc 243b 26b9 fabd
00000090: b858 303d 2202 6a3d d1a1 35be 5266 01be
000000a0: 0972 9e3b 73aa 02bd 9a7c 573c 8dab d7bb
000000b0: dbd4 2bbb e1f4 17be f7d5 a4bd 6e5b 9fbd
000000c0: a696 7b3d b28a 08bb ab24 0ebe 365a 263b
000000d0: ff7c 32bd e277 a7bc 0956 11be ed71 53bd
000000e0: e116 803d b889 c7bc 372a 8abc 9fea b8bc
000000f0: 824e fabd 15f6 403b 2b8f 5cbd 9c14 f2bd
00000100: a52d a1bc b55d 92bd 7b64 21bd ba62 29bd
00000110: fd28 853d ccbf 90bc 4e6d 313d 2043 713d
00000120: c54b 3abe 8976 f5bd fc13 0abe 2bdb 9fbc
00000130: f713 5ebd 86e0 d2bc 579d babd c3e4 02be
00000140: 1e78 8dbd 5fb3 e2bd ee8c 85bd 6215 e8bd
00000150: 4f9f 703c 13a4 d1bc 89a9 0fbe 8eaa 0fbe
00000160: b456 07bc 89fd a73c 2001 02be 1216 d03c
00000170: 47c5 89bd 38c5 edbd e14a 0fbd 271b e6bd
00000180: fec1 743d 68d6 09be 5a77 24be dd4a 32bd
00000190: 35d7 91bd 3e18 0b3c b7c5 17be 81ce ccbc
000001a0: 8a61 37be 3ab5 843c 7f3e 81bd 1ebc f2bd
000001b0: 93a7 9cbd f7c0 cbbc b720 00be dbe5 6cbd
000001c0: bb83 3e3d 516f 0ebe 3fcd 0b3c 9394 7dbd
000001d0: ff99 aabd 7223 c2bc 10ce 363d 4868 65bc
000001e0: 79f1 03bc 49c5 0fbe 176e 543d 1cfb 183c
000001f0: c366 20be 31f2 e8bd 670a ae3b 83ae 9fbd
00000200: 55de 22be 93fa afbc d238 9abc 628a 7f3d
00000210: 8563 85bc 9dbc 10be 3b46 12bc d894 883d
00000220: f1b8 debc 3f61 16be 29ce d0bd 8409 e53c
00000230: ec27 8dbd 608f 42bd 51c9 17be 76aa e8bc
00000240: 6573 edbc b153 97bb 8c16 76bd 0763 18bd
00000250: dfd6 44bd 49d0 adbc cb53 09be ec5f 823d
00000260: e068 1d3d 618b 04bc 2e94 95bd d0b2 2b3d
00000270: 3b7e 943b 3886 55bd cecf f2bc a404 42bd
00000280: cdfd b53c f450 df3c 82ea 0ebd 1292 2bbe
00000290: 7ead 19bd d337 ca3a c9b5 a53b cbee 34bc
000002a0: 7ac5 0bbd ad01 0ebe 08ac c6bc 24bb 353d
000002b0: 56b0 5fbd 4790 95bd 3119 8dbd a1e6 42bc
000002c0: 2cd7 fbbd 05e7 00be 8d04 513d 4c5f cabd
000002d0: dc91 48bc 8fb2 053d 1120 cebc 2afd 59bd
000002e0: f8f1 3dbd 3f76 28bd 6bb7 77bd f251 bbbd
000002f0: d994 fabd 76b8 12bd 6fc0 2a3b 64ac 0d3d
00000300: 574e 8a3d c068 cbbd 0b84 863d 56f8 393d
00000310: 5b16 81bd ccfb 92bd c3f5 2a3d e26a 4fbd
00000320: 35fa 4b3b 1904 713a cd09 5cbd f5f6 9bbd
00000330: 5fbf 05be 6570 3eba 57a1 15bc e209 433d
00000340: 41f0 81bc 7e7a d3bd 6081 8fbb 3b2d 66bc
00000350: aaa3 08be 62c1 d5bd 62b5 95bd 9e25 c0bd
00000360: f86e 08be 37cf cebd cda2 5e3c 0419 94bd
00000370: eab0 a8bd 5de5 5fbd a0d6 b3bd aa63 673d
00000380: 6d4d 2a3c c011 4b3d 68a1 88bd e26a e63c
00000390: 981e 10bd 790e 53bd 9dc0 8ebd 9089 10be
000003a0: 7bca 323c fb71 0ebe dd3c abbd fe70 0a3d
000003b0: f81a aebc fda1 6a3d 9d93 83bd d9be 953d
000003c0: d46c 8a3b 8a19 de3b 8dfa b9bd f8a5 303d
000003d0: dc7a 05be 5fd2 d1bd bb27 00be c682 aabd
000003e0: 7c7d 08bb 3d5f debc b67b b83d daee 3e3d
000003f0: 787a c13b e3ff a9bd c920 1fbc c9a0 1fbe

network.0.bias f4 [128]
-0.022597069 -0.07816891 -0.023138927 -0.048747987 0.43058816 -0.12418954 0.13096948 -0.11823522
-0.13882612 0.46762618 0.054977376 0.20639358 -0.055563163 0.063303836 -0.10773739 -0.048052184
-0.16760845 -0.069092244 -0.07641774 -0.15990312 -0.32242545 -0.019412102 0.48623332 -0.11934931
-0.054205086 -0.041922748 -0.18255942 -0.13491969 -0.1765855 -0.24774379 -0.062788144 0.30963022
-0.10404347 -0.10270266 -0.19178738 -0.070568345 0.309716 0.004639187 0.4794026 -0.09128894
-0.09431475 -0.14311185 0.3115733 -0.12811248 -0.16543084 -0.04076961 0.000788109 -0.008259574
-0.045068316 0.047025822 0.24673115 -0.10054741 -0.15292779 -0.052939784 -0.24393283 -0.1621654
-0.21716635 -0.42606446 -0.12024581 -0.16584855 -0.0061978004 0.4498999 0.003606365 0.00023525584
-0.0975779 -0.07559473 -0.11792819 0.29419318 0.57790726 -0.13952045 -0.05044949 0.09192831
-0.0631716 -0.1552523 -0.070477724 -0.13366021 -0.20329309 -0.14582227 -0.036990017 0.21952163
0.20584528 0.26399875 -0.13390292 -0.14253333 -0.046911933 -0.18735759 -0.109253734 -0.14713606
0.33838242 0.15853778 -0.12559374 0.019281171 -0.16551326 -0.11689213 -0.16876222 0.0036864511
0.209257 0.05975616 0.30040607 -0.14470854 -0.09039682 -0.10069396 -0.09303798 -0.03316686
-0.1070865 -0.050508033 -0.07423299 -0.1190522 -0.1274334 -0.18729477 -0.29277638 -0.05356181
-0.081324294 -0.13389488 -0.06751525 -0.0329577 0.32058126 -0.0014397075 -0.04182825 -0.07038674
0.2989194 -0.13826068 0.20988064 -0.10297069 -0.044649255 -0.16831543 -0.16196188 -0.17619376
00000000: 7d1d b9bc 0617 a0bd d98d bdbc f8ab 47bd
00000010: 0d76 dc3e 1657 febd dd1c 063e 4f25 f2bd
00000020: 6f28 0ebe b36c ef3e f52f 613d d758 533e
00000030: 3396 63bd 71a5 813d 6ca5 dcbd 5ed2 44bd
00000040: 8da1 2bbe 3c80 8dbd e780 9cbd a5bd 23be
00000050: f314 a5be 2106 9fbc 93f3 f83e 696d f4bd
00000060: 2706 5ebd 30b7 2bbd dbf0 3abe 6328 0abe
00000070: d4d2 34be 8cb0 7dbe 1297 80bd da87 9e3e
00000080: be14 d5bd c655 d2bd e963 44be 2386 90bd
00000090: 1893 9e3e 5204 983b 4274 f53e b2f5 babd
000000a0: 1728 c1bd ea8b 12be 8986 9f3e eb2f 03be
000000b0: b466 29be 09fe 26bd 1a99 4e3a 2a53 07bc
000000c0: 8e99 38bd 269e 403d 17a7 7c3e cdeb cdbd
000000d0: 1a99 1cbe 63d7 58bd 87c9 79be b00e 26be
000000e0: db60 5ebe 1f25 dabe 6f43 f6bd 34d4 29be
000000f0: eb16 cbbb 4859 e63e c458 6c3b 02af 7639
00000100: ecd6 c7bd 69d1 9abd 5684 f1bd 7da0 963e
00000110: bbf1 133f 73de 0ebe 20a4 4ebd e944 bc3d
00000120: 1d60 81bd 75fa 1ebe a056 90bd 39de 08be
00000130: 102c 50be 6f52 15be d882 17bd 47ca 603e
00000140: 1bc9 523e d82a 873e d91d 09be 42f4 11be
00000150: ba26 40bd abda 3fbe 6cc0 dfbd d6aa 16be
00000160: 7640 ad3e ba57 223e a59b 00be 8cf3 9d3c
00000170: 4f7c 29be 2465 efbd 01d0 2cbe 6398 713b
00000180: 7847 563e e0c2 743d d3ce 993e 7a2e 14be
00000190: f821 b9bd a338 cebd b28a bebd f9d9 07bd
000001a0: 2b50 dbbd 83e1 4ebd 7707 98bd a4d1 f3bd
000001b0: e77d 02be 33ca 3fbe c9e6 95be a163 5bbd
000001c0: 5a8d a6bd bd1b 09be 6f45 8abd a7fe 06bd
000001d0: 3a23 a43e 91b4 bcba 1954 2bbd ec26 90bd
000001e0: f70b 993e 3594 0dbe f3ea 563e 4ce2 d2bd
000001f0: 23e2 36bd e15a 2cbe 56d9 25be 236c 34be

network.2.weight f4 [64, 128]
0.01906266 0.0628143 -0.02900701 0.0071127336 -0.11908596 0.08417933 -0.04511857 -0.06291157
0.08214638 -0.064863466 -0.07169962 -0.016105708 -0.055704813 -0.0029944915 -0.06990976 0.03902188
0.017690223 -0.07889429 0.07987297 -0.045693748 -0.06683722 -0.07989909 -0.0063807396 -0.07870114
-0.03267894 -0.04650084 -0.08739604 0.035980385 0.03666374 -0.028537389 -0.07841721 0.017902158
-0.032976452 0.007063643 0.07619541 -0.03402024 -0.04934927 0.013979533 0.012162338 0.022913586
-0.07822091 -0.075648315 -0.03686522 0.038225852 0.07044529 -0.07344268 -0.082353994 0.058084648
-0.007157146 -0.08591059 -0.011713131 0.028889252 -0.07880467 -0.054523658 -0.10629075 -0.08134877
-0.09112978 -0.054299116 -0.06447905 -0.076832674 0.014262976 -0.034535486 -0.027114807 -0.010769109
-0.010496135 -0.08689176 0.0325775 -0.028446825 -0.00065856054 0.008947038 -0.068363965 0.008882617
0.04431462 -0.020103952 -0.00081147434 -0.009780755 0.07387492 0.03707357 -0.06363335 0.012410182
-0.05376635 0.034777544 -0.05928874 0.056304626 -0.05473841 0.014386721 0.071391605 -0.057479497
-0.0014486925 -0.1046741 0.077050604 -0.026807703 0.012054684 0.049087442 -0.03796685 -0.02195539
-0.08101806 -0.06269118 -0.11803171 -0.075284734 0.05311232 0.079555124 0.008213272 -0.03069107
-0.008832167 0.021192161 0.031220932 -0.054740906 0.043479014 0.00039417838 0.08182312 -0.056655575
-0.039938394 0.040973373 -0.058562014 -0.07084188 0.0060787206 -0.07048312 0.05346511 0.07504031
0.002562876 0.037043855 -0.04318292 0.061414994 -0.07221953 0.01088808 -0.068139516 0.07445781
-0.04678573 0.06306655 0.0050834673 0.037988625 0.019418843 0.039658844 0.017425552 -0.014112471
-0.054931995 0.07532808 -0.021907255 -0.08197549 0.028389854 0.0073824255 0.036408126 -0.08215073
0.041085176 -0.018702801 -0.00800652 0.028918967 -0.070357434 -0.08453697 -0.07000007 0.07009667
0.014685886 0.024297763 -0.040161237 0.05624496 -0.005573304 -0.033267345 0.06600085 -0.046476148
-0.04635675 0.07679976 0.06620721 -0.044589743 -0.07448362 -0.089685425 0.014627441 0.06303444
0.029768396 -0.050571475 -0.0036740953 -0.02232546 -0.047667865 -0.03778937 -0.059773292 0.049124297
-0.06110748 0.02016268 -0.05454554 0.026744366 0.028492382 -0.0593137 -0.08900131 0.07341745
0.0016260502 -0.055543263 0.044289622 0.026516309 -0.070770614 -0.07440963 -0.04537948 0.011232109
0.026209354 -0.066453524 -0.07809433 -0.073984616 -0.012345128 -0.0035312665 0.053540014 0.017258765
0.02938727 0.010050418 0.029352287 -0.0077925413 0.073773324 -0.10864448 0.069587 -0.046688538
-0.045004517 -0.055331267 -0.083769485 -0.04016685 0.059054002 0.069421045 0.052387543 0.023197249
-0.04782642 -0.089530125 -0.06060348 0.07543331 0.0024271212 0.029340742 -0.023252552 -0.03394697
-0.09193138 0.039311513 -0.08952422 0.07432355 0.07665382 0.010193943 -0.06643869 -0.0639637
-0.04161705 0.048244134 -0.035719752 -0.07583663 -0.023717914 0.058816534 -0.0006146199 -0.101577595
0.04126573 0.023483947 -0.06437012 -0.012167069 -0.0132453265 0.00018135802 -0.00108231 -0.040784456
-0.017280385 -0.025118973 0.037288353 0.08022188 -0.06778802 -0.010076374 -0.011104483 0.06580882
00000000: 4c29 9c3c c9a4 803d 1ca0 edbc ef11 e93b
00000010: 57e3 f3bd 3666 ac3d 40ce 38bd c8d7 80bd
00000020: 5c3c a83d 23d7 84bd 40d7 92bd 1ef0 83bc
00000030: bb2a 64bd 3b3f 44bb d92c 8fbd 68d5 1f3d
00000040: 16eb 903c 5493 a1bd 7194 a33d 5e29 3bbd
00000050: f4e1 88bd 22a2 a3bd 8615 d1bb 102e a1bd
00000060: 5ada 05bd aa77 3ebd b2fc b2bd 2b60 133d
00000070: b82c 163d 3ec7 e9bc 3499 a0bd 8ca7 923c
00000080: 5112 07bd 2276 e73b 570c 9c3d cf58 0bbd
00000090: 7622 4abd 690a 653c 8b44 473c 46b5 bb3c
000000a0: 4932 a0bd 81ed 9abd fcff 16bd b692 1c3d
000000b0: 9f45 903d 1e69 96bd 36a9 a8bd 2bea 6d3d
000000c0: 7e86 eabb e4f1 afbd 6fe8 3fbc 27a9 ec3c
000000d0: 5864 a1bd 3354 5fbd f7ae d9bd 2f9a a6bd
000000e0: 40a2 babd c068 5ebd 980d 84bd 735a 9dbd
000000f0: 42af 693c 1575 0dbd df1f debc eb70 30bc
00000100: fbf7 2bbc 4ff4 b1bd fc6f 053d 5109 e9bc
00000110: 40a3 2cba 9996 123c 6802 8cbd 6588 113c
00000120: 3f83 353d 0bb1 a4bc 1fb9 54ba 763f 20bc
00000130: bc4b 973d 75da 173d 3452 82bd 1354 4b3c
00000140: 1b3a 5cbd e672 0e3d c0d8 72bd ae9f 663d
00000150: 6235 60bd 48b6 6b3c c335 923d 9f6f 6bbd
00000160: 0ee2 bdba 605f d6bd b5cc 9d3d d49b dbbc
00000170: 0281 453c ea0f 493d 2183 1bbd cadb b3bc
00000180: ccec a5bd 3c64 80bd 9cba f1bd e22e 9abd
00000190: 4e8c 593d cced a23d f690 063c d76b fbbc
000001a0: cbb4 10bc 2f9b ad3c 0ac3 ff3c 0038 60bd
000001b0: 0d17 323d baa9 ce39 e192 a73d ad0f 68bd
000001c0: 7196 23bd b2d3 273d b9de 6fbd 8c15 91bd
000001d0: 0130 c73b 7459 90bd 3bfe 5a3d bcae 993d
000001e0: edf5 273b 4cbb 173d 93e0 30bd 4a8e 7b3d
000001f0: d5e7 93bd eb63 323c bb8c 8bbd 567d 983d
00000200: 65a2 3fbd 0929 813d 3793 a63b f699 1b3d
00000210: 4414 9f3c 5071 223d 08c0 8e3c fe37 67bc
00000220: 5f00 61bd 9c45 9a3d d876 b3bc c4e2 a7bd
00000230: d791 e83c 46e8 f13b b020 153d a43e a8bd
00000240: ee48 283d 9e36 99bc c72d 03bc 78e7 ec3c
00000250: 8f17 90bd b821 adbd 325c 8fbd d88e 8f3d
00000260: 129d 703c 1a0c c73c 1c80 24bd 1d61 663d
00000270: 43a0 b6bb 5743 08bd 742b 873d c65d 3ebd
00000280: 93e0 3dbd 3149 9d3d a597 873d bca3 36bd
00000290: de8a 98bd feac b7bd efa7 6f3c 3318 813d
000002a0: dadc f33c 0924 4fbd 17c9 70bb e2e3 b6bc
000002b0: 613f 43bd 07c9 1abd d7d4 74bd 8f36 493d
000002c0: d64b 7abd 342c a53c 256b 5fbd 0017 db3c
000002d0: db68 e93c ecf2 72bd 5246 b6bd e35b 963d
000002e0: 3121 d53a 5581 63bd 0969 353d bb38 d93c
000002f0: 2ff0 90bd 1364 98bd d5df 39bd e106 383c
00000300: 00b5 d63c c918 88bd ecef 9fbd 3f85 97bd
00000310: 3843 4abc d26c 67bb c64c 5b3d 4162 8d3c
00000320: 92bd f03c 82aa 243c 3574 f03c 9358 ffbb
00000330: 7816 973d ff80 debd a183 8e3d 7b3c 3fbd
00000340: a856 38bd 0aa3 62bd 568f abbd ff85 24bd
00000350: 9ce2 713d 9f2c 8e3d 5294 563d 2808 be3c
00000360: a3e5 43bd 925b b7bd 5b3b 78bd c77c 9a3d
00000370: 5610 1f3b ff5b f03c 237c bebc fa0b 0bbd
00000380: 8546 bcbd 1c05 213d 7958 b7bd f236 983d
00000390: aefc 9c3d 7f04 273c 0211 88bd 66ff 82bd
000003a0: a476 2abd a49b 453d e04e 12bd 3c50 9bbd
000003b0: 124c c2bc 9be9 703d 711e 21ba ea07 d0bd
000003c0: 4106 293d 6861 c03c 7bd4 83bd 6358 47bc
000003d0: ed02 59bc ec2a 3e39 4cdc 8dba 9a0d 27bd
000003e0: 988f 8dbc 4ec6 cdbc acbb 183d 5e4b a43d
000003f0: 72d4 8abd 6017 25bc 94ef 35bc c6c6 863d

network.2.bias f4 [64]
-0.100775346 -0.05791861 -0.036939476 -0.041219827 0.22764573 -0.09928517 -0.019299885 -0.01704387
-0.113131136 -0.06477858 0.27697536 -0.1342252 -0.10236134 0.19167596 -0.08356977 -0.06183007
-0.10129492 -0.12823214 0.19675006 -0.0068373955 -0.12590161 -0.43411672 -0.1524716 0.05051708
0.252494 0.0045793382 0.028485017 -0.062693246 -0.10938068 -0.03474846 -0.041074146 -0.068294756
-0.110331774 -0.15485024 0.2337455 0.17222492 -0.09328516 -0.03525018 -0.118191294 0.09609266
-0.026470868 -0.38049132 0.31442714 -0.07606691 0.23951553 -0.11247213 0.1417974 -0.1141349
-0.019731026 -0.10274536 -0.03206028 -0.11431144 -0.038872417 -0.086538814 -0.10080372 -0.07655651
-0.097563975 -0.07635443 -0.07713937 0.008913535 0.2727604 0.32809356 0.37429103 0.00825299
00000000: 4e63 cebd 103c 6dbd d94d 17bd 1fd6 28bd
00000010: f61b 693e 0656 cbbd cb1a 9ebc 969f 8bbc
00000020: 4cb1 e7bd a2aa 84bd b7cf 8d3e 5572 09be
00000030: d2a2 d1bd b446 443e a126 abbd 8741 7dbd
00000040: b673 cfbd 494f 03be d978 493e 3b0c e0bb
00000050: 5aec 00be 8c44 debe 8421 1cbe ffea 4e3d
00000060: e546 813e 460e 963b 6959 e93c 5165 80bd
00000070: fa02 e0bd 6754 0ebd 5d3d 28bd 1fde 8bbd
00000080: a0f5 e1bd 1091 1ebe fb5a 6f3e bb5b 303e
00000090: 4a0c bfbd 7e62 10bd 470e f2bd 3bcc c43d
000000a0: 6fd9 d8bc c2cf c2be 98fc a03e f8c8 9bbd
000000b0: 8f43 753e ca57 e6bd 5633 113e 8fbf e9bd
000000c0: f6a2 a1bc 296c d2bd a451 03bd 1e1c eabd
000000d0: af38 1fbd 433b b1bd 2e72 cebd a9c9 9cbd
000000e0: 9fcf c7bd b65f 9cbd 3ffb 9dbd 130a 123c
000000f0: 40a7 8b3e e1fb a73e 13a3 bf3e 8d37 073c

network.4.weight f4 [32, 64]
0.032227457 0.017086938 -0.09015916 0.061342996 0.006862546 -0.010780439 0.09958 0.090375856
0.0049850643 0.16113065 -0.3444062 0.08321689 -0.009673504 0.19176026 -0.031308398 -0.026288569
0.0451677 0.16374226 -0.14451851 0.064753756 -0.12105406 -0.3453233 -0.021018092 -0.11402444
-0.19925743 -0.010107845 -0.027929267 -0.00013554336 0.03722924 -0.041149583 0.06594974 -0.23101483
0.10958342 0.10066727 -0.07532216 -0.06158331 0.009153509 -0.10860566 -0.006369844 0.07390634
-0.107259616 -0.13174443 0.023086205 -0.058713667 0.050980438 0.12152924 -0.0018223663 0.082154125
-0.18352471 -0.064634345 0.04179021 -0.06748285 -0.18691385 -0.08611442 0.08826224 0.030865312
0.061559174 0.06631982 -0.001133576 0.11573981 -0.17218411 -0.052426424 0.015935857 -0.01372655
-0.08230296 -0.10312311 -0.038670443 0.0856555 -0.1201482 0.104619 0.045666683 -0.053751953
-0.097874045 0.014078497 0.10887669 -0.054579943 0.058209404 0.05833068 -0.009297009 0.063158676
0.09272784 0.025532098 -0.037538175 -0.015380463 0.09215494 -0.15334862 -0.0355768 0.03626246
-0.03305136 0.06529327 -0.05530574 0.0075358083 0.04159054 -0.0034585379 0.005951546 -0.12521856
0.04274738 0.029394923 -0.018109296 -0.039696626 0.017937636 -0.1438593 -0.049147367 -0.0038001325
0.01755971 0.0031508207 -0.1375176 -0.017948193 0.2010826 -0.008406535 0.07448268 0.06031866
-0.014064874 0.05935733 -0.13826537 -0.13070619 0.04942541 0.121349394 -0.1369781 -0.095625356
-0.06544527 0.025333645 -0.012539759 0.028485082 -0.19426878 -0.14661625 -0.046673194 0.032303806
-0.11733468 0.107909165 0.068032116 -0.03487362 -0.3682985 0.046627115 -0.09026551 -0.11288896
0.08611432 -0.110317245 -0.5616902 -0.058867168 0.07297333 0.17945561 -0.08784535 -0.007328077
-0.013573796 -0.1329306 0.012682498 -0.05220435 0.10589253 -0.21729593 -0.13763079 -0.16678071
-0.15067151 0.033957284 -0.11658291 -0.044824205 0.08009424 -0.13051951 -0.010634369 -0.19442531
-0.04972491 -0.055231843 -0.15157089 -0.24379751 0.009368206 0.028581275 0.0038942604 0.20108946
-0.039546758 -0.12822436 -0.16096197 -0.21970162 0.15268554 0.09638709 0.2155856 -0.08319029
-0.09665561 -0.0027726428 0.032589447 0.002878939 0.005172737 0.017561942 -0.08241195 -0.050196383
0.03412041 -0.10440495 -0.022416964 -0.084025696 -0.12104386 -0.08798827 -0.27676126 0.062318124
0.10714838 -0.08362064 -0.007934295 -0.009368178 -0.061438926 0.07162926 -0.011842989 0.012579258
0.10547917 0.09606447 -0.017855579 0.062005468 0.024665847 0.5969278 -0.09085493 0.015138937
-0.07304405 -0.12726517 0.1899706 -0.13218825 0.090420716 1.3588222 -0.017309958 0.5230267
0.095711134 0.097105786 -0.4123029 -0.03479337 0.07901297 -0.10243837 0.06705727 0.2984508
-0.094086185 -0.087763734 -0.083264604 -0.09207738 0.090240866 -0.029268892 0.07726589 0.5345451
0.01616628 1.2162057 -0.0032677122 0.12737733 -0.16887185 -0.044574715 -0.4124228 -0.051407684
-0.39054328 -0.0020186985 -0.07509 0.093296595 0.31671354 -0.08299656 0.07861724 -0.060715046
0.015052959 0.14047989 0.056319073 0.032620978 -0.019111078 0.14980571 0.06505325 -0.040901598
00000000: f000 043d e8f9 8b3c 5ea5 b8bd cb42 7b3d
00000010: 35df e03b 70a0 30bc 99f0 cb3d fa16 b93d
00000020: c059 a33b 6fff 243e 0256 b0be 9e6d aa3d
00000030: 9e7d 1ebc cd5c 443e 3c3d 00bd 205b d7bc
00000040: c401 393d 0dac 273e a9fc 13be 9e9d 843d
00000050: 31eb f7bd 37ce b0be 222e acbc a585 e9bd
00000060: 240a 4cbe 609b 25bc ebcb e4bc a520 0eb9
00000070: b07d 183d 778c 28bd a810 873d 278f 6cbe
00000080: 466d e03d a42a ce3d 8142 9abd c83e 7cbd
00000090: 99f8 153c a56c debd 20ba d0bb 355c 973d
000000a0: eeaa dbbd 03e8 06be 481f bd3c be7d 70bd
000000b0: ddd0 503d 52e4 f83d 77dc eeba 6c40 a83d
000000c0: e7ed 3bbe 035f 84bd 362c 2b3d 7334 8abd
000000d0: 5866 3fbe c25c b0bd d5c2 b43d 40d9 fc3c
000000e0: 7925 7c3d b0d2 873d 8094 94ba fe08 ed3d
000000f0: 0851 30be 17bd 56bd ea8b 823c 53e5 60bc
00000100: 748e a8bd 3632 d3bd e664 1ebd 276c af3d
00000110: 4210 f6bd 7c42 d63d fd0c 3b3d 022b 5cbd
00000120: 3072 c8bd 7fa9 663c befa de3d 388f 5fbd
00000130: fc6c 6e3d 27ec 6e3d 7b52 18bc 5659 813d
00000140: 18e8 bd3d b128 d13c a1c1 19bd 56fe 7bbc
00000150: bbbb bc3d 6c07 1dbe fbb8 11bd f287 143d
00000160: dd60 07bd 7ab8 853d 4688 62bd f1ee f63b
00000170: d85a 2a3d a3a8 62bb 3005 c33b 4b39 00be
00000180: e017 2f3d 9fcd f03c f259 94bc ee98 22bd
00000190: f3f1 923c da4f 13be c04e 49bd a50b 79bb
000001a0: 62d9 8f3c 007e 4e3b 6ad1 0cbe 1708 93bc
000001b0: 99e8 4d3e 90bb 09bc 608a 983d b310 773d
000001c0: 5b70 66bc ac20 733d 7095 0dbe d8d7 05be
000001d0: 4c72 4a3d 0886 f83d fd43 0cbe 3ad7 c3bd
000001e0: 2b08 86bd 8188 cf3c 9073 4dbc 8c59 e93c
000001f0: 65ee 46be 9222 16be 642c 3fbd ff50 043d
00000200: 2a4d f0bd 7bff dc3d 6c54 8b3d a4d7 0ebd
00000210: 9f91 bcbe 13fc 3e3d 20dd b8bd 5432 e7bd
00000220: b45c b03d 02ee e1bd eeca 0fbf b31e 71bd
00000230: 0b73 953d 36c3 373e 43e8 b3bd 5e20 f0bb
00000240: a064 5ebc f61e 08be 41ca 4f3c 3ad4 55bd
00000250: 2fde d83d d382 5ebe 16ef 0cbe 90c8 2abe
00000260: a249 1abe cb16 0b3d 05c3 eebd 9699 37bd
00000270: 7308 a43d e8a6 05be c73b 2ebc 6e17 47be
00000280: 59ac 4bbd c93a 62bd 6635 1bbe 0ea6 79be
00000290: 1b7d 193c 4723 ea3c d936 7f3b 65ea 4d3e
000002a0: c8fb 21bd 3f4d 03be 37d3 24be 76f9 60be
000002b0: 9959 1c3e 9866 c53d 79c2 5c3e ac5f aabd
000002c0: 60f3 c5bd 3ab5 35bb 837c 053d 95ac 3c3b
000002d0: 1080 a93b 10de 8f3c 99c7 a8bd b99a 4dbd
000002e0: d8c1 0b3d 43d2 d5bd c8a3 b7bc aa15 acbd
000002f0: d8e5 f7bd 3233 b4bd a7b3 8dbe 4a41 7f3d
00000300: 9c70 db3d 4c41 abbd d8fe 01bc fd7c 19bc
00000310: 62a7 7bbd 5db2 923d 1909 42bc 3b19 4e3c
00000320: 7705 d83d 73bd c43d dd45 92bc 72f9 7d3d
00000330: 0810 ca3c 43d0 183f 2612 babd 4e09 783c
00000340: 1e98 95bd cd51 02be a787 423e 5b5c 07be
00000350: 7f2e b93d e3ed ad3f 9dcd 8dbc 14e5 053f
00000360: 3304 c43d 66df c63d 5e19 d3be 7e83 0ebd
00000370: 8dd1 a13d 35cb d1bd 5255 893d 8bce 983e
00000380: 42b0 c0bd 79bd b3bd a286 aabd 1193 bcbd
00000390: 34d0 b83d 51c5 efbc 943d 9e3d f3d7 083f
000003a0: 256f 843c a1ac 9b3f 1d27 56bb 346f 023e
000003b0: beec 2cbe fa93 36bd 1529 d3be dd90 52bd
000003c0: 4af5 c7be 244c 04bb c9c8 99bd 4912 bf3d
000003d0: 4728 a23e 1afa a9bd 1302 a13d 57b0 78bd
000003e0: b0a0 763c f6d9 0f3e d4ae 663d 939d 053d
000003f0: d68e 9cbc ab66 193e a33a 853d 6f88 27bd

network.4.bias f4 [32]
-0.06530128 -0.1585852 0.106249996 0.49728382 -0.11340385 -0.1188864 -0.29695228 0.5074536
0.25202677 -0.13105288 0.30616722 -0.10718662 0.28166065 -0.3732039 -0.21017615 0.3436363
-0.12306233 0.39251235 0.4318338 0.14024878 0.4413787 0.3193741 -0.1560451 0.12373988
-0.08547709 0.34731835 -0.2160684 0.45975366 0.42707616 -0.11800596 -0.06539524 0.0957184
00000000: adbc 85bd 2964 22be 9999 d93d fc9b fe3e
00000010: 4740 e8bd b67a f3bd 210a 98be 7be8 013f
00000020: a709 813e ba32 06be f3c1 9c3e a984 dbbd
00000030: d335 903e 9514 bfbe 6b38 57be 19f1 af3e
00000040: 1a08 fcbd 61f7 c83e 5219 dd3e 609d 0f3e
00000050: 64fc e13e 0185 a33e 49ca 1fbe 566b fd3d
00000060: 9d0e afbd b6d3 b13e 0941 5dbe d564 eb3e
00000070: baa9 da3e 1cad f1bd f1ed 85bd 0208 c43d

network.6.weight f4 [1, 32]
0.21909125 0.0028660435 0.3563957 -0.38895604 -0.2686385 0.022198442 -0.39075214 -0.41953617
1.2829236 -0.016629297 1.3183575 -0.004770855 -0.25312302 1.2014754 -0.2257591 -0.3335954
-0.8474395 -0.34092918 -0.3583912 0.62700516 -0.3366381 -0.21615997 -0.56401587 0.8019119
0.019638916 1.3641424 0.11722212 -0.33293155 1.2795902 -0.03456263 -0.011327719 0.18290262
00000000: 7559 603e 3bd4 3b3b 7f79 b63e 3f25 c7be
00000010: fc8a 89be 82d9 b53c aa10 c8be 72cd d6be
00000020: d736 a43f 2a3a 88bc f0bf a83f d554 9cbb
00000030: 5799 81be f2c9 993f 652d 67be 04cd aabe
00000040: ccf1 58bf 458e aebe 0d7f b7be 6983 203f
00000050: d45b acbe 0a59 5dbe 5863 10bf 194a 4d3f
00000060: cbe1 a03c 389c ae3f 2712 f03d 0176 aabe
00000070: 9dc9 a33f 8b91 0dbd e697 39bc d34a 3b3e

network.0.weight f4 [64, 83]
-0.03779076 -0.026589613 -0.024416534 -0.040118393 0.04509354 -0.04566725 -0.12884803 0.00039243503
-0.051640887 0.011142003 -0.020677399 -0.10006139 -0.09197076 0.03050933 -0.13750234 -0.00030989957
-0.12252273 0.019106545 0.036154475 -0.05315371 -0.07571352 0.04156693 0.013164673 0.059094924
-0.11779285 -0.15064925 -0.10493501 -0.01550396 -0.1016694 -0.0398862 -0.15776165 -0.008157469
-0.10218407 -0.074369766 0.033694964 -0.13436785 0.028881097 0.008911531 -0.0007358928 -0.11923441
0.0029622158 -0.013573852 -0.054595236 -0.1845983 -0.10522586 -0.08419347 -0.03644691 -0.067016155
-0.09481372 -0.057026085 0.030583763 0.057925664 -0.14096825 -0.06881905 0.028650867 -0.04550446
0.0011714774 -0.09963635 -0.045255907 -0.057874683 -0.05425196 -0.058096867 -0.11953914 -0.0077159028
0.073558904 -0.16103125 0.034682155 -0.0052342513 -0.0021367574 -0.014557712 -0.029820643 0.02912264
-0.0460315 -0.11648011 -0.0694661 -0.15583493 -0.15807696 -0.072884284 -0.013309041 -0.007489884
0.059642494 -0.14731574 -0.084389895 0.22252436 0.86793256 -0.52325433 -0.24379821 -0.20753062
-0.3365569 -0.17554627 -0.27483505 -0.29103535 -0.2138648 -0.18367815 -0.18700801 -0.11926104
-0.053819526 0.13237812 -0.11285416 -0.20891339 0.11146333 0.03432707 -0.14917888 -0.042298015
-0.023388142 0.12519601 -0.034038223 0.0051975534 0.16173185 0.00041935884 0.13807258 0.07708247
-0.10499229 0.058383748 0.028998116 0.07416769 -0.0039816634 0.047359947 -0.05983416 -0.040536974
-0.09266734 0.020819832 0.02791092 -0.054471113 -0.032719016 0.19702573 0.20461912 -0.036384463
0.13261469 0.0016803802 -0.050414648 -0.10621921 -0.14298928 0.077592626 -0.20470867 0.028488873
0.16663843 -0.06572606 -0.081423335 -0.07020387 0.03101783 0.012435589 -0.06860047 0.09344955
-0.08369504 0.0053834394 -0.1553036 -0.03471855 0.035781853 -0.009877291 -0.09362875 -0.043706436
-0.11121597 -0.103910185 -0.08937495 0.14979619 -0.059682783 0.11058931 -0.05664988 -0.2581484
-0.32354683 0.0018141543 0.070419095 -0.06802424 0.00040519424 0.03125315 -0.05146906 -0.14374408
0.002933651 0.021493576 0.013009758 -0.044654585 -0.08794544 -0.07974661 -0.03501579 -0.08128091
-0.08469041 -0.024481196 0.015809424 -0.1508448 -0.015974494 -0.07155687 -0.002739382 -0.029927896
-0.09309796 -0.042506903 0.051557146 -0.0024763327 -0.12389119 -0.087295614 0.045210026 0.052762326
0.046660308 -0.06315361 -0.054541726 -0.14689088 -0.09448496 -0.09124877 -0.06960402 0.005305541
-0.00808019 -0.06168596 -0.084910996 -0.12206677 0.06716212 -0.014719061 0.05703996 -0.007759095
0.09490028 -0.09252212 -0.018933732 -0.09837518 -0.10222649 -0.01810958 -0.028542709 0.04822567
-0.10172838 -0.083162434 -0.11648031 -0.093706295 -0.034393866 -0.086393654 0.062441327 -0.018401591
-0.11503036 -0.025044166 -0.039110754 -0.112590946 -0.040350147 0.005370071 -0.024526663 -0.08220007
-0.076859914 0.060821988 -0.030612037 0.04084634 -0.10724109 -0.08704991 0.03419785 -0.052767534
-0.025576351 -0.05805601 -0.1514866 -0.056830384 -0.12708823 0.033566386 -0.0022413696 -0.15154468
-0.090113565 -0.3812032 -0.24210039 -0.07819602 -0.26963007 -0.26997316 -0.045289706 -0.124683775
00000000: 7cca 1abd 76d2 d9bc 2f05 c8bc 2f53 24bd
00000010: 01b4 383d 950d 3bbd bdf0 03be bdbf cd39
00000020: 6585 53bd f38c 363c a663 a9bc fcec ccbd
00000030: 2a5b bcbd b4ee f93c 6acd 0cbe 047a a2b9
00000040: 32ed fabd 5485 9c3c b716 143d b4b7 59bd
00000050: b10f 9bbd 1642 2a3d a4b0 573c 850d 723d
00000060: 613d f1bd cc43 1abe 2be8 d6bd 5204 7ebc
00000070: 0c38 d0bd b65f 23bd 458c 21be e8a6 05bc
00000080: e245 d1bd 2d4f 98bd bb03 0a3d ba97 09be
00000090: 0d98 ec3c ac01 123c eee8 40ba 2c31 f4bd
000000a0: bc21 423b dd64 5ebc 419f 5fbd 5607 3dbe
000000b0: a880 d7bd a06d acbd 5b49 15bd c43f 89bd
000000c0: b22d c2bd 2f94 69bd cd8a fa3c 7643 6d3d
000000d0: fb59 10be 01f1 8cbd 39b5 ea3c e262 3abd
000000e0: 428c 993a 250e ccbd 425e 39bd 010e 6dbd
000000f0: 4e37 5ebd fbf6 6dbd f0d0 f4bd afd5 fcbb
00000100: 0da6 963d 60e5 24be e00e 0e3d 1584 abbb
00000110: d708 0cbb 7883 6ebc 6c4a f4bc 9a92 ee3c
00000120: 878b 3cbd 208d eebd 3e44 8ebd 3193 1fbe
00000130: edde 21be 5b44 95bd 2a0e 5abc b36d f5bb
00000140: b04b 743d f0d9 16be 9cd4 acbd 6ddd 633e
00000150: d430 5e3f fff3 05bf 3da6 79be e882 54be
00000160: 3051 acbe 67c2 33be 2eb7 8cbe 9602 95be
00000170: 60ff 5abe 2016 3cbe 077f 3fbe 223f f4bd
00000180: dd71 5cbd 218e 073e 1520 e7bd 64ed 55be
00000190: e346 e43d 8b9a 0c3d 59c2 18be af40 2dbd
000001a0: 7d98 bfbc 6233 003e aa6b 0bbd 3d50 aa3b
000001b0: 099d 253e 64dd db39 e662 0d3e 6add 9d3d
000001c0: 3306 d7bd cc23 6f3d 758d ed3c 3be5 973d
000001d0: 9d78 82bb 81fc 413d aa14 75bd 190a 26bd
000001e0: 60c8 bdbd 5a8e aa3c 71a5 e43c 1a1d 5fbd
000001f0: 6004 06bd 1dc1 493e ad87 513e e007 15bd
00000200: 25cc 073e 3440 dc3a 977f 4ebd 7589 d9bd
00000210: c86b 12be e2e8 9e3d 269f 51be 7f61 e93c
00000220: 44a3 2a3e 629b 86bd 47c1 a6bd 0cc7 8fbd
00000230: 1b19 fe3c a4be 4b3c 677e 8cbd 7a62 bf3d
00000240: 4e68 abbd 9067 b03b e807 1fbe 0a35 0ebd
00000250: fe8f 123d 5cd4 21bc 6ec0 bfbd 8505 33bd
00000260: 33c5 e3bd ddce d4bd 370a b7bd 2c64 193e
00000270: ef75 74bd a67c e23d b409 68bd 072c 84be
00000280: eea7 a5be ebc8 ed3a e337 903d 4b50 8bbd
00000290: 4070 d439 4e03 003d 39d1 52bd a631 13be
000002a0: 7f42 403b 4c13 b03c e126 553c bae7 36bd
000002b0: bd1c b4bd 3152 a3bd b86c 0fbd 9b76 a6bd
000002c0: 2a72 adbd ca8c c8bc c482 813c 0f77 1abe
000002d0: f1dc 82bc 698c 92bd 3487 33bb 592b f5bc
000002e0: 25aa bebd b81b 2ebd 962d 533d f849 22bb
000002f0: aaba fdbd 0bc8 b2bd 262e 393d 4f1d 583d
00000300: e11e 3f3d ae56 81bd 2567 5fbd 906a 16be
00000310: 5581 c1bd a3e0 babd 8d8c 8ebd 1bda ad3b
00000320: c662 04bc 6baa 7cbd d1e5 adbd 25fe f9bd
00000330: 4b8c 893d 3728 71bc bca2 693d 0240 febb
00000340: 145b c23d 3d7c bdbd ea1a 9bbc ed78 c9bd
00000350: 1f5c d1bd 8b5a 94bc 66d2 e9bc 4888 453d
00000360: f856 d0bd 1151 aabd 3b8d eebd 16e9 bfbd
00000370: 95e0 0cbd 28ef b0bd 7ac2 7f3d efbe 96bc
00000380: 0a95 ebbd 6c29 cdbc 9932 20bd 1596 e6bd
00000390: 3246 25bd 6cf7 af3b 24ec c8bc 8358 a8bd
000003a0: bb68 9dbd 7a20 793d 18c6 fabc 7e4e 273d
000003b0: 37a1 dbbd 3947 b2bd 0b13 0c3d c522 58bd
000003c0: 7f85 d1bc 24cc 6dbd 4e1f 1bbe fac6 68bd
000003d0: 6b23 02be e87c 093d f1e3 12bb 872e 1bbe
000003e0: 768d b8bd 112d c3be 2ae9 77be 3c25 a0bd
000003f0: f40c 8abe ec39 8abe b381 39bd 355a ffbd

network.0.bias f4 [64]
-0.019047046 0.53028065 -0.004253289 0.04710852 -0.22408172 -0.10230869 -0.04614866 0.29358506
0.0050098957 -0.2761691 0.0077610286 -0.12690136 0.27087086 -0.14009267 -0.03427998 -0.39498308
-0.054916434 0.39391303 0.5535495 -0.15417267 -0.09413668 -0.08763983 -0.12952037 0.1838169
-0.04513266 0.32737917 0.25024334 0.43357223 0.20441234 -0.06347366 -0.1365946 0.11455079
-0.14745122 -0.010722263 -0.030278709 0.5116687 -0.09469365 0.35735586 -0.08771367 -0.15245824
0.23015255 -0.40762714 0.1997669 0.20827124 -0.15061307 0.50730944 -0.29064107 -0.07580585
-0.18054044 -0.15859303 -0.09513901 -0.13446295 -0.45453262 -0.049383905 0.578041 -0.071370125
-0.07201681 -0.2715087 -0.15393771 0.12402049 -0.108976945 0.4703585 0.19670133 -0.007387674
00000000: 8d08 9cbc 79c0 073f 2d5f 8bbb ddf4 403d
00000010: ae75 65be 3887 d1bd 6106 3dbd c850 963e
00000020: 0d2a a43b 0966 8dbe 3a50 fe3b 6ef2 01be
00000030: 96af 8a3e 7474 0fbe 2a69 0cbd 393b cabe
00000040: 0ef0 60bd f8ae c93e 6cb5 0d3f 71df 1dbe
00000050: bbca c0bd 837c b3bd fda0 04be 7f3a 3c3e
00000060: 06dd 38bd 3e9e a73e e51f 803e 2efd dd3e
00000070: 7851 513e 7afe 81bd 74df 0bbe 9b99 ea3d
00000080: 74fd 16be 6eac 2fbc 0e0b f8bc b8fc 023f
00000090: bfee c1bd 59f7 b63e 3aa3 b3bd 031e 1cbe
000000a0: 1cad 6b3e 81b4 d0be b28f 4c3e 0e45 553e
000000b0: 503a 1abe 08df 013f e8ce 94be 1940 9bbd
000000c0: 98df 38be 3666 22be 3ed8 c2bd a8b0 09be
000000d0: 80b8 e8be c746 4abd 7ffa 133f 802a 92bd
000000e0: 8d7d 93bd 3003 8bbe d9a1 1dbe 74fe fd3d
000000f0: 4e2f dfbd d4d2 f03e 136c 493e 4d14 f2bb

network.2.weight f4 [32, 64]
0.120868355 -0.103575386 0.04899554 -0.016385645 -0.13423423 0.081267655 0.08789727 0.031818733
-0.08292639 -0.14338419 -0.11374263 -0.066512525 -0.0899301 0.008179709 -0.0057501793 -0.055984423
-0.07644914 0.08515553 0.0113379555 -0.04890144 0.03474395 -0.101947024 -0.032727525 -0.0455187
0.08038135 -0.07293394 0.06747633 0.10031159 -0.00930658 -0.017804995 -0.041460022 -0.07623768
-0.09529155 -0.12438513 -0.018072054 -0.11743751 -0.056413457 -0.009348645 0.021292225 -0.0669895
-0.104197726 0.031646155 -0.018314553 0.04608438 -0.047849476 -0.026085064 -0.097121805 0.02137494
-0.09653191 -0.07170926 0.058999494 0.014529571 0.029026046 0.07647644 -0.036028124 -0.03870602
-0.089228354 0.08453958 0.07954277 -0.10668714 0.124503195 -0.061623037 -0.094746366 -0.002806902
-0.08075826 -0.14464366 0.001047641 0.008531272 0.06511988 0.06315827 0.030284196 0.054208435
0.04381293 -0.13992971 -0.031571493 -0.030174956 -0.1247828 -0.093599215 -0.11122586 -0.03262844
-0.122764006 -0.107509494 0.041963346 -0.06775598 -0.0013053119 0.025416031 -0.0038532317 -0.029627532
-0.12051956 -0.10665257 -0.11833636 -0.026926612 -0.1377902 0.031171218 0.011361152 0.006096319
0.051496096 -0.00012868643 0.011231735 -0.010063529 -0.024118677 -0.18088205 -0.033203855 0.071091264
0.056353487 0.039243743 -0.1082627 -0.08974558 -0.081928 -0.08154594 0.049397018 -0.11208524
-0.10214737 0.0014729649 0.061741114 -0.048917532 0.044099316 -0.117884845 0.035413504 0.10320741
-0.008737028 -0.049464244 0.039047822 -0.018716693 0.08802791 -0.08539209 -0.07207408 -0.027699485
-0.0038077228 -0.26467 -0.053153865 0.007612514 -0.24992013 0.042551894 -0.015034516 0.35649523
-0.13887283 0.30326748 0.050785486 0.022260146 -0.19792274 0.082268976 0.06860093 -0.17221656
0.10838679 0.031389844 0.005987435 0.04328243 -0.08268836 0.012645249 -0.053650394 0.3566976
0.06912205 -0.12436291 -0.14099683 -0.62371784 -0.05312884 -0.075940125 0.0144055905 0.2682731
0.052437052 0.048350416 0.13541096 -0.74495363 0.07958582 -0.5245974 -0.016896388 0.0063229017
0.035947073 0.023803 0.27303395 0.050696753 -0.075543314 -0.31617633 0.64375514 -0.0105684735
0.045401197 -0.01002427 0.054837827 0.059997723 0.09215005 -0.13706836 -0.35682446 0.06707918
0.16123642 0.0874718 0.058152966 0.23250818 -0.06357505 0.029315598 -0.53551215 0.08163613
-0.114086345 -0.39664766 -0.03120242 0.039161358 -0.06148417 0.053800914 -0.049391657 -0.061155114
0.002264462 0.065120436 -0.03820628 0.084019184 0.17261241 -0.07645303 0.042214513 0.01102092
0.02203025 -0.07341348 0.06570191 0.076523006 -0.03423032 -0.11749202 -0.02722016 0.031443436
-0.078251265 0.09355106 -0.15850142 -0.03897735 0.045787435 -0.11604768 -0.027431175 0.10154648
0.028820151 -0.14325488 0.15568753 0.22035304 0.056879 -0.30399653 0.11840355 -0.010398752
0.16061516 0.16372524 0.023742223 -0.15009072 -0.066346526 0.16311295 0.22657323 -0.10496977
-0.1120286 0.044409778 0.06711961 0.06560624 0.14253956 0.014814836 0.020352215 -0.059606835
0.0138949705 -0.0641151 -0.1059331 0.13792145 -0.14144923 -0.007701715 -0.027842674 0.049413115
00000000: d489 f73d 551f d4bd 8caf 483d 303b 86bc
00000010: b374 09be a86f a63d 7c03 b43d 5c54 023d
00000020: 50d5 a9bd 4ed3 12be e5f1 e8bd b837 88bd
00000030: 462d b8bd 3004 063c 006c bcbb ec4f 65bd
00000040: 5e91 9cbd 0666 ae3d d5c2 393c e04c 48bd
00000050: ac4f 0e3d 9ac9 d0bd 4c0d 06bd d171 3abd
00000060: fa9e a43d 645e 95bd 0831 8a3d 2a70 cd3d
00000070: a07a 18bc c8db 91bc fcd1 29bd 8022 9cbd
00000080: 3728 c3bd a2bd febd d80b 94bc 1483 f0bd
00000090: cc11 67bd 0f2b 19bc 086d ae3c ca31 89bd
000000a0: 9e65 d5bd 669f 013d 6708 96bc fac2 3c3d
000000b0: d0fd 43bd 58b0 d5bc cce7 c6bd 801a af3c
000000c0: 86b2 c5bd 4edc 92bd 74a9 713d 700d 6e3c
000000d0: 08c8 ed3c ae9f 9c3d 3a92 13bd 348a 1ebd
000000e0: 5bbd b6bd 1623 ad3d 52e7 a23d ca7e dabd
000000f0: 88fb fe3d 7068 7cbd 620a c2bd 00f4 37bb
00000100: 9664 a5bd 781d 14be 0051 893a c0c6 0b3c
00000110: 925d 853d 2059 813d 9016 f83c aa09 5e3d
00000120: 3075 333d bc49 0fbe 1c51 01bd 7831 f7bc
00000130: 208e ffbd f2b0 bfbd 62ca e3bd 66a5 05bd
00000140: b26b fbbd f02d dcbd c2e1 2b3d a6c3 8abd
00000150: 0017 abba 4835 d03c 8086 7cbb 70b5 f2bc
00000160: f6d2 f6bd aa6c dabd 555a f2bd 3395 dcbc
00000170: e018 0dbe c85a ff3c 2024 3a3c a1c3 c73b
00000180: 92ed 523d 00f0 06b9 5005 383c 80e1 24bc
00000190: 8894 c5bc 2539 39be c400 08bd 4c98 913d
000001a0: ead2 663d 0cbe 203d d6b8 ddbd 88cc b7bd
000001b0: dec9 a7bd 8f01 a7bd 8754 4a3d f28c e5bd
000001c0: a432 d1bd 8010 c13a 40e4 7c3d c05d 48bd
000001d0: 7ca1 343d 9c6d f1bd c00d 113d 685e d33d
000001e0: c025 0fbc 059b 4abd 9cf0 1f3d c053 99bc
000001f0: fa47 b43d 0ce2 aebd 939b 93bd 08ea e2bc
00000200: fd8a 79bb d482 87be deb7 59bd 6572 f93b
00000210: 10eb 7fbe e54a 2e3d 5553 76bc 8b86 b63e
00000220: ae34 0ebe e045 9b3e 7104 503d e95a b63c
00000230: 42ac 4abe a37c a83d a57e 8c3d 8a59 30be
00000240: e5f9 dd3d a392 003d 3f32 c43b eb48 313d
00000250: 8458 a9bd 052e 4f3c 84c0 5bbd 11a1 b63e
00000260: dd8f 8d3d fbb1 febd 7961 10be f9ab 1fbf
00000270: a09d 59bd 7f86 9bbd 6d05 6c3c 175b 893e
00000280: 3cc8 563d 160b 463d 2ca9 0a3e 48b5 3ebf
00000290: e4fd a23d 044c 06bf 4b6a 8abc 5830 cf3b
000002a0: 3d3d 133d 82fe c23c 1bcb 8b3e 66a7 4f3d
000002b0: 74b6 9abd dde1 a1be 23cd 243f 6427 2dbc
000002c0: 9bf6 393d d63c 24bc a19d 603d 2cc0 753d
000002d0: 2ab9 bc3d a65b 0cbe b2b1 b6be cf60 893d
000002e0: 291b 253e 6a24 b33d ce31 6e3d a016 6e3e
000002f0: a333 82bd 4427 f03c 5317 09bf d830 a73d
00000300: 1aa6 e9bd 6715 cbbe 389c ffbc a967 203d
00000310: d3d6 7bbd 595e 5c3d e84e 4abd c97d 7abd
00000320: 5e67 143b dd5d 853d 307e 1cbd 4012 ac3d
00000330: 4fc1 303e 6893 9cbd 20e9 2c3d 1791 343c
00000340: c878 b43c ce59 96bd b98e 863d 18b8 9c3d
00000350: 1835 0cbd a89f f0bd d0fc debc d5ca 003d
00000360: 3342 a0bd b397 bf3d 324e 22be b7a6 1fbd
00000370: 9b8b 3b3d 68aa edbd 58b7 e0bc 9af7 cf3d
00000380: 3d18 ec3c 68b1 12be 8d6c 1f3e 3aa4 613e
00000390: f4f9 683d 6fa5 9bbe 8f7d f23d 875f 2abc
000003a0: 4d78 243e 97a7 273e 0d7f c23c 62b1 19be
000003b0: b0e0 87bd 1507 273e d002 683e 64fa d6bd
000003c0: 406f e5bd 07e7 353d 0276 893d 905c 863d
000003d0: e4f5 113e edb9 723c b0b9 a63c 4c26 74bd
000003e0: bba7 633c c74e 83bd 74f3 d8bd 483b 0d3e
000003f0: 11d8 10be ab5e fcbb 5216 e4bc 6865 4a3d

network.2.bias f4 [32]
-0.10615202 -0.066516675 -0.11370117 -0.13390823 -0.5665193 -0.014795723 -0.23894615 -0.19098613
-0.3935642 -0.08825181 0.054022208 -0.1772512 -0.32458746 0.44288716 -0.12366119 0.3015276
-0.1644261 -0.38206577 -0.0012763892 -0.34334287 -0.008747984 -0.028750932 -0.0026519904 -0.09709124
0.0017871157 -0.26179704 -0.21936044 -0.36424652 0.024530705 -0.13665411 0.41146818 0.0058467845
00000000: 3b66 d9bd e539 88bd 29dc e8bd 3d1f 09be
00000010: 6907 11bf c369 72bc 4dae 74be de91 43be
00000020: 3f81 c9be 5dbd b4bd 6446 5d3d 5781 35be
00000030: 5430 a6be 1bc2 e23e 1442 fdbd d361 9a3e
00000040: 515f 28be 209e c3be 844c a7ba a3ca afbe
00000050: b453 0fbc 1387 ebbc 04cd 2dbb c6d7 c6bd
00000060: a73d ea3a 430a 86be 06a0 60be 857e babe
00000070: 9ef4 c83c 0eef 0bbe f5ab d23e 6296 bf3b

network.4.weight f4 [1, 32]
-0.016536584 -0.08993464 0.56835896 0.2397546 1.2191752 0.31585053 -0.3968513 0.029896997
-0.029155059 0.026881637 0.22227696 0.011691797 0.05892924 0.38958505 0.010348252 0.43830854
1.1662395 -0.25837997 0.20971055 -0.85605913 0.24571513 0.4438626 -0.0026614943 0.7765135
-1.6960158 -0.02203248 -0.22157887 -0.24981427 -0.020064447 -0.012582196 0.32264215 0.040510733
00000000: bb77 87bc a72f b8bd f97f 113f 3b82 753e
00000010: ef0d 9c3f 29b7 a13e 1830 cbbe 8cea f43c
00000020: 97d6 eebc e136 dc3c 929c 633e f38e 3f3c
00000030: c95f 713d b177 c73e b78b 293c fa69 e03e
00000040: 5647 953f 614a 84be 5dbe 563e b126 5bbf
00000050: bf9c 7b3e f541 e33e 776c 2ebb 97c9 463f
00000060: 0c17 d9bf 767d b4bc 92e5 62be 50cf 7fbe
00000070: 325e a4bc 8e25 4ebc 5a31 a53e 95ee 253d

network.0.weight f4 [64, 83]
0.05673123 0.01706056 0.019962393 0.039774377 -0.13301896 0.036963355 0.009496436 -0.043407653
-0.09822076 -0.083977334 -0.032666083 -0.024591995 -0.09675698 -0.07474869 -0.028124744 -0.09533966
0.050868433 -0.092606865 -0.05938937 -0.06810313 -0.02367431 -0.042932983 0.051963545 -0.046279073
0.04492757 -0.027665883 -0.15507351 -0.0086947335 -0.10094732 -0.103925124 -0.029625442 -0.09744472
-0.110486165 -0.0030435394 0.014159015 0.034445945 -0.019755216 -0.068500064 -0.03799187 -0.005286932
-0.015320625 -0.018010568 -0.059593502 -0.072609976 -0.12220926 -0.09169623 -0.15147853 -0.056807023
0.00022007451 -0.056496497 -0.07286145 -0.086934924 -0.0055573434 -0.09414504 -0.12362091 -0.0010588971
0.06781252 -0.054307573 -0.06994566 -0.06453424 -0.023387462 -0.117828645 -0.13111098 -0.04636954
0.05930273 -0.018253636 -0.029736292 -0.10872144 0.0268501 0.0053904564 0.044978667 -0.07161481
-0.1378609 0.014137614 -0.060409177 -0.07393204 -0.13511942 -0.08314328 -0.09284782 0.052047916
0.011688458 -0.039659757 0.004728509 0.0021225328 -0.154284 -0.27762124 -0.14495836 -0.029016804
-0.12290292 -0.06253139 -0.07149909 -0.029017342 -0.15625279 0.03410796 0.005327592 -0.048160933
0.06349152 -0.081503645 -0.03952539 0.08628774 0.017423144 -0.064763725 0.0740823 -0.067042254
0.06932213 -0.056106385 0.068294734 0.009529359 -0.0949659 -0.14746684 0.059078712 0.021667214
0.071600676 0.020173188 -0.16198325 -0.124701664 -0.06517258 -0.009668549 0.026644263 -0.0034267406
-0.15429136 -0.018393733 -0.07673342 0.034074984 -0.15106946 -0.017690087 0.031623274 0.0015478536
-0.02059773 0.0010776955 -0.04993239 0.058317382 -0.029252816 -0.05213001 -0.1244105 -0.01003933
0.08037138 -0.13709997 -0.065049484 -0.17229618 0.01653092 -0.08795694 0.023180436 -0.1548235
-0.0862797 -0.119663715 -0.103261836 0.017038886 0.010400018 -0.040759422 0.08984635 -0.15386969
-0.100981854 0.024834363 -0.11965432 -0.07621257 0.07032711 -0.14762412 0.040861513 0.015662935
-0.079581566 -0.040165547 -0.043516725 0.020616317 -0.08213763 0.13752562 -0.08378807 -0.014680601
-0.06007374 0.0002615201 0.03016354 -0.056025755 -0.007628111 -0.1280197 -0.079830125 -0.08992514
-0.017984606 -0.046057556 0.049303077 -0.08811185 0.020049708 0.018046586 0.036355242 -0.05754143
-0.04450702 -0.106048636 -0.0004294023 -0.044023357 -0.042812623 -0.16698062 -0.081985794 -0.12041536
-0.1265035 0.044690263 0.0133890435 -0.0075211828 -0.05949899 -0.059252672 -0.066683665 -0.047325917
-0.05446499 0.0024250655 0.029706953 -0.008189528 -0.07533681 -0.093140885 -0.08271941 0.00836822
0.029805617 -0.011583242 0.0014077914 0.016893417 -0.11594448 -0.13308665 0.021024894 -0.025944863
-0.051474594 -0.00861311 -0.00204058 -0.022276146 -0.089238614 0.043175224 -0.107143804 -0.121402115
-0.09451686 0.009912071 0.0016839607 -0.12611352 -0.16274413 -0.12716645 -0.07185107 -0.15098129
0.011102287 -0.03561077 -0.061808594 -0.120300315 -0.11088591 0.041318685 -0.0032070312 -0.08686727
0.008402679 -0.18638793 0.025382878 -0.09122562 -0.06851792 -0.026612265 -0.030157084 0.016802182
-0.15885535 0.77418035 0.31514424 -0.15975209 -0.023702472 -0.10297396 0.15183422 0.06932109
00000000: 025f 683d 96c2 8b3c 2c88 a33c 75ea 223d
00000010: 1f36 08be e366 173d f196 1b3c 39cc 31bd
00000020: f727 c9bd 4ffc abbd dfcc 05bd 2775 c9bc
00000030: 8628 c6bd d715 99bd dd65 e6bc 7141 c3bd
00000040: 6b5b 503d aba8 bdbd 4542 73bd a779 8bbd
00000050: a0f0 c1bc 7fda 2fbd bad7 543d 208f 3dbd
00000060: f905 383d 90a3 e2bc 97cb 1ebe 5b74 0ebc
00000070: 78bd cebd b2d6 d4bd 0eb1 f2bc 1991 c7bd
00000080: 9246 e2bd 1e76 47bb 37fb 673c 3117 0d3d
00000090: b1d5 a1bc c349 8cbd 5d9d 1bbd 003e adbb
000000a0: 5c03 7bbc e68a 93bc 5118 74bd 8ab4 94bd
000000b0: d948 fabd 3ccb bbbd 301d 1bbe 7bae 68bd
000000c0: cdc3 6639 df68 67bd 6238 95bd f00a b2bd
000000d0: 601a b6bb 1dcf c0bd f62c fdbd b1ca 8aba
000000e0: 4ae1 8a3d 9e71 5ebd ac3f 8fbd 872a 84bd
000000f0: 1097 bfbc 2550 f1bd f541 06be fded 3dbd
00000100: 6be7 723d a688 95bc 8699 f3bc 59a9 debd
00000110: bef4 db3c 6da2 b03b 8d3b 383d c9aa 92bd
00000120: 682b 0dbe 73a1 673c 9d6f 77bd ae69 97bd
00000130: bf5c 0abe 0647 aabd ff26 bebd 3230 553d
00000140: f280 3f3c 4572 22bd 9cf1 9a3b 311a 0b3b
00000150: a0fc 1dbe 5f24 8ebe f76f 14be a6b4 edbc
00000160: 87b4 fbbd 7510 80bd 1d6e 92bd c7b5 edbc
00000170: bb00 20be cab4 0b3d 1593 ae3b 6644 45bd
00000180: d807 823d 62eb a6bd 60e5 21bd a0b7 b03d
00000190: fbba 8e3c d8a2 84bd 76b8 973d 734d 89bd
000001a0: c3f8 8d3d cfcf 65bd 1cde 8b3d 0721 1c3c
000001b0: 7b7d c2bd 8c01 17be 85fc 713d 717f b13c
000001c0: 60a3 923d 3e42 a53c f0de 25be 9663 ffbd
000001d0: 3479 85bd d568 1ebc 1245 da3c 2b93 60bb
000001e0: 8efe 1dbe 74ae 96bc 6926 9dbd 3692 0b3d
000001f0: f4b1 1abe cdea 90bc 6887 013d 59e1 ca3a
00000200: 92bc a8bc 7641 8d3a e885 4cbd 35de 6e3d
00000210: 9aa3 efbc 4786 55bd efca febd 017c 24bc
00000220: c099 a43d ef63 0cbe aa38 85bd 696e 30be
00000230: da6b 873c c522 b4bd e6e4 bd3c 0d8a 1ebe
00000240: 69b3 b0bd 4012 f5bd f17a d3bd 2295 8b3c
00000250: d664 2a3c 5af3 26bd 5d01 b83d 0490 1dbe
00000260: 93cf cebd 6f71 cb3c 530d f5bd 5615 9cbd
00000270: a907 903d c72a 17be 675e 273d 8e4f 803c
00000280: a9fb a2bd a184 24bd 983e 32bd 8de3 a83c
00000290: c637 a8bd 84d3 0c3e 1499 abbd e786 70bc
000002a0: e20f 76bd a21c 8939 8719 f73c 437b 65bd
000002b0: 3cf5 f9bb 9917 03be fa7d a3bd ac2a b8bd
000002c0: 7454 93bc d9a6 3cbd 06f2 493d fc73 b4bd
000002d0: 493f a43c 6fd6 933c 3ce9 143d 90b0 6bbd
000002e0: fe4c 36bd 0730 d9bd 6721 e1b9 d651 34bd
000002f0: 4a5c 2fbd f8fc 2abe 2be8 a7bd 549c f6bd
00000300: 228a 01be 230d 373d b85d 5b3c 4174 f6bb
00000310: 37b5 73bd eeb2 72bd 7291 88bd d2d8 41bd
00000320: ae16 5fbd d9ed 1e3b ff5b f33c 5f2d 06bc
00000330: 2f4a 9abd a6c0 bebd cb68 a9bd dc1a 093c
00000340: e92a f43c a3c7 3dbc a485 b83a 1064 8a3c
00000350: 4d74 edbd de47 08be 663c ac3c 528a d4bc
00000360: 06d7 52bd 001e 0dbc 40bb 05bb 777c b6bc
00000370: bcc2 b6bd 81d8 303d 366e dbbd aca1 f8bd
00000380: 0e92 c1bd 3d66 223c 58b8 dc3a e723 01be
00000390: 66a6 26be ec37 02be a726 93bd d79a 1abe
000003a0: 5ee6 353c 99dc 11bd 022b 7dbd 0360 f6bd
000003b0: 2718 e3bd c83d 293d 0e2d 52bb 78e7 b1bd
000003c0: 64ab 093c 7adc 3ebe c1ef cf3c 7fd4 babd
000003d0: 2053 8cbd f701 dabc fd0b f7bc bba4 893c
000003e0: faaa 22be af30 463f 965a a13e 0d96 23be
000003f0: b02b c2bc 03e4 d2bd 6e7a 1b3e 37f8 8d3d

network.0.bias f4 [64]
-0.09690329 -0.23200849 0.021991715 -0.050536312 -0.090748236 -0.16702116 -0.009443275 0.38117307
-0.14449228 -0.032689083 0.12618266 -0.15932335 -0.11878862 0.06771521 -0.3423754 0.003992518
-0.11939896 -0.034630038 -0.061325148 -0.16213576 -0.18471317 -0.059712756 -0.36412007 0.28317383
-0.014521956 0.2779488 -0.03370346 -0.14343016 -0.08538573 0.40640423 0.6341647 -0.08424638
-0.02297972 -0.08784569 0.011470842 -0.13057332 -0.092374235 -0.17780656 -0.018813452 -0.051876854
0.03203069 -0.009027161 -0.36240843 -0.16748579 -0.031027462 0.3319206 -0.07949809 -0.38574347
0.4132077 0.28695104 0.18567407 0.0067862347 -0.029909596 -0.047479555 -0.08569283 -0.11961789
0.108462244 -0.24414204 -0.13572703 -0.2076865 -0.029784478 -0.07005986 -0.4756875 -0.031020746
00000000: 3b75 c6bd a293 6dbe f827 b43c 2aff 4ebd
00000010: 36da b9bd 9807 2bbe f7b7 1abc 1e29 c33e
00000020: c9f5 13be fde4 05bd 0736 013e a925 23be
00000030: 7347 f3bd 46ae 8a3d d44b afbe abd3 823b
00000040: 7187 f4bd 3ad8 0dbd 1430 7bbd eb06 26be
00000050: 7325 3dbe 5d95 74bd f26d babe 29fc 903e
00000060: 80ed 6dbc 4e4f 8e3e a40c 0abd 5bdf 12be
00000070: b7de aebd 3714 d03e 9e58 223f 5e89 acbd
00000080: f73f bcbc 71e8 b3bd 33f0 3b3c 03b5 05be
00000090: b42e bdbd ec12 36be ab1e 9abc d37c 54bd
000000a0: 9d32 033d a8e6 13bc 998d b9be 6581 2bbe
000000b0: 4e2d febc 7ff1 a93e e5cf a2bd 2b80 c5be
000000c0: f68f d33e 3feb 923e 5821 3e3e 105f de3b
000000d0: f804 f5bc ec79 42bd b97f afbd 39fa f4bd
000000e0: 7421 de3d 5f00 7abe 07fc 0abe c5ab 54be
000000f0: 94fe f3bc 8b7b 8fbd 508d f3be 381f febc
