models/sudoku_ltn_9x9.pth (torch, 280626 bytes, 42 tensors)

network.0.weight f4 [128, 4]
0	0x3dee5cb8	0.116387784
1	0x3e87b316	0.2650382
2	0xbe1ccbe4	-0.15312153
3	0xbe7c7f9c	-0.24658054
4	0xbeba8406	-0.3642885
5	0x3ee63694	0.44963515
6	0xbe9af3d0	-0.3026414
7	0xbe53a0f0	-0.20666862
8	0x3ede746e	0.43448204
9	0x3e9a20c5	0.30103126
10	0x3e7a138c	0.24421519
11	0xbe9ec99b	-0.31013188
12	0xbedff619	-0.43742445
13	0x3ececa46	0.40388697
14	0x3dec3e4d	0.115353204
15	0x3ef9926a	0.48744518
16	0x3e8e8e4c	0.2784294
17	0x3ea1a37f	0.3157005
18	0x3eaba572	0.33524662
19	0x3d3b18fe	0.04567813
20	0x3e315e6d	0.17321177
21	0xbd29f5c2	-0.04149414
22	0xbe21a05d	-0.1578383
23	0x3f08d7ee	0.5345448
24	0x3d9ac1d5	0.07556502
25	0xbe50e0d6	-0.20398268
26	0x3e345b34	0.17612916
27	0x3ee428ae	0.44562286
28	0x3f089a34	0.53360295
29	0xbe873a26	-0.2641155
30	0xbe4e834f	-0.20167278
31	0x3de2459c	0.11048433
32	0x3e9c1b63	0.30489644
33	0xbee1fc68	-0.44137883
34	0x3e31ada7	0.173514
35	0xbe224b32	-0.15848997
36	0x3d8a23b5	0.06745092
37	0xbe79cd5f	-0.24394749
38	0x3ef3d8db	0.47626385
39	0xbe81a404	-0.25320446
40	0xbc8fdf33	-0.017562484
41	0xbdfbd7d5	-0.12297026
42	0x3d25df99	0.040496442
43	0x3eb84130	0.35987234
44	0xbeb1b5ad	-0.3470892
45	0xbe72c9e7	-0.23709832
46	0x3e6c255d	0.23061128
47	0x3ee21339	0.4415529
48	0x3e1f26d2	0.15542153
49	0x3ec72632	0.38896328
50	0x3ec3a725	0.3821346
51	0xbe4d00b9	-0.20019807
52	0x3ee8da05	0.45478836
53	0xbdf190f7	-0.11795228
54	0xbd20ff3b	-0.039305907
55	0x3ecb0d1f	0.39658448
56	0xbec85776	-0.39129227
57	0x3e947db8	0.29002166
58	0x3e280740	0.16409016
59	0x3ed71900	0.4201126
60	0xbde876c0	-0.11350775
61	0x3df767e8	0.120803654
62	0x3ead2dfa	0.3382414
63	0xbeda4bf6	-0.4263608
64	0xbec36c16	-0.381684
65	0x3cb4b9a0	0.02206117
66	0xbee464ce	-0.44608158
67	0x3d012410	0.031528533
68	0x3ef8b0ec	0.4857248
69	0xbedd0679	-0.43169
70	0x3def0142	0.11670162
71	0x3f07f618	0.53109884
72	0xbe99957d	-0.29996863
73	0xbce01f33	-0.027358627
74	0xbcad4b01	-0.021153929
75	0xbe9d0a8f	-0.30672118
76	0x3df1ea7a	0.11812301
77	0xbe07429a	-0.13209
78	0x3e78b47e	0.24287602
79	0xbe6c8c65	-0.23100431
80	0x3e16e162	0.14734414
81	0x3ea58e97	0.3233535
82	0x3c67ccf7	0.0141479885
83	0x3db6e073	0.08929529
84	0x3e12bd68	0.14330065
85	0xbe2fca47	-0.17167006
86	0xbe9f932f	-0.3116698
87	0xbb785ea6	-0.0037898212
88	0xbee38000	-0.44433594
89	0x3bdeb4a8	0.0067964382
90	0x3d840b18	0.064474285
91	0x3ec421b2	0.38306957
92	0xbed2238d	-0.41042748
93	0x3e4bb4dd	0.19893213
94	0x3ead2e1e	0.33824247
95	0x3f043da5	0.5165656
96	0x3e7c17b1	0.24618413
97	0xbe71b686	-0.23604783
98	0x3e42687d	0.18985172
99	0x3d4aeef8	0.049544305
100	0xbe701291	-0.23444583
101	0x3edeab2d	0.43489972
102	0xbe79a48a	-0.24379173
103	0x3d9d03b2	0.076667204
104	0x3e8c647a	0.27420408
105	0x3ead5abd	0.3385829
106	0x3ed26a96	0.41096944
107	0x3ee8a0d9	0.45435217
108	0xbe7357a5	-0.23763902
109	0xbe76e38b	-0.24110238
110	0x3ecd8285	0.4013864
111	0xbccc927f	-0.024972199
112	0x3f0425c4	0.51620126
113	0xbe173346	-0.14765653
114	0x3e9ab095	0.30212846
115	0x3d20859f	0.03918993
116	0xbc80dc98	-0.015730187
117	0xbd0e36a1	-0.034720067
118	0xbe6d6628	-0.23183501
119	0x3e96e81e	0.29473966
120	0xbc6f8fc0	-0.014621675
121	0xbbca9500	-0.006182313
122	0x3e997a16	0.29975957
123	0xbe51fcf4	-0.2050665
124	0x3e11254e	0.14174387
125	0xbcbf0dd1	-0.023322018
126	0xbd1b971b	-0.037985902
127	0xbe4665ba	-0.19374743
128	0xbe92c844	-0.28668416
129	0x3ecdc37a	0.401882
130	0x3e8a7c55	0.27047983
131	0x3eec812d	0.46192303
132	0x3ef7db66	0.48409575
133	0x3ce7c000	0.028289795
134	0xbea0934a	-0.31362373
135	0xbe69e618	-0.2284168
136	0xbe8e65a1	-0.27811912
137	0x3e8a3dba	0.2700022
138	0x3d049cce	0.032376103
139	0x3f027e1e	0.5097369
140	0xbee1ab12	-0.4407583
141	0x3dbf28f0	0.0933398
142	0xbdd39e50	-0.1033293
143	0xbedddd9c	-0.43333137
144	0xbe9c6038	-0.3054216
145	0xbe4dfb10	-0.20115304
146	0xbead0d5e	-0.3379926
147	0xbe8bb9ae	-0.272901
148	0xbe39eeae	-0.18157455
149	0x3ebf07d9	0.37310675
150	0xbe3a59ed	-0.18198366
151	0x3ee1c5f7	0.44096348
152	0xbdbdc5fb	-0.092662774
153	0x3e4b6787	0.19863711
154	0xbd4cf7b6	-0.050040923
155	0x3ecd433b	0.40090355
156	0x3dda1980	0.10649395
157	0xbd904fe0	-0.07046485
158	0xbebd0ca8	-0.36923718
159	0xbde05228	-0.1095317
160	0x3d308650	0.04309684
161	0xbe794d58	-0.2434591
162	0x3eb958cc	0.3620056
163	0xbd82bf00	-0.063840866
164	0x3e97a944	0.29621327
165	0xbe27dbb3	-0.16392402
166	0x3f0e2915	0.55531436
167	0xbec3e0a3	-0.38257322
168	0x3edde321	0.43337348
169	0xbee1d020	-0.441041
170	0x3e49746c	0.19673318
171	0x3ecd0c16	0.40048283
172	0xbdc034f5	-0.09385101
173	0xbb1fb835	-0.002437127
174	0x3d9e1cf9	0.0772037
175	0x3f00c109	0.5029455
176	0xbe9ac4fc	-0.30228412
177	0xbedbbafc	-0.42916095
178	0x3e0501e8	0.12989008
179	0xbe108c4c	-0.14116019
180	0xbded3099	-0.11581535
181	0xbeab0a3d	-0.3340625
182	0xbdd02632	-0.10163535
183	0xbd3800bb	-0.04492257
184	0xbe228e5c	-0.15874618
185	0x3eb2f73e	0.34954256
186	0xbdd874e8	-0.10569173
187	0xbe8e8b8e	-0.27840847
188	0x3c7e58c0	0.015524089
189	0x3da1f988	0.079089224
190	0xbeffcaba	-0.49959356
191	0xbc8b6940	-0.01701796
192	0x3ee5b027	0.44860956
193	0x3e9a6f27	0.30162928
194	0x3ecaa959	0.39582327
195	0xbeb34366	-0.35012358
196	0xbee9ed4c	-0.45688856
197	0x3e11628c	0.14197749
198	0xbe980074	-0.29687846
199	0xbeb3faac	-0.35152185
200	0xbea0992d	-0.31366864
201	0x3e4b8038	0.1987313
202	0xbea8ae21	-0.3294535
203	0x3e2dcc81	0.16972543
204	0x3ec964f5	0.39334837
205	0xbe84c4c1	-0.2593136
206	0x3e5df78b	0.21676461
207	0xbebd2b88	-0.36947274
208	0xbeb1e0ea	-0.34741908
209	0x3eb22bd8	0.34799075
210	0xbe116809	-0.14199843
211	0x3eab443e	0.33450502
212	0xbee7eb62	-0.4529677
213	0xbecba9dc	-0.3977803
214	0xbecbf2a2	-0.39833552
215	0xbeb21886	-0.34784335
216	0xbe0ccf6a	-0.13750997
217	0xbe2bc425	-0.16774042
218	0xbeb36d9d	-0.35044566
219	0x3efcad4a	0.4935096
220	0x3eb7afae	0.3587622
221	0xbe3c9f88	-0.18420231
222	0x3d27e820	0.040992856
223	0xbea3f22a	-0.32020694
224	0x3cf08aa9	0.029362993
225	0x3e0eee52	0.139581
226	0x3f0402e5	0.51566917
227	0x3e8f2e4d	0.27965012
228	0x3d5ffe83	0.05468608
229	0xbd747953	-0.059686016
230	0x3ea5ca1b	0.32380757
231	0x3e415847	0.18881331
232	0x3f00c5a5	0.5030158
233	0x3e9fdc9a	0.31222993
234	0x3ec7d10e	0.39026684
235	0xbe44e9ab	-0.19229762
236	0xbeea6e26	-0.45787162
237	0xbe9184d8	-0.28421664
238	0xbedc88f0	-0.43073225
239	0x3d2431b0	0.04008645
240	0xbe8e09f4	-0.2774197
241	0x3ed90850	0.42389154
242	0xbedee4fd	-0.4353408
243	0x3e0ac523	0.13551764
244	0xbe5991a1	-0.2124696
245	0x3e898a3a	0.2686327
246	0xbec12873	-0.37726173
247	0xbdebe9ce	-0.11519204
248	0x3f0a0e4e	0.5392808
249	0xbe489da3	-0.19591384
250	0x3caec9ba	0.021336425
251	0x3e1388ee	0.14407703
252	0x3e1af924	0.15134102
253	0x3e51c4df	0.20485257
254	0xbe750566	-0.2392784
255	0xbe3216c3	-0.17391495

network.0.bias f4 [128]
0	0xbee4617c	-0.44605625
1	0xbe95148c	-0.2911724
2	0xbeb3cec3	-0.35118684
3	0xbe541552	-0.20711258
4	0x3e7e59cf	0.24838947
5	0x3de1695b	0.11006423
6	0x3f02c454	0.5108082
7	0x3e80ab63	0.25130758
8	0xbe1d01fe	-0.15332791
9	0x3e9265ae	0.285932
10	0xbd4e0de5	-0.05030622
11	0x3e13f683	0.14449506
12	0x3e8d2861	0.2756987
13	0x3e3e76d6	0.1860002
14	0x3e4818aa	0.19540659
15	0xbef5b9a0	-0.47993183
16	0xbe895d9c	-0.2682923
17	0x3e40488d	0.18777676
18	0x3f056d50	0.5211992
19	0x3eaa41c6	0.33253306
20	0x3e73d7df	0.23812817
21	0x3ea6e9be	0.32600206
22	0xbee1a650	-0.440722
23	0x3e1b4ae3	0.15165286
24	0xbd47990b	-0.048729938
25	0xbd2fa982	-0.042886265
26	0x3d7c5930	0.061608493
27	0x3eae144c	0.3399986
28	0x3ef8e7bc	0.486143
29	0x3cb9873d	0.022647494
30	0xbef4462e	-0.47709793
31	0x3ec93ef2	0.39305836
32	0xbe69a2d7	-0.22816025
33	0xbec482e8	-0.38381124
34	0x3ec71b69	0.388881
35	0x3ea64d6e	0.3248095
36	0xbe91b56e	-0.28458732
37	0xbe3f3fa1	-0.18676616
38	0xbeff2649	-0.49833897
39	0xbd9553b0	-0.07291353
40	0xbef984c0	-0.48734093
41	0x3e25cd30	0.16191554
42	0x3ded38aa	0.115830734
43	0xbe8d85df	-0.27641198
44	0xbdfe44c0	-0.12415457
45	0x3da5c385	0.08093933
46	0xbeaa8b9a	-0.33309633
47	0xbee8c058	-0.45459247
48	0x3e499874	0.19687063
49	0xbed3567e	-0.41276926
50	0x3dae6ae3	0.08516481
51	0xbe23dc89	-0.16002096
52	0x3e816726	0.2527401
53	0xb9f81800	-0.00047320127
54	0xbe20516d	-0.15656061
55	0xbe386818	-0.18008459
56	0x3e88c93a	0.26716024
57	0xbe4ae549	-0.19814028
58	0xbd27871a	-0.040900327
59	0xbed70b5c	-0.42000854
60	0x3ebd3951	0.3695779
61	0x3efbe874	0.49200785
62	0xbd989c69	-0.07451708
63	0x3e93341a	0.28750688
64	0x3ea10f21	0.31456855
65	0x3cf137c5	0.029445538
66	0xbe69993c	-0.2281236
67	0x3e9105be	0.28324693
68	0x3d5761ef	0.05258363
69	0xbea2bba3	-0.3178378
70	0xbd96da50	-0.073658586
71	0xbe6df014	-0.23236114
72	0x3ef5cbce	0.48007053
73	0xbe9c50f6	-0.30530518
74	0x3db6dcf8	0.08928865
75	0xbef21326	-0.47280234
76	0x3e84c235	0.25929418
77	0xbec3ab70	-0.38216734
78	0xbead3f9e	-0.338376
79	0x3e3462be	0.17615792
80	0x3e97dda4	0.29661286
81	0x3ecd41cb	0.4008926
82	0xbecd4d3c	-0.40097988
83	0xbe56e411	-0.20985438
84	0xbe2b0472	-0.16700915
85	0x3cdd89a0	0.027043164
86	0xbecb0ea2	-0.396596
87	0x3da9d4c2	0.082925335
88	0xbb848380	-0.0040439963
89	0x3ecba954	0.39777625
90	0xbedb4946	-0.4282934
91	0x3ec5fb71	0.38668397
92	0x3e2ac1ac	0.16675442
93	0x3ee92af4	0.45540583
94	0xbe65f6f0	-0.2245748
95	0x3e6bfce4	0.23045689
96	0xbe55f7e4	-0.20895344
97	0xbdfba4f3	-0.12287321
98	0xbec9fcdf	-0.39450738
99	0x3e553661	0.20821525
100	0x3e97475b	0.29546627
101	0x3e5a3319	0.21308555
102	0xbb065a57	-0.0020500624
103	0x3d93cd58	0.072169006
104	0x39f627f3	0.0004695054
105	0x3f074a5f	0.52847856
106	0xbe8bf887	-0.2733805
107	0x3e1aba6d	0.15110178
108	0x3f0c8996	0.5489744
109	0xbdbb3263	-0.0914047
110	0xbeaf0b58	-0.34188342
111	0x3ecbfde5	0.39842144
112	0x3f05fb3a	0.52336466
113	0x3e9e6e7f	0.30943677
114	0x3eefe650	0.46855402
115	0x3e97ac79	0.29623774
116	0x3e8740c6	0.26416606
117	0xbe967236	-0.2938401
118	0xbedd2efa	-0.43199903
119	0xbe625c58	-0.22105539
120	0xbd3374bf	-0.04381251
121	0xbec95b14	-0.393273
122	0xbc41c280	-0.011826158
123	0xbeeb549f	-0.45962998
124	0x3e55cee7	0.20879708
125	0x3eeef197	0.46668693
126	0x3de5afaa	0.11215146
127	0xbeeef91e	-0.46674436

network.2.weight f4 [64, 128]
0	0x3d92eb98	0.07173842
1	0x3c3bdfa2	0.011466892
2	0xbd9adb58	-0.07561368
3	0xbbf762c8	-0.0075496174
4	0xbd47c7e8	-0.04877463
5	0x3bf4989a	0.0074644806
6	0xbcfd98aa	-0.030956585
7	0xbbe80a18	-0.0070812814
8	0x3d0d1898	0.034447283
9	0xbd94c32d	-0.07263789
10	0xbcada674	-0.021197535
11	0x3d75ae13	0.059980463
12	0xbdac7776	-0.08421223
13	0xbb8fbfc8	-0.004386876
14	0xbce47e8c	-0.027892374
15	0x3d1e698e	0.038674884
16	0xbd7ffd6e	-0.06249755
17	0xbcfb2297	-0.030656142
18	0x3da51c45	0.080620326
19	0xbc86c44b	-0.016451022
20	0x3d8e20d2	0.06939854
21	0xbd1aa35a	-0.03775344
22	0x3db07cbf	0.086175434
23	0xbc53399b	-0.012892152
24	0xbd8a6748	-0.067579806
25	0x3d1d3d7a	0.038388707
26	0xbb739025	-0.0037164774
27	0x3ce946c5	0.028476128
28	0xbd4f2d13	-0.050580095
29	0x3bfd34a8	0.0077272244
30	0xbd9efd2d	-0.07763133
31	0xbd1b6938	-0.03794214
32	0x3d93754e	0.072001085
33	0xbd462ede	-0.04838454
34	0x3d741aed	0.05959599
35	0xbd3d8687	-0.046270873
36	0xbc890457	-0.016725702
37	0xbc8d4e31	-0.017249199
38	0x3cd071b4	0.025444843
39	0x3d9af3a1	0.07566
40	0xbd93f488	-0.07224375
41	0xbc4bf6f9	-0.01244902
42	0x3d03e76e	0.03220313
43	0xbd0ea583	-0.034825813
44	0xbcf13896	-0.029445928
45	0x3c51a069	0.012794592
46	0xbc8e6f7c	-0.017387144
47	0x3da1908c	0.07888898
48	0xbcd4629c	-0.025925927
49	0xbbf3bb31	-0.0074380864
50	0x3d55b30a	0.052172698
51	0xbd5cbdda	-0.053891994
52	0xbd7f8347	-0.062381055
53	0xbcb7f599	-0.022455977
54	0xbd6117ca	-0.054954328
55	0x3c867ee8	0.016417935
56	0x3d7f37a9	0.06230894
57	0x3d60e204	0.054903045
58	0x3d280011	0.04101569
59	0xbd9a4d3d	-0.07534263
60	0xbbfdf1e5	-0.0077497833
61	0x3d5fc2c6	0.05462911
62	0xbb904255	-0.0044024386
63	0xbbc346ae	-0.0059593534
64	0xbd6a9891	-0.057274405
65	0x3c2bb507	0.010480172
66	0xbc018a07	-0.007906443
67	0xbcc89903	-0.024487024
68	0x3d6ce470	0.057835042
69	0xbcadcaa1	-0.021214785
70	0xbca977e5	-0.020687053
71	0x3cf8ecba	0.030386318
72	0x3c5f68d4	0.013635833
73	0x3d9317d9	0.07182283
74	0x3d6c8035	0.057739455
75	0xbb8ee9e2	-0.004361377
76	0xbd86f18f	-0.065890424
77	0xbb882ba8	-0.004155595
78	0x3ca60add	0.020268852
79	0x3ce791cc	0.028267764
80	0x3b0f6025	0.0021877375
81	0x3ce6a4e0	0.02815479
82	0xbd2c9210	-0.042131484
83	0x3d08dec1	0.03341556
84	0xbd593209	-0.053026233
85	0xbd803a32	-0.062611
86	0x3d9ab413	0.07553878
87	0xbd279264	-0.040911093
88	0xbd89ec8e	-0.06734572
89	0xbc4f8746	-0.012666529
90	0x3d5c34c3	0.053761255
91	0xbb160e1b	-0.002289659
92	0x3d13dc4c	0.036098763
93	0xbd043b91	-0.03228337
94	0xbc2330aa	-0.009960333
95	0xbd2f141b	-0.042743783
96	0xbd8a0e53	-0.067410134
97	0x3d8fec2f	0.0702747
98	0xbda10d95	-0.07863919
99	0xbcb9329a	-0.022607137
100	0xbc1268a3	-0.00893608
101	0xbd8564ea	-0.065133885
102	0x3da2d04c	0.07949886
103	0xbb0c907d	-0.0021448426
104	0xbda703c6	-0.081550166
105	0xbd9b2210	-0.07574856
106	0x3d1d467c	0.038397297
107	0xbd65f194	-0.05613859
108	0xbd849ecb	-0.064756
109	0xbc5fba47	-0.013655252
110	0xbc25a8f3	-0.010111081
111	0xbd95f40f	-0.07321941
112	0xbc60344c	-0.013684344
113	0xbd45f18f	-0.04832607
114	0xbda64d94	-0.081202656
115	0xbc38529b	-0.011250163
116	0x3da51d7f	0.080622666
117	0xbd0a646d	-0.03378718
118	0x3c4be60c	0.012444984
119	0xbd967b70	-0.073477626
120	0x3d6c6904	0.05771734
121	0x3bf0b6ad	0.0073459954
122	0xbd63e224	-0.055635586
123	0x3d77f6bb	0.060538035
124	0xbd9f23bc	-0.07770488
125	0xbd5698b7	-0.052391734
126	0x3d379c2f	0.044826683
127	0xbb9a2034	-0.004703546
128	0xbd8e9c11	-0.06963361
129	0x3d866735	0.06562654
130	0x3d652b93	0.05594976
131	0xbc348aee	-0.011019452
132	0x3d3b97d6	0.0457991
133	0x3dd9e406	0.10639195
134	0x3e0b6628	0.13613188
135	0xbcda2228	-0.026627615
136	0x3bed52b6	0.007242526
137	0x3b8a9cf9	0.0042301384
138	0x3e0d8da5	0.13823564
139	0x3d98c5bb	0.07459589
140	0x3ded276f	0.11579787
141	0x3b121d1b	0.002229518
142	0x3d1aeec7	0.037825372
143	0x3da829fa	0.082111314
144	0xbceb6ad2	-0.02873746
145	0x3dc81791	0.0977012
146	0x3e13b192	0.14423206
147	0x3d9c74f0	0.076394916
148	0x3df77322	0.12082507
149	0x3d837b8d	0.0642005
150	0x3da844a5	0.08216218
151	0x3db2aa1c	0.08723852
152	0x3a314232	0.0006761878
153	0x3ce569da	0.028004576
154	0xbbff8c15	-0.0077986815
155	0xbc77383b	-0.01508909
156	0x3a808dfb	0.0009807938
157	0x3ddf3c02	0.109001175
158	0x3af3d434	0.001860267
159	0x3cca1523	0.024668282
160	0x3d432ec3	0.047652017
161	0xbcdc3c84	-0.026884325
162	0x3d1cd597	0.038289633
163	0xbd6c5cd3	-0.05770571
164	0xbda53efa	-0.080686525
165	0x3da1bf4e	0.078978166
166	0x3d5bbdc5	0.053647775
167	0xbd333ab9	-0.043757174
168	0x3d5ccb66	0.053904913
169	0x3dc82cbf	0.0977416
170	0xbb50a7a1	-0.0031838196
171	0x3e0ee19b	0.13953249
172	0xbd10db55	-0.03536542
173	0x3bc74b6d	0.0060819895
174	0xbd6f9f6f	-0.058501657
175	0x3d79b4b8	0.060963362
176	0xbd039b1b	-0.032130342
177	0xbd5b28b4	-0.053505614
178	0x3d4052cd	0.046953965
179	0x3ba00a8a	0.004884069
180	0x3dd6dfbb	0.10491892
181	0xbcb8497b	-0.022495976
182	0x3e150d36	0.14555821
183	0x3d6755f6	0.056478463
184	0x3d931e76	0.07183544
185	0x3e014d72	0.126272
186	0xbc5f9e0d	-0.013648522
187	0xbcdfbcd7	-0.027311726
188	0x3dcbc4d4	0.09949651
189	0x3d998a1c	0.074970454
190	0x3d28d0db	0.041214805
191	0x3dd43f9a	0.103636935
192	0x3d878940	0.06617975
193	0x3e078da2	0.13237622
194	0x3cb002f1	0.021485778
195	0xbd0b0442	-0.033939607
196	0x3c1dbdf0	0.009627804
197	0xbcebb552	-0.028772984
198	0xbda7728d	-0.08176146
199	0x3d4b9143	0.04969908
200	0xbcc4803a	-0.023986924
201	0xbc87ed47	-0.016592635
202	0x3d3d6332	0.04623718
203	0x3ce75a7d	0.02824139
204	0x3d8aa1f3	0.067691706
205	0x3dae9678	0.085247934
206	0xbc90a40f	-0.017656354
207	0x3d203a2e	0.039117984
208	0x3e080d8d	0.13286419
209	0x3d2f4433	0.04278965
210	0x3cb516b7	0.022105558
211	0xbbde1d62	-0.006778405
212	0x3d05aa70	0.032633245
213	0x3d8b215e	0.06793474
214	0x3cd000a7	0.025390936
215	0x3cc13b94	0.02358798
216	0x3d428659	0.047491405
217	0x3d86d2d3	0.0658318
218	0x3c1a7afc	0.009428736
219	0xbc25683b	-0.010095651
220	0x3d77530e	0.06038194
221	0x3d04737d	0.0323367
222	0x3dc1f710	0.094709516
223	0x3aef08d0	0.0018236879
224	0xbd033310	-0.03203112
225	0x3dcdfd55	0.10058085
226	0x3d283a52	0.041071244
227	0x3d4418f5	0.047875363
228	0xbd04c05b	-0.032410007
229	0x3e1d98e6	0.15390357
230	0x3dd88da6	0.10573892
231	0x3d5b0265	0.05346908
232	0x3d1e8dc4	0.038709417
233	0x3de3853a	0.11109395
234	0x3e0ae666	0.13564453
235	0x3dcf33f5	0.10117332
236	0x3bcf53eb	0.0063271425
237	0x3e012f69	0.12615742
238	0xbd4fefc5	-0.05076577
239	0xbcacfca0	-0.021116555
240	0x3cba3ff4	0.022735573
241	0xbcfe065a	-0.031008888
242	0xbcce7c10	-0.025205642
243	0x3b6a07ed	0.003571029
244	0x3c980591	0.018557342
245	0x3d7c564b	0.061605733
246	0xbd8c5fd7	-0.068542175
247	0xbda61a54	-0.081104904
248	0x3d9aee52	0.07564987
249	0x3dba6246	0.091007754
250	0x3d785f24	0.06063761
251	0x3dd2f7b4	0.10301152
252	0x3db67912	0.08909811
253	0x3e981297	0.29701683
254	0x3d7d55ed	0.061849523
255	0xbc21a54d	-0.009866071

network.2.bias f4 [64]
0	0xbbcba7f4	-0.00621509
1	0x3c75b342	0.014996352
2	0xbab7d497	-0.0014025149
3	0xbd8d78d5	-0.069078125
4	0x3cc54e45	0.024085173
5	0x3d0ca279	0.034334633
6	0x3de21b35	0.110403456
7	0xbb037d82	-0.0020063822
8	0xbd78d315	-0.06074818
9	0x3d2e98f5	0.04262634
10	0x3d6775f2	0.056508966
11	0xbcd126ab	-0.025531134
12	0xbc1040eb	-0.00880454
13	0xbcf5011a	-0.029907752
14	0x3dd2cfd9	0.1029355
15	0xbc342160	-0.010994285
16	0x3cb45472	0.022012923
17	0x3dbe4660	0.09290767
18	0x3da5c354	0.080938965
19	0xbc3ec10f	-0.011642708
20	0xbd8c5df1	-0.068538554
21	0x3b2ae72c	0.002607773
22	0xbd951fa4	-0.072814256
23	0x3daf831b	0.08569928
24	0xbdc8b4d4	-0.09800115
25	0x3e082b83	0.13297848
26	0xbcce518f	-0.025185375
27	0xbce102e0	-0.027467191
28	0x3d520028	0.05126968
29	0x3d6fab83	0.058513176
30	0x3c6d8883	0.014497879
31	0x3d46757b	0.04845188
32	0x3d9c5954	0.076342255
33	0x3b864e45	0.004098686
34	0x3df67cfd	0.120355584
35	0xbd99ad9e	-0.07503818
36	0x3d295266	0.041338347
37	0xbdadd068	-0.08487016
38	0xbd0cb4bd	-0.034352053
39	0x3ced37b5	0.028957227
40	0x3c15aea5	0.009135877
41	0x3c2daacd	0.010599804
42	0x3d5d8e9a	0.054091074
43	0x3d9f0969	0.07765467
44	0xbd8367af	-0.064162605
45	0xbc397d9c	-0.0113214515
46	0xbc058a59	-0.00815066
47	0xbd66f4a2	-0.056385644
48	0xbda1aef3	-0.07894697
49	0xbcb27734	-0.021785356
50	0xbb128df8	-0.0022362452
51	0x3d4b3694	0.049612597
52	0x3bd867c5	0.006604167
53	0x3dbf2ae7	0.09334355
54	0x3dad4746	0.0846086
55	0x3d62758e	0.05528789
56	0x3d6fe051	0.058563534
57	0x3d02bfe8	0.031921297
58	0xbc4447a0	-0.011979967
59	0xbd9cc266	-0.07654266
60	0x3b0e789a	0.0021739365
61	0x3cf224e4	0.029558606
62	0x3d100e29	0.035169754
63	0xbad7b816	-0.001645806

network.4.weight f4 [32, 64]
0	0xbdbdcbc0	-0.09267378
1	0xbd1cc0fd	-0.038269985
2	0x3ccfb02a	0.025352556
3	0x3b807560	0.003920242
4	0x3cf2d679	0.029643284
5	0x3e168386	0.1469861
6	0xbcf94514	-0.030428447
7	0x3e34870a	0.17629638
8	0x3de067b8	0.10957283
9	0x3d7f731b	0.062365633
10	0x3c3f40c0	0.011673152
11	0x3e1d3b4e	0.15354654
12	0x3e177a42	0.14792731
13	0x3d7cd274	0.06172414
14	0x3d05330b	0.03251938
15	0x3de3a474	0.11115351
16	0x3d7bed3a	0.061505534
17	0x3dff90ff	0.12478828
18	0x3b2fbf80	0.0026817024
19	0xbda9b82a	-0.0828708
20	0x3d7ddc74	0.06197782
21	0x3d26b2a0	0.040697694
22	0x3da0a08e	0.078431234
23	0x3bfd582a	0.0077314572
24	0xba23b06a	-0.0006244244
25	0x3e490e83	0.19634442
26	0x3dd3752d	0.10325084
27	0x3dad8a9e	0.08473705
28	0x3df71b6c	0.12065777
29	0x3e1ecf1d	0.15508695
30	0x3e2af36d	0.16694422
31	0xbd6187c2	-0.05506111
32	0xbc86d56a	-0.016459186
33	0x3d9307a0	0.07179189
34	0x3e39fcfd	0.18162914
35	0xbd3cad34	-0.046063617
36	0xbdb03bd8	-0.08605164
37	0xbdfef614	-0.124492794
38	0x3c143d40	0.009047806
39	0xbd8db193	-0.06918635
40	0x3cf05d54	0.029341377
41	0x3e092fee	0.1339719
42	0xbcc63450	-0.024194866
43	0x3e0c816a	0.13721243
44	0x3c938b18	0.018010661
45	0x3d882cf9	0.06649203
46	0xbca3b387	-0.019983066
47	0x3db03b70	0.08605087
48	0xbde3ae17	-0.111171894
49	0x3ca08d6c	0.019598685
50	0x3e07a91e	0.13248107
51	0x3d0f42a7	0.034975674
52	0x3cc727d8	0.024310991
53	0x3d68f38c	0.05687289
54	0x3e03d47d	0.12874027
55	0x3dae2edd	0.08505032
56	0x3cf36760	0.029712379
57	0xbb4c8880	-0.003120929
58	0x3d24d0d4	0.040238217
59	0xbd8fdf8c	-0.0702506
60	0x3cc506f3	0.024051165
61	0x3d31a787	0.043372657
62	0xbc194730	-0.009355351
63	0xbca7a699	-0.020465182
64	0xbdf2d378	-0.11856741
65	0x3ea4cf94	0.3218962
66	0x3d8f959e	0.07010959
67	0x3dcf26c2	0.10114814
68	0x3db7b197	0.089694194
69	0x3dbc7d0e	0.0920354
70	0x3eaacc31	0.3335891
71	0x3e80a0d0	0.2512269
72	0xbd4f13e0	-0.050556064
73	0x3e82be4a	0.25535804
74	0xbd51d704	-0.051230446
75	0x3e6cb82e	0.23117134
76	0x3e20c718	0.15700948
77	0x3e666f68	0.22503436
78	0x3e56071f	0.20901154
79	0x3db83c9c	0.08995935
80	0x3df17848	0.1179052
81	0x3ea5f121	0.3241053
82	0xbd8495d0	-0.06473887
83	0x3d82b8c6	0.06382899
84	0x3dcd7d88	0.10033709
85	0xbdc91d96	-0.09820096
86	0x3ccaf6a8	0.024775818
87	0x3e9cf09d	0.30652323
88	0x3d6d6a40	0.057962656
89	0x3ec26c35	0.3797318
90	0x3e3a0dcf	0.1816933
91	0x3d90ad78	0.070643365
92	0x3e246db4	0.16057473
93	0x3db7498a	0.08949573
94	0x3e9ae612	0.30253655
95	0x3c6c8b70	0.014437541
96	0x3dd59b8c	0.10430059
97	0xbd72f5f8	-0.059316605
98	0x3ea584d5	0.32327905
99	0xbd8c435c	-0.06848785
100	0xbdf84930	-0.121233344
101	0x3deec026	0.11657743
102	0xbd467d34	-0.048459247
103	0x3da5954c	0.08085117
104	0x3e8252f8	0.25453925
105	0x3e076a27	0.13224088
106	0x3d638f18	0.055556387
107	0x3e147d83	0.14501004
108	0xbcf12088	-0.029434457
109	0x3e5e3fb9	0.21703996
110	0x3e496266	0.19666442
111	0x3c421b70	0.011847362
112	0x3dee34ea	0.11631186
113	0x3db1a14c	0.08673343
114	0x3d69e9e0	0.057107806
115	0x3db50142	0.088381305
116	0x3e321fd8	0.1739496
117	0x3e9b5455	0.30337778
118	0x3e359e70	0.1773622
119	0x3de2dbc4	0.11077073
120	0x3e5bdd3a	0.2147111
121	0xbcc06ce0	-0.023489416
122	0xbddd0940	-0.1079278
123	0x3ca31588	0.019907728
124	0x3a119e00	0.0005554855
125	0xbdf76d40	-0.12081385
126	0x3db9bdde	0.090694174
127	0x3e774bb7	0.24149977
128	0xbd104658	-0.035223335
129	0xbda7dc73	-0.08196344
130	0xbdd60d4e	-0.104517564
131	0xb9c16600	-0.00036887825
132	0xbddc792b	-0.107652985
133	0x3d2f80ea	0.04284755
134	0xbc82b3ad	-0.015954817
135	0xbd47d304	-0.048785225
136	0xbc049010	-0.008090988
137	0x3dce2ec5	0.10067514
138	0x3d841b14	0.06450477
139	0x3c9d91b9	0.019234525
140	0xbdeb8cff	-0.11501502
141	0x3da27728	0.079328835
142	0x3da848fb	0.08217045
143	0x3b397961	0.0028301107
144	0xbca94fa8	-0.020667866
145	0x3d85aa20	0.065265894
146	0xbdb2db32	-0.087332144
147	0x3ca525c0	0.020159602
148	0xbc138580	-0.009003997
149	0x3dea885a	0.11451788
150	0x3c6689d0	0.014070943
151	0x3d108489	0.035282645
152	0x3d9c0dc9	0.07619817
153	0xbdf4a00a	-0.119445875
154	0x3db6a411	0.08918012
155	0x3da76b1e	0.08174728
156	0x3d3218e4	0.04348077
157	0xbc6aee4b	-0.01433904
158	0xbe02df9d	-0.12780614
159	0xb9c1d44a	-0.00036969996
160	0x3d067dae	0.0328347
161	0xbd59dc1c	-0.05318843
162	0xbdfac38a	-0.12244327
163	0xbd0dd76a	-0.034629263
164	0x3d0dcf73	0.034621667
165	0x3d8830c2	0.06649925
166	0x3db462d0	0.088079095
167	0xbc413b30	-0.011793897
168	0xbdd6d90c	-0.10490617
169	0x3d97ac72	0.07405938
170	0xbcfbc7f8	-0.030735001
171	0xbc87460d	-0.016512895
172	0xbc6835f0	-0.014173016
173	0xbe0a911e	-0.1353192
174	0x3b39803a	0.0028305189
175	0x3d8d51e4	0.06900385
176	0xbd93205d	-0.07183907
177	0xbd8b4acf	-0.06801378
178	0x3d9b14e6	0.075723454
179	0x3dba86fc	0.091077775
180	0xbdb1a049	-0.0867315
181	0xbd52567d	-0.051352013
182	0x3d79f7be	0.06102728
183	0x3cb9b49b	0.022669127
184	0x3db600bb	0.08886858
185	0x3d7ddc5c	0.06197773
186	0x3d6d4e68	0.057936102
187	0xbd54042d	-0.051761795
188	0xbdf1b0d2	-0.11801304
189	0xbd5133c0	-0.051074743
190	0x3d4773f0	0.04869455
191	0xbdd29e1d	-0.10284064
192	0x3d0a3370	0.03374046
193	0x3d691c1f	0.056911584
194	0xbcc5f7fe	-0.024166103
195	0x3d168e30	0.036756694
196	0x3e18f05e	0.14935443
197	0xbc92e54a	-0.0179316
198	0xbd51f2c3	-0.051256906
199	0x3e32841e	0.17433211
200	0xbd618aa4	-0.05506386
201	0x3e3b25b3	0.182761
202	0x3da9ad96	0.08285062
203	0x3d4d9f33	0.050200652
204	0x3dea90b6	0.11453383
205	0x3e0fe88a	0.1405355
206	0xbc97d503	-0.01853419
207	0xbcc395d3	-0.023875153
208	0xbdfabb14	-0.122427136
209	0x3e1f9615	0.15584596
210	0x3dbe08f6	0.09279053
211	0xbd876a54	-0.06612077
212	0xbca5ff80	-0.020263433
213	0xbb786440	-0.003790155
214	0xbcfc7ef8	-0.030822262
215	0x3e16d625	0.14730127
216	0xbdb51ee9	-0.08843786
217	0x3e3825b3	0.17983131
218	0x3de5230f	0.111883275
219	0xbdd3b406	-0.10337071
220	0x3d9087e6	0.070571706
221	0x3dc7b827	0.09751921
222	0xbd8578ad	-0.06517158
223	0x3db42ca5	0.08797578
224	0x3ba24fcd	0.0049533607
225	0xbda5b422	-0.08090998
226	0x3e1d7a3f	0.15378664
227	0xbda1240a	-0.07868202
228	0xbd886607	-0.06660085
229	0x3cfce7d8	0.03087227
230	0x3b3c1800	0.0028700829
231	0x3dbf950c	0.093546
232	0x3d824ce5	0.06362323
233	0xbc4bdf9f	-0.012443452
234	0xbc8b6700	-0.017016888
235	0x3e0e6f16	0.13909563
236	0xbd491428	-0.049091488
237	0x3d0e6c43	0.034771215
238	0x3e032638	0.12807548
239	0x3dbc60c4	0.09198144
240	0xbd7abe15	-0.061216433
241	0x3cdb4e04	0.0267706
242	0xbd91c466	-0.07117538
243	0x3cd82a77	0.026387436
244	0xbd3f1309	-0.046649013
245	0x3dbd04aa	0.09229405
246	0x3dcf3237	0.101169996
247	0x3d45dec8	0.048308164
248	0x3df5c258	0.11999959
249	0xbcc2a180	-0.02375865
250	0x3d95476a	0.07289012
251	0x3dca8c4b	0.0989004
252	0x3d73383d	0.059379805
253	0x3db2aa52	0.08723892
254	0xbdcf108c	-0.10110578
255	0x3e155e65	0.1458679

network.4.bias f4 [32]
0	0x3dd6bc18	0.10485095
1	0x3e3f82a8	0.18702185
2	0xbdbc7c14	-0.092033535
3	0x3db88917	0.09010523
4	0x3dafe585	0.08588699
5	0x3c85e778	0.016345724
6	0x3d907205	0.070529975
7	0x3e217a77	0.15769373
8	0x3db7cd56	0.089747116
9	0xbe022bbd	-0.12711997
10	0x3cf27652	0.029597435
11	0xbdb73ed2	-0.08947529
12	0x3d7d1d3e	0.061795466
13	0x3e111cb7	0.1417111
14	0x3e26e00e	0.16296408
15	0x3da63811	0.081161626
16	0x3d29d291	0.041460577
17	0x3a99db94	0.0011738413
18	0xbdf39050	-0.1189276
19	0xbd859041	-0.06521655
20	0x3df6b08c	0.120453924
21	0xbcac55c8	-0.021036997
22	0x3db114e3	0.08646562
23	0x3d6321ac	0.055452034
24	0xbcdaf4ae	-0.026728
25	0x3d50672c	0.050879642
26	0x3d4f5414	0.050617293
27	0x3d354d7a	0.04426334
28	0x3d9da32d	0.07697139
29	0xbd9f5cbc	-0.077813596
30	0x3d64f696	0.055899225
31	0xbde8250a	-0.1133519

network.6.weight f4 [1, 32]
0	0x3e393240	0.18085575
1	0x3f0c8bc8	0.5490079
2	0xbcf9dad8	-0.03049986
3	0x3e0763df	0.13221692
4	0x3d9e2037	0.07720988
5	0xbe04593c	-0.12924665
6	0xbd36a538	-0.04459116
7	0x3e262eff	0.16228865
8	0x3e3d532d	0.1848876
9	0xbd91a8cf	-0.07112276
10	0xbdfad7d1	-0.12248195
11	0xbe062ea0	-0.13103724
12	0x3da4ae49	0.08041055
13	0x3d9cb4c4	0.07651666
14	0x3e636b8a	0.22208992
15	0xbc516fba	-0.012782985
16	0xbdbfc600	-0.093639374
17	0xbda88fbe	-0.08230542
18	0xbdd4f3b6	-0.10398047
19	0xbd43a97c	-0.047769055
20	0x3dd7b42a	0.105324104
21	0xbdc83c56	-0.09777133
22	0x3e110ce4	0.14165074
23	0xbd3b6f0d	-0.045760203
24	0xbe0f9475	-0.14021476
25	0xbde57ba1	-0.11205221
26	0xbe0eac34	-0.13932878
27	0x3e3214fa	0.17390814
28	0x3e4ad4ca	0.19807735
29	0x3e1242eb	0.1428334
30	0x3db632d6	0.08896415
31	0xbd36c010	-0.04461676

network.0.weight f4 [128, 3]
0	0x3d8ea2fe	0.06964682
1	0x3e3504f3	0.17677669
2	0x3b992b63	0.0046743616
3	0xbeb0487e	-0.34430307
4	0xbe3957bf	-0.18099879
5	0x3e1c6755	0.15273793
6	0xbeda1fe5	-0.4260246
7	0xbe34540b	-0.17610185
8	0xbd81b3f2	-0.0633315
9	0xbf90c3f2	-1.1309798
10	0xbf10060d	-0.5625923
11	0xbcd14906	-0.025547516
12	0xbea946a6	-0.33061713
13	0xbed74ce1	-0.4205084
14	0x3ca8381f	0.020534573
15	0xbed356ed	-0.41277257
16	0xbd2ca3e0	-0.04214847
17	0xbeddf473	-0.43350562
18	0x3e59cea1	0.21270229
19	0xbe12a481	-0.14320566
20	0x3e8bd954	0.27314246
21	0xbe28f646	-0.16500196
22	0x3e1b34e1	0.1515689
23	0x3d3d0ea2	0.046156533
24	0xbf3ecd1d	-0.7453173
25	0xbedb5228	-0.42836118
26	0x3eb9b737	0.36272594
27	0xbf44bae7	-0.7684769
28	0xbf0b0a61	-0.5431271
29	0xbbd9d0f2	-0.0066472227
30	0xbebd83ac	-0.3701452
31	0x3e817f68	0.25292516
32	0xbebb5de1	-0.3659506
33	0x3eb00034	0.34375155
34	0xbf2941c8	-0.66116
35	0x3e6ce0ec	0.23132676
36	0xbe8d28fb	-0.27570328
37	0xbeac939a	-0.3370636
38	0x3e543815	0.20724519
39	0xbe2ae464	-0.16688687
40	0xbebee563	-0.37284383
41	0xbf04310b	-0.51637334
42	0xbf86c40f	-1.0528582
43	0xbf3bc5ac	-0.733485
44	0xbd495752	-0.04915554
45	0xbe0bdeff	-0.13659285
46	0x3de59b8c	0.11211309
47	0xbeaf2612	-0.34208733
48	0xbfb20ce6	-1.3910186
49	0xbed51c78	-0.41623282
50	0x3e858947	0.26081297
51	0xbe012722	-0.12612584
52	0x3e4baaae	0.19889328
53	0xbeacc1d7	-0.33741638
54	0xbeeb717e	-0.45985025
55	0xbedb22f6	-0.4280011
56	0x3ee2b4ec	0.44278657
57	0xbf9906ab	-1.195516
58	0xbea6aec3	-0.32555208
59	0xbe8bf6fa	-0.27336866
60	0x3d62d313	0.055377077
61	0xbee161a7	-0.44019815
62	0xbedb259a	-0.42802125
63	0x3dad608e	0.08465682
64	0xbf958053	-1.1679786
65	0xbd3d4a2a	-0.046213306
66	0xbeb1edfa	-0.34751874
67	0xbe7e0389	-0.24806036
68	0xbed9b7f1	-0.4252315
69	0xbf0a5842	-0.5404092
70	0xbd7fa397	-0.06241187
71	0x3e77e019	0.2420658
72	0xbf69c633	-0.91318053
73	0xbf13cb1a	-0.57731783
74	0x3d6bbabc	0.05755113
75	0x3e8e4f88	0.27795053
76	0x3c8c5452	0.01713005
77	0xbe632cfb	-0.22185127
78	0x3e9d3ce1	0.3071051
79	0xbf5c14fd	-0.85969526
80	0xbd7f4ac6	-0.06232717
81	0xbd74dc81	-0.0597806
82	0xbf0adb77	-0.54241127
83	0xbf0ec67e	-0.55771625
84	0x3e969e6e	0.29417747
85	0x3d379dfb	0.044828396
86	0x3e40e929	0.18838944
87	0x3dc5bce4	0.09655169
88	0xbf861da7	-1.0477799
89	0xbe5ca091	-0.21545626
90	0x3ca00585	0.019533882
91	0x3dbb9d35	0.09160844
92	0xbe87f72a	-0.2655576
93	0xbeed2829	-0.46319702
94	0x3e38b7c4	0.18038851
95	0xbec5b9cb	-0.3861831
96	0xbe9e1a2d	-0.30879346
97	0x3aa5ebe0	0.0012658797
98	0xbb973ff8	-0.00461578
99	0x3b97cef2	0.004632824
100	0xbe895a84	-0.2682687
101	0x3de300e2	0.11084153
102	0xbe80998f	-0.25117156
103	0x3e599c83	0.2125111
104	0x3c82ca5b	0.015965631
105	0xbe1fa991	-0.15592028
106	0xbeb10c96	-0.34579915
107	0xbebfd7a0	-0.37469196
108	0xbcde52ab	-0.027139029
109	0xbeab0057	-0.33398697
110	0x3e88bffb	0.2670897
111	0x3de6e37a	0.112738565
112	0xbf61636a	-0.8804232
113	0xbe30e1fa	-0.17273703
114	0x3d55831a	0.05212698
115	0xbce907d8	-0.028446123
116	0xbe5c7e5b	-0.21532576
117	0xbd5b28bc	-0.053505644
118	0xbe94c172	-0.29053837
119	0xbe824143	-0.25440416
120	0xbead7ed6	-0.3388583
121	0x3ef40091	0.47656682
122	0x3df6fadb	0.12059566
123	0x3c073eb7	0.0082546985
124	0xbd09d4ed	-0.033650327
125	0x3e7c2b8f	0.24625991
126	0x3e601dd0	0.21886373
127	0x3e90905f	0.28235146
128	0xbefc4a60	-0.49275494
129	0xbde1ab35	-0.11018983
130	0xbe05ac41	-0.13053991
131	0xbeaa37e8	-0.33245778
132	0x3db5e784	0.08882049
133	0xbfa5f3b9	-1.2965003
134	0x3d7b9bda	0.06142793
135	0xbdcf3329	-0.1011718
136	0x3ef0ebfe	0.47055048
137	0xbe9dcc2d	-0.30819836
138	0xbef4f17d	-0.4784049
139	0x3d6814f3	0.056660604
140	0xbee0a785	-0.43877807
141	0xbf03bb4f	-0.51457685
142	0xbead4ed6	-0.3384921
143	0x3d224317	0.039614763
144	0x3dee9ccd	0.11651001
145	0xbcf8f0c7	-0.03038825
146	0x3e1a1c49	0.15049852
147	0x3eac4ae4	0.33650887
148	0xbbcac68a	-0.0061882185
149	0x3cb44310	0.022004634
150	0xbf447f80	-0.7675705
151	0xbee7a5a9	-0.45243576
152	0xbe612b8e	-0.21989271
153	0xbc87e21d	-0.016587311
154	0xbb41d5e3	-0.002957695
155	0xbda8ca57	-0.08241718
156	0xbf8582d5	-1.0430552
157	0x3ccf1804	0.025280006
158	0xbe898282	-0.26857382
159	0x3dae05ea	0.08497222
160	0x3e342951	0.17593886
161	0xbf198f20	-0.59984016
162	0xbec46ae5	-0.38362804
163	0xbd7f52d5	-0.062334854
164	0xbeabcba8	-0.33553815
165	0x3f01b5f4	0.50668263
166	0xbde1872c	-0.1101211
167	0xbf189f3f	-0.5961799
168	0xbdd73176	-0.10507481
169	0xbf11ed6e	-0.57002914
170	0xbe73caa0	-0.23807764
171	0xbdcd1988	-0.10014635
172	0xbe912375	-0.28347364
173	0x3d3cae10	0.046064436
174	0x3e9a3111	0.3011556
175	0x3e1abcfe	0.15111157
176	0xbf007d20	-0.50190926
177	0x3e5420c5	0.20715626
178	0x3e1b003d	0.1513681
179	0x3e9eb442	0.309969
180	0xbe3fd213	-0.1873248
181	0xbe3ed197	-0.1863464
182	0x3ee3f8c3	0.44525728
183	0xbe48bb28	-0.19602644
184	0xbe9b84a9	-0.3037465
185	0xbec31246	-0.3809988
186	0x3e8bb5b6	0.27287072
187	0xbefdd9b0	-0.49580145
188	0xbf1122cc	-0.5669372
189	0xbe24685b	-0.16055433
190	0xbe4c0be6	-0.19926414
191	0xbe0a181c	-0.1348576
192	0xbcb84abb	-0.022496572
193	0xbe77d289	-0.24201407
194	0xbe9ed231	-0.31019738
195	0xbf081d8b	-0.5317008
196	0xbea8c25a	-0.32960778
197	0x3e129d80	0.14317894
198	0xbf0e6da5	-0.55636054
199	0xbec1b325	-0.3783199
200	0xbd302d04	-0.04301168
201	0xbea634b8	-0.32462096
202	0x3ee08fcf	0.43859717
203	0x3daa3846	0.083115146
204	0xbeb6e7d4	-0.35723746
205	0xbf06cd54	-0.52657056
206	0x3ed9996f	0.42499873
207	0xbd4ac31c	-0.049502477
208	0x3e4be1d1	0.19910361
209	0xbd7622c8	-0.060091764
210	0xbeb0ae06	-0.3450777
211	0xbe644daa	-0.22295251
212	0x3ea451f9	0.3209379
213	0xbe33c7da	-0.17556706
214	0xbf63b817	-0.88952774
215	0x3e2441fa	0.16040793
216	0xbf139499	-0.5764862
217	0x3f02c9c6	0.5108913
218	0xbedbab9c	-0.42904365
219	0x3e90bfd4	0.28271353
220	0x3e869dd9	0.26292303
221	0xbf00700a	-0.5017096
222	0xbdc93bcf	-0.09825861
223	0x3dbfee2c	0.093715996
224	0x3d450c71	0.04810757
225	0xbec79c09	-0.38986233
226	0xbdd44230	-0.10364187
227	0x3db0b9ed	0.086292125
228	0x3e7764ae	0.241595
229	0x3e1c3ed5	0.15258344
230	0xbf0f8698	-0.5606475
231	0xbf41a120	-0.7563648
232	0xbed2d408	-0.41177392
233	0xbeb8389a	-0.35980684
234	0xbfb756c2	-1.4323351
235	0x3cc57cce	0.024107363
236	0x3ec2b154	0.38025916
237	0x3ecbc9f5	0.39802518
238	0xbe4f18c9	-0.20224299
239	0xbf1b6d3e	-0.60713565
240	0xbe8c26df	-0.27373406
241	0x3dd35413	0.1031877
242	0x3e0fa908	0.14029324
243	0x3ecf8839	0.40533617
244	0xbe562b33	-0.20914917
245	0xbc93abed	-0.018026317
246	0x3e865db0	0.26243353
247	0xbeca3007	-0.39489767
248	0xbea29504	-0.31754315
249	0x3a2ead65	0.0006663411
250	0xbd8e6e92	-0.06954683
251	0xbebff17e	-0.3748893
252	0x3d65d309	0.056109462
253	0x3dcc1b82	0.09966184
254	0x3d45da33	0.048303794
255	0x3ec7410a	0.38916808

network.0.bias f4 [128]
0	0xbe80e2cf	-0.2517304
1	0xbee24b63	-0.4419814
2	0x3d778290	0.06042725
3	0x3e7aa119	0.24475516
4	0xbf083098	-0.5319915
5	0xbe6def3f	-0.23235796
6	0xbf0ec545	-0.5576976
7	0xbe4c4fdb	-0.19952337
8	0xbe8d14c9	-0.2755492
9	0x3dc7035b	0.09717437
10	0x3dd98e69	0.10622866
11	0x3ef3c1c7	0.47608778
12	0xbe54c50f	-0.20778297
13	0xbee9b93c	-0.45649135
14	0x3e8edd82	0.27903372
15	0x3e6a1403	0.22859196
16	0xbc1365d1	-0.008996443
17	0x3e0c371c	0.13692898
18	0xbd2166f2	-0.039404817
19	0x3eeb7187	0.45985052
20	0xbf099caa	-0.53754675
21	0xbd20a617	-0.039220896
22	0xbf0be129	-0.5464044
23	0xbe964dc7	-0.29356214
24	0x3dda6ef2	0.106656924
25	0xbe73a9b7	-0.2379521
26	0xbe7de8b3	-0.24795799
27	0x3ee02f29	0.4378598
28	0xbf196741	-0.5992318
29	0x3e936bd3	0.287932
30	0x3e038d4e	0.12846872
31	0xbdfb0225	-0.122562684
32	0x3e815f5d	0.2526807
33	0x3dc3db33	0.09563293
34	0x3ea10e2d	0.31456128
35	0x3eff2c10	0.49838305
36	0xbe8d01e3	-0.27540502
37	0x3e573bc0	0.21018887
38	0x3e26de79	0.16295804
39	0x3d7c8f94	0.061660364
40	0xbf18ea62	-0.5973264
41	0xbe83dfbb	-0.2575663
42	0xbc13ed4f	-0.009028747
43	0x3ea9c944	0.33161366
44	0xbe1af7e0	-0.1513362
45	0xbe29c723	-0.16579871
46	0xbdaf0217	-0.085453205
47	0x3e9bb3ab	0.30410513
48	0xbe8bd0a1	-0.2730761
49	0xbec0c087	-0.37646887
50	0x3e9f5455	0.31119028
51	0x3d1140dc	0.035462245
52	0x3eb1e5e0	0.34745693
53	0x3eac59ef	0.33662364
54	0x3ea8a31b	0.3293694
55	0x3e47be90	0.19506288
56	0xbe8c8921	-0.2744837
57	0xbefbc5bb	-0.49174294
58	0xbf0ec661	-0.5577145
59	0x3e912a6b	0.28352675
60	0xbee443e7	-0.44583055
61	0x3ec0d773	0.37664375
62	0x3e85a350	0.2610116
63	0x3e0912b5	0.13386042
64	0x3e9e86cf	0.30962226
65	0xbe1e46ee	-0.15456745
66	0xbd698b82	-0.05701781
67	0xbf08a7cc	-0.5338104
68	0xbf105e2a	-0.5639368
69	0xbec1691e	-0.3777551
70	0xbda8d457	-0.082436256
71	0xbe2786a6	-0.16359958
72	0xbf09c132	-0.5381042
73	0xbe9cff2a	-0.30663425
74	0xbe13f0f9	-0.14447393
75	0xbe86f329	-0.2635739
76	0x3e2a3e30	0.16625285
77	0x3ee48d5e	0.44639105
78	0xbd2b2c80	-0.041790485
79	0x3e9a15b9	0.30094698
80	0xbdda610d	-0.10663042
81	0xbec7d961	-0.39033034
82	0x3ea26432	0.31717068
83	0x3ebe2ee9	0.37145165
84	0xbe58f126	-0.21185741
85	0xbde8b726	-0.11363058
86	0xbe5613e5	-0.20906027
87	0x3cc0616f	0.02348396
88	0x3e908a02	0.28230292
89	0x3c237c93	0.009978431
90	0xbe0f2d57	-0.1398214
91	0xbe70178a	-0.2344648
92	0xbf089b1b	-0.5336167
93	0x3b62ae8e	0.0034588906
94	0x3de5cbd3	0.11220517
95	0xbe614b8a	-0.22001472
96	0xbd34dc96	-0.04415568
97	0xbe29a552	-0.16566971
98	0xbebfa673	-0.37431678
99	0xbda2e0d4	-0.07953039
100	0xbd70d0fa	-0.058793046
101	0xbe7a257d	-0.24428363
102	0x3ced2be4	0.028951593
103	0xbe238d78	-0.15971935
104	0xbe46db1a	-0.19419518
105	0xbefe7ca6	-0.49704474
106	0x3d0a3092	0.033737727
107	0xbe31eb98	-0.17375028
108	0xbe7bbfdc	-0.24584907
109	0x3e6d8655	0.23195775
110	0x3e0818b9	0.13290681
111	0x3e095942	0.13412955
112	0xbd012d40	-0.031537294
113	0xbf0f8483	-0.5606157
114	0x3e1cef91	0.15325762
115	0xbef7d3b2	-0.48403698
116	0x3cf915ed	0.030405963
117	0x3d2de659	0.042456005
118	0xbf02fd81	-0.51168066
119	0xbe9a2364	-0.30105126
120	0xbe1b7e04	-0.1518479
121	0x3e76ce9c	0.24102253
122	0x3ddfe4fe	0.10932349
123	0xbe26e05c	-0.16296524
124	0xbef55816	-0.47918767
125	0xbe38aeb2	-0.18035391
126	0x3d181bc3	0.03713585
127	0x3e07f9cc	0.13278884

network.2.weight f4 [64, 128]
0	0xbc7aafc0	-0.015300691
1	0x3bdb6d2e	0.006696365
2	0xbdbc410c	-0.09192094
3	0xbd7e6b36	-0.062113963
4	0xbceee31a	-0.029161025
5	0xbd9e50c1	-0.07730246
6	0xbd56b4e9	-0.052418623
7	0x3ce5dcf4	0.02805946
8	0xbd427a3d	-0.047479857
9	0x3d87a79f	0.06623768
10	0xbd149d40	-0.036282778
11	0xbdae112d	-0.0849937
12	0xbdb44910	-0.08802998
13	0xbda629ad	-0.08113418
14	0xbdafe2b0	-0.08588159
15	0xbdabb408	-0.083839476
16	0x3d605a79	0.05477378
17	0x3c917eb0	0.017760605
18	0xbca816e7	-0.020518733
19	0xbd6d35db	-0.05791269
20	0xbd2d69a8	-0.04233709
21	0xbd712734	-0.058875278
22	0x3d750763	0.059821498
23	0xbd971cfe	-0.07378577
24	0xba99bcda	-0.0011729256
25	0x3d38bc8a	0.04510168
26	0x3c953530	0.018213838
27	0xbd679abd	-0.056544054
28	0x3d1c8e86	0.03822186
29	0x3d0589a6	0.032601975
30	0x3d1b9abb	0.03798936
31	0x3d169ccc	0.036770627
32	0x3c2c55fa	0.010518545
33	0x3d81d61e	0.06339668
34	0xbd257643	-0.040395986
35	0x3d59728a	0.05308775
36	0xbd18d752	-0.03731472
37	0x3bb043ff	0.0053791995
38	0xbd8546b6	-0.06507628
39	0x3c6a5104	0.014301542
40	0x3ca5afde	0.020225462
41	0x3d08f235	0.03343411
42	0xbbe309c3	-0.006928654
43	0xbc6a30d8	-0.014293872
44	0xbd7f43fd	-0.062320698
45	0xbd9fa563	-0.07795217
46	0xbacca804	-0.0015614037
47	0xbd60c2e8	-0.054873377
48	0xbcef090e	-0.029179122
49	0xbcc1f5ed	-0.023676837
50	0x3cc695e9	0.024241405
51	0xbd52f678	-0.051504582
52	0x3d20cef1	0.039259855
53	0x3cd3a6ca	0.025836367
54	0x3cba84d8	0.022768423
55	0x3c95f117	0.018303437
56	0xba8fb3f0	-0.001096366
57	0x3c14357e	0.009045957
58	0xbd27782c	-0.04088609
59	0xbca5ad70	-0.020224303
60	0x3d038f3e	0.03211903
61	0xbdb47d1d	-0.08812926
62	0xbd961d27	-0.07329779
63	0xbd7c420c	-0.061586425
64	0x3d7b87cb	0.0614088
65	0xbdb1e6bb	-0.086865865
66	0xbb986123	-0.0046502515
67	0xbc3cf3e7	-0.01153276
68	0xbd991b88	-0.07475954
69	0xbcfd6621	-0.030932488
70	0x3cbffef6	0.023437005
71	0x3bfba0ee	0.0076790964
72	0x3b4893f9	0.0030605777
73	0xbd7c8f8b	-0.06166033
74	0xbcf44d27	-0.029821945
75	0xbdae14a9	-0.08500034
76	0x3c8039ff	0.015652655
77	0xbc002c5b	-0.007823075
78	0x3d24b503	0.04021169
79	0x3d9be287	0.07611566
80	0x3d9ba7c2	0.07600357
81	0x3d0f7f91	0.035033766
82	0x3d2b2834	0.041786388
83	0x3d06aea6	0.0328814
84	0x3d60fea6	0.05493035
85	0xbd9b7761	-0.07591129
86	0x3d1599e8	0.03652373
87	0xbc7c5e16	-0.015403291
88	0xbd13308f	-0.03593498
89	0xbd977b28	-0.07396537
90	0xbc70b320	-0.014691144
91	0x3d82068a	0.063489035
92	0x3d25d393	0.040484976
93	0x3d1cc58c	0.038274333
94	0xbdac19ec	-0.08403382
95	0x3ce04d5b	0.027380636
96	0x3d7ede0f	0.06222349
97	0xbdc5a697	-0.09650915
98	0x3ceaa3ae	0.028642502
99	0xbdc39a28	-0.09550887
100	0x3d875739	0.06608433
101	0xbdb01313	-0.08597388
102	0x3d943cb5	0.072381414
103	0xbda3f309	-0.0800534
104	0x3c87013c	0.01648008
105	0x3c120e99	0.008914613
106	0x3d7668c6	0.060158513
107	0xbdb1ed2a	-0.086878136
108	0x3d2b85f0	0.04187578
109	0xbdaa437d	-0.083136536
110	0x3d885200	0.06656265
111	0x3d8dfe78	0.06933302
112	0x3d04162e	0.032247715
113	0x3d7df1d9	0.061998222
114	0xbdba17d3	-0.09086575
115	0x3c9d4005	0.019195566
116	0x3c5874af	0.013211413
117	0x3c90fc8d	0.01769855
118	0xbdb2411d	-0.087038256
119	0x3d07c7e1	0.033149604
120	0xbd900256	-0.070316955
121	0xbdb680fe	-0.08911322
122	0xbd191947	-0.037377622
123	0x3b57c84e	0.0032925787
124	0xbd23668c	-0.03989272
125	0x3cadff9e	0.021240052
126	0xbd9b6269	-0.075871296
127	0xbd89a9e3	-0.067218564
128	0xbcc4313d	-0.02394926
129	0xbdaa8b7d	-0.083273865
130	0x3be1735e	0.006880208
131	0xb9c20dcd	-0.00037012846
132	0xbd8f0b79	-0.0698461
133	0x3d7c7dfd	0.06164359
134	0xbc2ab81b	-0.010419871
135	0xbd94a5cf	-0.07258188
136	0xbd814d35	-0.06313554
137	0x3d481c25	0.048854966
138	0xbd72fb5d	-0.05932175
139	0xbd0a61b5	-0.033784587
140	0xbdc6e994	-0.0971252
141	0x3d85f11e	0.0654013
142	0xbd41f500	-0.04735279
143	0xbde4787c	-0.11155793
144	0xbda5fdd3	-0.08105054
145	0xbd532a89	-0.051554237
146	0xbd3ac497	-0.04559764
147	0x3c21d69b	0.009877826
148	0x3c038450	0.008027151
149	0x3c728e23	0.014804396
150	0x3d1465b3	0.0362298
151	0xbd1cce24	-0.03828253
152	0x3c497cb3	0.012297797
153	0xbd7926d2	-0.060828038
154	0xbce15b5e	-0.027509388
155	0x3d16f79e	0.03685724
156	0x3d8ec870	0.06971824
157	0xbd51f7a2	-0.05126155
158	0x3d4b34cd	0.0496109
159	0xbc2f1856	-0.0106869545
160	0xbd6a344e	-0.057178788
161	0xbda75bcc	-0.08171806
162	0xbdebf60d	-0.1152154
163	0x3c9d7754	0.01922194
164	0x3bedbac1	0.007254929
165	0x3bef1d08	0.007297162
166	0xbd4223c6	-0.047397397
167	0x3db392ff	0.08768272
168	0x3d4640ee	0.048401766
169	0xbde50441	-0.11182452
170	0x3d73f5ae	0.05956047
171	0xbc8a13a8	-0.016855076
172	0xbd59ed6f	-0.05320495
173	0xbd67626a	-0.05649034
174	0xbd78df3d	-0.06075977
175	0x3c8fb652	0.017542992
176	0x3c491b56	0.012274584
177	0x3d6cd2f8	0.057818383
178	0xbbca552d	-0.0061747045
179	0xbdb09bbf	-0.08623456
180	0xbd9d5916	-0.076830074
181	0xbd996ee1	-0.074918516
182	0xbc2eeb15	-0.010676165
183	0x3c3732c0	0.011181533
184	0x3d88cd22	0.06679751
185	0x3c32bd3c	0.010909375
186	0xbd5b4283	-0.053530227
187	0x3a64a204	0.0008721652
188	0xbd2024d4	-0.039097622
189	0xbdc63bd2	-0.096793786
190	0xbd123641	-0.03569627
191	0xbdaca1d7	-0.08429306
192	0x3c72341d	0.014782933
193	0xbd8c8609	-0.06861503
194	0x3d545f73	0.05184884
195	0xbb029970	-0.0019927882
196	0x3ac7731e	0.0015216803
197	0x3d0b2eb1	0.033980075
198	0xbdfa7417	-0.12229174
199	0xbd3889de	-0.045053355
200	0x3d9086e2	0.07056977
201	0xbd14ad75	-0.036298234
202	0xbd95b844	-0.073105365
203	0x3d872c5a	0.06600256
204	0x3cf2256b	0.029558858
205	0xbdb0a414	-0.086250454
206	0xbc866c75	-0.016409138
207	0x3ca246cf	0.019809155
208	0xbcba90f3	-0.022774195
209	0xbd7978d0	-0.06090623
210	0xbe0ed411	-0.13948084
211	0x3cd4bcfc	0.025969021
212	0xbd3fe5d7	-0.04685005
213	0x3d94c068	0.07263261
214	0xba90d522	-0.0011049847
215	0xbd78fa9c	-0.060785875
216	0xbd5f44f8	-0.054509133
217	0xbd44e58c	-0.048070475
218	0xbd678e23	-0.056532037
219	0xbdbb090d	-0.09132586
220	0xbab401cb	-0.0013733445
221	0x3c57903a	0.013156945
222	0xbd679ee3	-0.05654801
223	0xbc852a97	-0.01625566
224	0xbcee86af	-0.029116957
225	0x3c8f4ca4	0.0174926
226	0xbd8ef0e0	-0.06979537
227	0xbd0c9bdc	-0.034328327
228	0xbd0aaed8	-0.03385815
229	0x3da1a17c	0.07892129
230	0xbdb60aea	-0.088888004
231	0xbd65204b	-0.055939
232	0x3bd4da44	0.006495746
233	0x3d3d6e04	0.046247497
234	0xbc1c7dd4	-0.009551484
235	0x3c26993c	0.01016837
236	0xbd99da57	-0.07512348
237	0xbce6c544	-0.028170235
238	0xbcbc8108	-0.023010746
239	0xbd78e871	-0.06076855
240	0xbd057aa6	-0.03258767
241	0x3cc3c0ca	0.02389564
242	0xbd8a318e	-0.06747733
243	0xbc496250	-0.012291506
244	0xbd7763c7	-0.06039789
245	0x3d303fca	0.043029584
246	0xbdaaa225	-0.08331708
247	0xbc20b38f	-0.009808435
248	0x3c4bcf98	0.012439631
249	0xbda5e956	-0.08101146
250	0xbdbe586a	-0.092942074
251	0x3d458821	0.048225526
252	0xbd081096	-0.033218943
253	0xbb50e782	-0.003187627
254	0x3d268640	0.040655375
255	0xbaf3b492	-0.0018593243

network.2.bias f4 [64]
0	0xbd328bee	-0.04359048
1	0xbc5b1260	-0.01337108
2	0x3c36cba8	0.011156954
3	0xbd1730ea	-0.036911882
4	0xbdc85071	-0.09780968
5	0x3c7f77f2	0.015592562
6	0xbd2c00fa	-0.04199312
7	0xbdc99489	-0.09842784
8	0xbd28fdc0	-0.04125762
9	0x3cd2a666	0.02571411
10	0xbe08fc2f	-0.1337745
11	0xbd8c43ec	-0.068488926
12	0x3cbf289b	0.023334792
13	0xbd831df9	-0.06402201
14	0xbc87c8d5	-0.016575256
15	0x3e89f216	0.2694251
16	0xbd8ea625	-0.06965283
17	0xbcab7df2	-0.020934079
18	0xbc0e4893	-0.008684295
19	0x3c271a70	0.010199174
20	0xbd6f0cfb	-0.05836199
21	0xbd806b9b	-0.06270524
22	0x3d6053a3	0.054767262
23	0x3d0988b1	0.033577625
24	0x3c8807e5	0.016605327
25	0xbbb1800c	-0.0054168757
26	0xbdd23a2f	-0.10265004
27	0xbd9a7e42	-0.07543613
28	0xbd8849a1	-0.066546686
29	0xbdb54673	-0.08851328
30	0x3c5e8577	0.013581625
31	0xbc0878af	-0.008329554
32	0xbd0b6225	-0.034029145
33	0xbdfaa709	-0.12238891
34	0xbdf4b05d	-0.11947701
35	0x3c90e8a6	0.01768906
36	0x3e978ea4	0.29601014
37	0xbde26f21	-0.110563524
38	0xbd826de2	-0.06368615
39	0xbdc1e18f	-0.0946685
40	0xbc140b5c	-0.009035911
41	0xbdad06bd	-0.08448551
42	0xbbfa2b60	-0.0076345652
43	0xbb96901d	-0.0045948164
44	0xbda4194e	-0.08012639
45	0xbd492fed	-0.04911797
46	0xbd010eb1	-0.03150815
47	0xbda8d373	-0.08243456
48	0x3d4081a2	0.046998627
49	0xbd93414e	-0.0719019
50	0xbd482369	-0.048861895
51	0xbd57b49e	-0.052662484
52	0xbd95b353	-0.07309594
53	0x3cde7c2c	0.02715882
54	0x3b6c2844	0.0036034742
55	0xbd440f91	-0.047866408
56	0xbceca5c4	-0.028887637
57	0xbbc56eb0	-0.006025158
58	0xbcecfce4	-0.028929181
59	0xbd002fcc	-0.031295583
60	0xbdce61c4	-0.10077241
61	0xbc5666f4	-0.013086069
62	0xbdad868b	-0.08472928
63	0xbd425aae	-0.04744976
