models/sudoku_ltn_4x4.pth (torch, 691466 bytes, 48 tensors)

network.0.weight f4 [256, 20]
00000000: e915 143e fff4 343e 6fb5 5d3e d0dc bfbd
00000010: 1de0 8bbc 7b7b 8dbd d996 1e3e 98b6 e73d
00000020: be17 4ebd f751 56be 4d41 463e 8aa1 b5bd
00000030: 02ea 49be 0926 61be 4662 643e 3ca4 5f3e
00000040: 20dc aebc 3672 3e3e e9d4 7a3d 5d19 083e
00000050: e036 f0bd 020c 03bd 8733 98bd 1b89 3abe
00000060: 93da 46bd 6d5a 85bd 47e0 663d 9450 573e
00000070: 0787 97bd 004d 0abe bcc4 2e3e 31a7 353e
00000080: 6cf8 16bd 4f63 a8bd 65fb d8bd 0909 8d3d
00000090: d588 643e 7bf8 543d 92ed b13d a1a0 9dbd
000000a0: e895 3ebe 55b0 1abe 7f45 be3d 3614 76bd
000000b0: 9270 f3bd b181 823d b912 443d 3adf bebb
000000c0: dd26 353e c8bf 5bbc 694d 013e 6b73 8e3c
000000d0: 474f 5e3e 1d71 133e 61c5 603d 7cf0 19be
000000e0: 8b49 f73c c0a3 153e 8661 753d bf7b a5bd
000000f0: 8dc8 f63d b1b6 d1bd 9912 bebd 61f7 c73d
00000100: c303 c13d 4db6 1cbd cecb 4b3e c4c6 4b3e
00000110: a508 033e cf7b 063e 8dda 673d f559 23be
00000120: ab7e adbd a83a 5b3e 47dc 643e 772d 7e3c
00000130: 59d0 b83c 390e 223e 851b 023d 3582 5cbc
00000140: fe23 0c3e e26d cc3d 9a9e 023e 7447 90bd
00000150: f358 0ebe 2b21 32be 7f06 1fbd 3b64 c53b
00000160: 13e9 2fbe 4d8d 5abd d5cb ec3d c449 c93d
00000170: c02b 1d3d a1da 0bbe 9b17 5e3d 414b 9ebc
00000180: da4f 53bc 69c3 1cbe abab 25be b1e2 033e
00000190: 86bb 92bd a529 89bb 7f29 e03c 62a2 483e
000001a0: 94b3 bcbd cca8 5f3e c5dd 343e 4cf8 34be
000001b0: 0eda 49be a0d2 523e f135 b63c bbd2 1dbe
000001c0: 64f2 653c 41ec 5ebe 661f 0cbe 7212 9f3d
000001d0: 8457 4cbe 2316 98bc da40 4e3e a716 20bd
000001e0: 73a8 60bd 2f4b 0c3e f825 7b3d b30a ad3d
000001f0: f447 623e 417d 78bd af1f 83bc 7d5a 903c
00000200: 7e88 0e3e 6506 28be 55fe f03d 08ad d0bd
00000210: 5a7b 46be ab3c a0bd 91dc 303e b29d d4bd
00000220: 6100 5ebe cb4a f33d 6f6e 653d 9448 543e
00000230: d669 d5bd e94f 083d 88fe 7abc 8265 c1bc
00000240: 61f3 4d3e 105a 77bd 3540 c1bd c1f2 f5bb
00000250: a101 2c3d b64e 293e 0d6b d6bc bf9c 633e
00000260: f94c 973d c900 4f3e 7e01 aebd 39f7 22be
00000270: c906 3ebe 14b8 963c 598a 63be 4ac1 0a3e
00000280: 188b 603e ed1f 553e e13c 623e cd83 323e
00000290: 7173 183e 35a3 2abd 10cc d2bd 0f77 f5bd
000002a0: 2327 c33d 40fb ec3d 8d80 23be 53cd 173d
000002b0: fcc6 d73d aa88 ddbc 13f0 77bd e048 8ebd
000002c0: 2a2e 54be 2ed4 1bbd 6561 25be 02df 8bbd
000002d0: 26f5 27be 2b53 83bc cbe5 a53d 93a8 8bbd
000002e0: 95de f3bd 1a5a 0bbe 9e62 5e3e ee4d 3c3e
000002f0: a05b 56bd fc3b bfbd df82 583d 87bb e9bd
00000300: 2e4d 853d 61d3 8abd 3d3f cfbc a018 0dbe
00000310: c1b0 abbd 9973 e1bc 3e72 3cbe ced7 413e
00000320: e7cd 3cbe 39b1 063e e679 0c3e a64b b63d
00000330: 6321 bf3d 749e c63d 2bba 29be cce6 f0bd
00000340: 346b 5d3e d2da 1dbe ca62 0f3e bfba babd
00000350: 4d6e 193e 1ba8 d33d dd8c 13bd 0bb1 a93c
00000360: c89f cf3d 4032 563e 6e51 5b3c f4f6 2cbd
00000370: cd71 303e ccce f63d d70b 313d 6f3d 3ebe
00000380: 1282 28be b71e 733d 09f8 1d3e 0cf0 ff3d
00000390: be34 4abe 3a04 8dbd 638b 233e b926 bd3c
000003a0: e72a e53d fadf 643e 84e1 cc3d feea 6b3d
000003b0: 9317 cdbd b1cf d0bd fe28 99bd 1cef 223d
000003c0: a5b5 233d abef 1ebe 0921 553e 85cd b5ba
000003d0: bac9 2fbe 9938 503e 6d84 063e dc21 c4bd
000003e0: 1824 fabd e2fe 093d 8d2a e3bd 86b3 2d3e
000003f0: edbe 34bd 5b08 ce3d 050e 303e c751 b4bc
0.14461483 0.17671584 0.21651243 -0.093682885 -0.017074639 -0.06908318 0.15487231 0.11314124
-0.05031561 -0.20929705 0.19360848 -0.08868702 -0.19718173 -0.21987166 0.22303113 0.21839994
-0.021345198 0.18598256 0.061238203 0.13290925 -0.117292166 -0.031993873 -0.07431703 -0.18216364
-0.048548292 -0.06511388 0.05636623 0.21026832 -0.07398801 -0.13505936 0.17067236 0.1773956
-0.036858007 -0.082220666 -0.10594825 0.06886489 0.22317822 0.051994782 0.08687891 -0.07696653
-0.18611872 -0.15106328 0.09290599 -0.06007787 -0.118867055 0.06372393 0.047869418 -0.0058249505
0.17690606 -0.013412423 0.12627186 0.01738902 0.2170993 0.14398618 0.054875735 -0.15033144
0.030186435 0.14613247 0.05990746 -0.08080243 0.12049971 -0.10239924 -0.09280891 0.09763981
0.094245456 -0.038259793 0.19901964 0.19900042 0.12796266 0.13133167 0.05660491 -0.15952285
-0.084714256 0.21409094 0.22349654 0.015513769 0.022560285 0.15825738 0.031764526 -0.013458778
0.13685605 0.09981896 0.12755814 -0.070448786 -0.13901119 -0.17395465 -0.038824555 0.0060239113
-0.17178755 -0.05335741 0.115623154 0.09828523 0.0383718 -0.13657619 0.05422173 -0.019322993
-0.012897456 -0.15308918 -0.16178767 0.12879445 -0.071646735 -0.0041858726 0.027363537 0.19593194
-0.09213939 0.21841735 0.17662723 -0.17672843 -0.19712088 0.2058816 0.022242518 -0.15412419
0.014034841 -0.21769811 -0.13683853 0.0776719 -0.1995526 -0.018565243 0.20141926 -0.039084103
-0.054848146 0.13700555 0.061315507 0.08449306 0.2209776 -0.060666326 -0.016006319 0.017621273
0.13919255 -0.1640869 0.1176726 -0.10189253 -0.19382992 -0.078240715 0.1727164 -0.103816405
-0.21679832 0.118795 0.05601352 0.20730811 -0.10420577 0.033279333 -0.015319474 -0.023607973
0.20112373 -0.060388625 -0.09436075 -0.007505745 0.04199374 0.16533932 -0.026174093 0.22227763
0.07387728 0.20215143 -0.08496378 -0.1591462 -0.18557276 0.018398322 -0.22220744 0.13550296
0.2192806 0.2081296 0.22093536 0.1743309 0.14887787 -0.041659553 -0.10292828 -0.11985599
0.09528949 0.1157136 -0.15967007 0.037061047 0.10536 -0.027042706 -0.060531687 -0.069474936
-0.20720735 -0.038044147 -0.16150434 -0.06829645 -0.1640211 -0.016030869 0.0810047 -0.06819262
-0.119076885 -0.1360859 0.21717307 0.18389103 -0.052333474 -0.09337613 0.052859183 -0.11412721
0.065088615 -0.067785986 -0.025298709 -0.13778925 -0.083833225 -0.027520942 -0.18402955 0.18929979
-0.1843792 0.13153543 0.13718376 0.089011475 0.0933254 0.09698191 -0.16574924 -0.11762771
0.21622926 -0.15415505 0.14002529 -0.0911765 0.14983483 0.10334798 -0.03602301 0.020714303
0.10137898 0.20917606 0.013386114 -0.0422277 0.17230912 0.12051162 0.043224182 -0.18578123
-0.16455868 0.059355464 0.15426649 0.12496957 -0.19746682 -0.06885572 0.1597114 0.023089753
0.111898236 0.22351065 0.10003951 0.057597153 -0.10014262 -0.10195864 -0.07478522 0.039778814
0.03996815 -0.15521114 0.20813383 -0.0013870454 -0.17166796 0.2033409 0.13136454 -0.09576771
-0.122139156 0.03369034 -0.110921 0.16963014 -0.044127394 0.100601874 0.17192848 -0.02201165

network.0.bias f4 [256]
00000000: c9d9 acbd 7004 123e 61d7 ff3c dc01 e5bd
00000010: 86b2 1d3e fa1a 0cbd ac63 4b3e cd75 dfbd
00000020: eb43 5d3e 9c1e 2abe ca2e 893c 14e7 8f3d
00000030: b41d 423c 35e5 4c3e 4e2e 423d b422 a23d
00000040: 6e84 283d 10c9 503e 384e bdbd 3a70 febd
00000050: 03ac 82bd 21fe af3d b772 babd a457 31bd
00000060: 5339 88bc 3817 143e b5a6 0fbc 6d41 4f3e
00000070: bf45 00be 76ce 623e d547 a83d f943 073e
00000080: 4908 54be 8ff9 4d3d 5007 5bbe 8a8e 2d3e
00000090: 9cfd 9f3c 2ffa 353d f0c5 0fbe 3809 433d
000000a0: 58a0 42be 6198 3b3e d099 dc3d 94c9 0b3e
000000b0: 9775 b83d 3861 3bbd 4e24 23be cf95 463e
000000c0: 938e 553e 2dcb cf3d c74d c9bd b78b 7ebc
000000d0: dd23 a1bd 08d9 ab3d d92a 5abe 74e3 d0bd
000000e0: 19c9 efbc f79c abbd 6e54 54be 8d8c 293e
000000f0: 580a d0bd de88 953c 07a6 65bc 6fc2 523e
00000100: 468b a43d c8f5 d43d 5e5b 49be b7fd 003e
00000110: 0f9e 733d 0924 68bd 0505 573e 37de acbd
00000120: 069f c43d f023 053b 2b71 5b3e 6c7e 203e
00000130: 99df 70bd d03a d9bd 05bc e23d 346a fe3d
00000140: e0bc 5c3e bf57 3b3d f7fe be3d 6424 a83d
00000150: 9ae2 f73c a839 1e3e ee20 633e 6054 85bd
00000160: 63cd 35be 5f21 80bd ae00 223e 4928 eabd
00000170: 9267 eb3d 2f95 cbbd 13cd 05be 9eb9 443d
00000180: 6744 4b3d 0ac0 8b3d 2026 823d ce19 f03d
00000190: 3cef 58bd 26b7 f43d 81e2 abbd 4fb0 da3d
000001a0: e6ab 533e 839b c33c 0c01 813c f2d1 1dbd
000001b0: c030 d73d 5bd0 133e f5e2 07bc b9a8 0f3e
000001c0: b08f 513d 5be4 973d 357f 8bbd 5a5e dfbc
000001d0: 2127 203e c08c 6f3d 4da4 27be 751d 633d
000001e0: 9861 eebd 601e f93d 3937 ff3a 3878 623e
000001f0: 0f1b 34be 5f79 8f3c 3c99 783d 6d9a 4abe
00000200: cc01 9dbd 1e8b 1bbe 9f07 413e 65b5 e13c
00000210: 1f4f 143d 4c1f d23d 6457 4c3e d280 a63b
00000220: 7bf8 d43b d333 9bbd c381 11be 016a 823c
00000230: 64e5 55be 4290 263e 356c 0e3e 2b6e 103e
00000240: 6f9b 46bd 27a0 a5bd ecee 1f3e 0251 94bd
00000250: 200b af3d 571e 49be bf41 9b3d cf69 a8bd
00000260: 6273 9abc 4652 8a3d 5e33 cb3d 43dd c93d
00000270: 02c8 45be c808 643e 566b e73c 91ac 61be
00000280: ee80 4dbe 0541 ffbd 2e48 81bd d8aa 203e
00000290: 757f 433e a36c 9bbd 0256 d73c cc77 823d
000002a0: d49b b03d b01a 623d 6f13 e93d ea39 fc3d
000002b0: 2de5 3fbe 7eff 85bd def7 30be 9a7f 3f3e
000002c0: b283 9cbd 2d36 0ebd f89f 2c3d 5a8a 5a3e
000002d0: 8efa 51be a1c6 7bbd 9b09 3d3e 7306 51be
000002e0: 8996 943c 292e de3d bba5 23be fd0c 33be
000002f0: 8261 21be 8cee 5e3d 1b7b 253e 4cc5 85bd
00000300: 5079 8c3d 77ef ccbd 38dd 16be addd 41be
00000310: ebb3 a73d dbd2 433a 6964 873d 8c77 c8bb
00000320: e68d d13c 1c86 eebd 981a 983d 0975 b9bd
00000330: 2e0e 573e ea52 bd3d d432 4dbd 7832 643e
00000340: bf8b 4ebe 735a 37be c338 8d3d 49fe 5abe
00000350: 8233 25be 0c67 513b a323 55bb e2d1 663c
00000360: fbaf 173e 2c25 2fbe faa3 a23d c7ab 3fbe
00000370: a36d 82bd 2f4d cc3d e0b6 43be c26f 97bd
00000380: c690 213d 9788 dbbd 864f 413e 78b8 253a
00000390: 4cd0 bc3d 8a34 c93d 7a86 ba3d 1245 64be
000003a0: 146b 58be 16dc 5b3e 3d2e 793d b10e c0bd
000003b0: e579 9abd c8e0 f5bd dce7 3c3d 2040 143e
000003c0: bed4 bbbc f548 3fbe a1ca 3a3e 2eee d53d
000003d0: 874b a2bd 4500 f0bc 4014 fcbd c1ef d2bd
000003e0: d483 9f3d 539b 0bbe 2295 edbd d135 2e3c
000003f0: 6808 3bbe ab99 713d 4506 cbbd b9c7 d63d
-0.08439977 0.14259505 0.03123063 -0.11181995 0.15400133 -0.034205414 0.1986224 -0.109111406
0.2160794 -0.16613239 0.016745944 0.070264965 0.011847902 0.2000931 0.04740744 0.07916775
0.04114192 0.203892 -0.09243435 -0.12423749 -0.06380465 0.08593393 -0.09103911 -0.04329647
-0.016628897 0.14461982 -0.008767773 0.20239802 -0.12526606 0.22149071 0.08216826 0.13209523
-0.20706286 0.050286826 -0.21389508 0.16948906 0.01953011 0.044428047 -0.14040351 0.047616214
-0.19006479 0.18319847 0.10771525 0.13651115 0.090068035 -0.045747012 -0.15931818 0.19393085
0.20855169 0.101461746 -0.09829288 -0.01553624 -0.078681685 0.08391005 -0.21305408 -0.10199633
-0.029270696 -0.08379548 -0.20735332 0.16557522 -0.10158223 0.01825374 -0.014016635 0.20581983
0.08034377 0.103984416 -0.1966376 0.12596785 0.05947691 -0.05667499 0.20998009 -0.084408216
0.09600644 0.002031561 0.21429889 0.15673226 -0.05880699 -0.10606921 0.11071018 0.124226004
0.21556425 0.045737978 0.093259744 0.08210066 0.03025942 0.15451682 0.2218053 -0.06510234
-0.1775413 -0.06256365 0.15820572 -0.11433465 0.11494364 -0.09940564 -0.13066511 0.04802858
0.04962578 0.06823738 0.06354928 0.11723672 -0.052962527 0.11948995 -0.083928116 0.106781594
0.20671043 0.023877865 0.01574757 -0.038530298 0.10507345 0.1443495 -0.008293857 0.14029206
0.05116242 0.07416602 -0.06811372 -0.02726667 0.15639926 0.05848384 -0.1637127 0.055448014
-0.11639708 0.12163997 0.0019471414 0.22116172 -0.17588447 0.017513929 0.06069301 -0.19785471
-0.07666358 -0.15189788 0.18850563 0.027552316 0.03620827 0.10259876 0.19955212 0.0050812745
0.0064993477 -0.07578244 -0.14209656 0.015919687 -0.20888287 0.16265967 0.13908465 0.14104526
-0.048488077 -0.08087187 0.15618485 -0.072420135 0.08547044 -0.1964048 0.075808994 -0.082233064
-0.018853847 0.06753974 0.09921907 0.098566554 -0.19314578 0.22268975 0.028249424 -0.22038485
-0.20068714 -0.12463573 -0.06312595 0.15690172 0.1909159 -0.0758908 0.026286129 0.06370506
0.08623472 0.055201232 0.1138066 0.12315734 -0.18739767 -0.06542872 -0.17282054 0.1870102
-0.076423064 -0.034719635 0.042144746 0.2134184 -0.20505735 -0.061468724 0.18460695 -0.20412616
0.018138187 0.10848648 -0.1598119 -0.17485423 -0.15759853 0.054426715 0.16160242 -0.06531772
0.06859076 -0.10006612 -0.14732826 -0.18932219 0.081886135 0.00074700796 0.066109486 -0.0061177667
0.025580358 -0.11646673 0.07426947 -0.09055526 0.21001503 0.0924433 -0.0500973 0.22284877
-0.20170496 -0.17905597 0.06895592 -0.21386065 -0.1613293 0.003195229 -0.0032522462 0.014088126
0.14813225 -0.17104024 0.07941432 -0.18717872 -0.06368568 0.09975659 -0.1911273 -0.07394363
0.039444707 -0.10719412 0.18877992 0.00063217385 0.09219417 0.09824474 0.091076806 -0.22291973
-0.21134597 0.21470675 0.060835112 -0.09377802 -0.07542781 -0.12005764 0.046119556 0.14477587
-0.022928592 -0.18680175 0.1824136 0.1044582 -0.07924562 -0.029297004 -0.1230855 -0.10299636
0.07788816 -0.1363347 -0.116007105 0.010632948 -0.18264925 0.05898444 -0.09913305 0.10487313

network.2.weight f4 [128, 256]
00000000: ae4f 573d c079 01bc 1887 5abc 381f 063d
00000010: 16b7 373d 926f 073d 46fa 20bd cadf 70bd
00000020: 2c4b 863c f821 83bc f4bf 40bd e243 7a3d
00000030: 247c 45bd 40f7 49bc f40b e63c 24ee 63bd
00000040: 7819 1f3d 5ef1 26bd 8cb3 d63c 8871 ef3c
00000050: 1ca6 2e3d 88ed 06bc 608d 77bc d07e c3bb
00000060: 7403 ca3c e2ad 41bd 6245 523d 5686 75bd
00000070: c289 0fbd 4097 d3bc b0a1 26bd b087 863c
00000080: a4b0 05bd f0ab 78bc 582c 80bc c0ad fd3b
00000090: e898 36bd 2865 09bd 745a a53c 041d 0c3d
000000a0: a45e ca3c 724e 753d 406a debc 1c04 7dbd
000000b0: c846 3e3c 4c4a 5cbd 80e8 3b3a ccab b23c
000000c0: f4da 193d 20e8 24bc d42b b4bc 3cb5 24bd
000000d0: 708c ed3b d0b7 713c 2083 d7bc 3c4d 3a3d
000000e0: be0b 0cbd b451 a33c b6d1 48bd 8851 3fbc
000000f0: 12f0 56bd 4a08 74bd 3a3b 7fbd aeb5 4b3d
00000100: 3c6f bdbc acfe 643d c018 25bb dc19 cfbc
00000110: 3e54 0b3d c2f8 1bbd f8b0 99bc 4478 fb3c
00000120: 2c34 55bd 4af5 713d 924d 1cbd b0e8 d33b
00000130: 6ebd 14bd 2ebd 113d f817 5fbd d045 1abc
00000140: e26c 3d3d f2f0 0e3d b025 72bc 3090 b63b
00000150: 2458 21bd 704c 733d 006e 293a 88cd 023c
00000160: 5c26 953c fa7b 3d3d 2000 643d b6b2 433d
00000170: 0e06 063d 4087 703d d81a 2abd e400 4fbd
00000180: ba97 4dbd fc23 b9bc 7ae1 7e3d 62be 56bd
00000190: 0ec0 4bbd dc48 21bd 789b 603d 20e6 663b
000001a0: 0005 eeba e0c3 313c 761f 6f3d 9ebe 4ebd
000001b0: d433 593d a056 ccbb 9c17 d9bc 6caf 593d
000001c0: 008c 2739 3cc7 863c 0258 203d e23d 023d
000001d0: fec9 473d 6230 05bd 987c 21bc a2d8 3f3d
000001e0: 5603 11bd 5866 1dbd 2cb7 f0bc 1098 da3b
000001f0: c890 3cbc e4f9 5abd 94c2 6dbd 1e28 0fbd
00000200: fa10 023d c097 1c3d 70c5 9bbc 900e ef3b
00000210: 4443 e3bc 8cb2 1bbd f003 00bd 80a4 c5bb
00000220: 8078 603b 2e63 0f3d 08a7 1ebc ba7c 06bd
00000230: c0a9 783b 7234 703d 04b0 33bd 005b e33c
00000240: 149a 38bd 6031 73bd e0c5 c03b d0c4 73bd
00000250: 6e78 223d 906a ab3c 103d 003d 0661 2d3d
00000260: 5ca2 59bd 30ea 15bc a48b fe3c 1896 a8bc
00000270: 30cb eabb 6c9f 78bd fcbd 1f3d 1cd6 54bd
00000280: 2e7f 723d 04d3 ea3c b05c cbbb 64c3 31bd
00000290: b07d c4bb 00c0 58b8 60ad 233b c00a 78bb
000002a0: 36cc 483d 5a59 0c3d 6837 00bc 4663 4c3d
000002b0: 5c31 f9bc 0c2d 613d 6acf 60bd b096 00bc
000002c0: 843a c2bc 18cc 16bd 586d a4bc 98ac 433c
000002d0: fac3 243d 2021 79bb 4845 42bd 5e64 79bd
000002e0: b8d9 00bc 885f e93c 9c77 16bd 88d8 65bc
000002f0: 8054 20bc 60af 01bc 94fc 5cbd d8d6 453d
00000300: 088d 08bc 04e0 c6bc 6c82 3e3d 200d 7c3c
00000310: e6a2 31bd 906e 8abc 1877 7f3d 9001 9d3b
00000320: 9022 ee3b 20ea 2c3c 3e59 72bd 8499 8b3c
00000330: 04b4 df3c 46ef 773d 30d1 50bd d4de 57bd
00000340: a43b f4bc 00c2 2fbd 50d7 503c f049 f83c
00000350: 8008 ae3b 0ee5 503d 88bb 673d 8621 0a3d
00000360: a8b3 2e3c be90 62bd 24f4 db3c e032 39bd
00000370: d891 7f3d d4a7 223d 30b9 a5bb f06b 61bd
00000380: 265c 4bbd 188b 6f3c 8873 50bc 78ee 613c
00000390: 107b cebb c0d1 68bd 1eb1 31bd 4278 3cbd
000003a0: 2c30 dbbc b45b efbc 18b3 783c b223 51bd
000003b0: e265 7f3d 7046 22bd 7e7a 413d 2035 15bb
000003c0: 3af7 71bd 56da 29bd 2043 6abd a4b6 7ebd
000003d0: 74b1 0f3d 7ef1 38bd f663 5c3d e0ae 23bc
000003e0: 5421 e73c 0e1f 6dbd 4a0c 1bbd 22a8 55bd
000003f0: 2a53 4dbd 6092 17bc d81e 6c3c 9206 77bd
0.052566223 -0.007902563 -0.013337873 0.032744616 0.04485234 0.033065386 -0.03930118 -0.058807172
0.016393267 -0.016007408 -0.04705806 0.061099894 -0.048214093 -0.012327015 0.028081872 -0.05564703
0.03884265 -0.04075753 0.026208661 0.02922894 0.042638883 -0.008235343 -0.01510939 -0.005966045
0.02465985 -0.04728497 0.0513357 -0.059942566 -0.035043485 -0.025828958 -0.04068154 0.016422123
-0.03263916 -0.015177712 -0.015646145 0.00774166 -0.044579417 -0.033543736 0.020184733 0.03420736
0.024703331 0.059889264 -0.027150273 -0.061771497 0.011613555 -0.053781793 0.0007168129 0.021810435
0.037562326 -0.010065109 -0.021993555 -0.0402119 0.0072494075 0.014753297 -0.026307642 0.045483813
-0.034190886 0.01993642 -0.04902812 -0.011677153 -0.052475043 -0.059578218 -0.062312342 0.04973381
-0.02312433 0.055906937 -0.0025191754 -0.025280885 0.034015886 -0.03807903 -0.018761143 0.030696996
-0.052051708 0.059071817 -0.038159914 0.0064669475 -0.036313467 0.035580806 -0.054466218 -0.009416059
0.046246417 0.034897752 -0.014779493 0.0055713877 -0.039390698 0.05939907 0.00064632297 0.007983573
0.018206768 0.04626081 0.05566418 0.047777854 0.032720618 0.058722734 -0.041529506 -0.05053796
-0.050193526 -0.022600166 0.06222675 -0.052427657 -0.049743704 -0.039376125 0.054835767 0.003523238
-0.0018159449 0.010849923 0.058379613 -0.050474755 0.053027943 -0.0062359124 -0.026500516 0.05314581
0.00015978515 0.016452424 0.03914643 0.031797297 0.04877662 -0.032516845 -0.009856366 0.046837457
-0.035403572 -0.03842768 -0.029384218 0.0066709593 -0.011509128 -0.05346097 -0.058046892 -0.034950368
0.03175447 0.038230658 -0.019015044 0.007295437 -0.027742036 -0.038012072 -0.031253755 -0.006031573
0.003425151 0.035006694 -0.009683378 -0.032833792 0.0037942976 0.058643766 -0.043869033 0.027753353
-0.045068815 -0.05937326 0.0058829635 -0.059513867 0.039665632 0.020924836 0.031308234 0.042328857
-0.053133354 -0.009150073 0.031072445 -0.020579383 -0.007165335 -0.06069891 0.038999543 -0.051962003
0.05920332 0.028665073 -0.0062061176 -0.04339923 -0.0059964284 -5.1677227e-05 0.0024975166 -0.0037848204
0.049022876 0.0342649 -0.00782571 0.049899362 -0.030419044 0.0549746 -0.054885305 -0.007848427
-0.023709543 -0.036815733 -0.02007167 0.011943005 0.04022596 -0.0038014129 -0.047429353 -0.060886733
-0.007864408 0.028487936 -0.036735162 -0.014028676 -0.009785771 -0.007915348 -0.053951815 0.048300594
-0.008334406 -0.02427674 0.0465111 0.015383989 -0.043368243 -0.016898423 0.062369436 0.004791446
0.0072673038 0.010553867 -0.05916714 0.017040975 0.027307518 0.060530923 -0.050980747 -0.05270274
-0.029813595 -0.042909622 0.012746647 0.030308694 0.005311072 0.050999694 0.056575328 0.033723377
0.010662951 -0.05531382 0.026849814 -0.045214534 0.062394947 0.039710835 -0.0050574765 -0.055034578
-0.049648426 0.014620565 -0.012722857 0.013789766 -0.0063012913 -0.05684066 -0.043381803 -0.046013124
-0.026756369 -0.029218532 0.015179418 -0.051059432 0.062353022 -0.039617956 0.04723596 -0.002276726
-0.059073664 -0.041467987 -0.05719292 -0.0621859 0.035081342 -0.04515218 0.053806268 -0.009990424
0.028214134 -0.057890944 -0.037853517 -0.052162297 -0.05012814 -0.009251207 0.014411651 -0.060309

network.2.bias f4 [128]
00000000: c2d4 41bd f2b8 423d 5ae6 5b3d 1056 3ebd
00000010: 7069 5d3c b028 b7bc f05d 2cbc a03f ff3b
00000020: 9af8 0bbd 305f 6d3d 1884 68bd 68ca ac3c
00000030: c895 0b3d 90e0 9e3c b81b 163c 382b 71bd
00000040: d0c0 12bd ec23 37bd bc4a 9cbc a4ff b0bc
00000050: 747c 23bd f882 453c 1492 993c a842 bcbc
00000060: e8e7 63bd e01f 17bc 1a8b 483d 18ea 5dbc
00000070: bc02 273d f001 d13c 7e6f 733d 742d 243d
00000080: e83d 0abd 0e51 52bd 5855 38bd c849 4e3c
00000090: e845 443d 58c7 643c c4cd ecbc 2068 08bd
000000a0: 80e8 ecbb 3ac6 0a3d 3809 1bbd d627 72bd
000000b0: 0cb8 a0bc 0c64 46bd 5028 be3b a03c b1bc
000000c0: f06f 29bd 482c 563c 943e 143d 98e6 8b3c
000000d0: 4c66 a53c d0ba 083d b275 4fbd 3645 793d
000000e0: e8e0 d6bc 88e9 0abc ea29 2cbd 786d 1dbc
000000f0: 52ea 6dbd 901b 51bc d8c1 7abc 5089 21bc
00000100: 3a2d 7abd 80a9 773d 5080 bdbc c86c 25bd
00000110: e4c9 d0bc 706d 40bd 76d3 31bd e475 a93c
00000120: 6a08 32bd a426 e23c d868 1abc b890 72bd
00000130: 60eb b63c c45f 7cbd 40e5 0fbd aa84 4b3d
00000140: 404e d6bc 00be 5bbb d4f8 003d 508b 0ebc
00000150: 1095 06bd 3881 e3bc e8b7 aa3c 8691 77bd
00000160: fa23 033d 84fd 0a3d 46ee 19bd 34fe 603d
00000170: 80b2 383b b85e 46bd 80c4 723c 70a2 7ebc
00000180: 2a5b 703d 883d 34bd 6014 fb3b 7cbb 273d
00000190: 60e5 023c 8893 643d 2487 423d 42db 05bd
000001a0: 7e92 66bd 9c88 01bd bca2 26bd 80bf bdba
000001b0: a058 213c b086 55bd 2a31 10bd 305b 2cbc
000001c0: b252 53bd 744b 35bd 985b 77bc 347c dd3c
000001d0: e6bb 12bd 0e45 363d 645d fcbc b2d0 67bd
000001e0: 7454 80bc 6266 2fbd a846 6dbd 3c24 e93c
000001f0: 6064 443d 008f 17bc 1816 57bc 685e 02bc
-0.047322042 0.04753966 0.053686477 -0.046468794 0.013513908 -0.022358268 -0.010520443 0.007789567
-0.03417263 0.057952106 -0.0567666 0.021092609 0.03407839 0.01939419 0.009161882 -0.058879107
-0.03582841 -0.044711992 -0.019078605 -0.021606274 -0.03991361 0.012055151 0.018746413 -0.022981003
-0.055641085 -0.009223908 0.048960783 -0.013544582 0.040774092 0.02551362 0.0594325 0.04008241
-0.033750445 -0.05134683 -0.045003265 0.012590833 0.04791823 0.013963543 -0.02890671 -0.033302426
-0.0072298646 0.03388045 -0.03785059 -0.05912002 -0.01961901 -0.048435256 0.0058031455 -0.021635354
-0.041366518 0.013072081 0.03619249 0.01707773 0.02019038 0.033381283 -0.050649352 0.06085702
-0.02623029 -0.00847853 -0.04203216 -0.009608619 -0.058084793 -0.012762919 -0.015305005 -0.009859398
-0.061078288 0.060464382 -0.023132473 -0.040386945 -0.025486894 -0.046979368 -0.043414555 0.020686097
-0.043465056 0.027606316 -0.009424411 -0.059220046 0.022329032 -0.061614767 -0.03513074 0.049687065
-0.02616036 -0.0033529997 0.0314873 -0.008700207 -0.032857 -0.027771577 0.020839646 -0.060441516
0.03201673 0.033933178 -0.03758075 0.054929927 0.0028182566 -0.048430175 0.014817357 -0.015541658
0.05868069 -0.044003993 0.007662341 0.040950283 0.007989258 0.05580476 0.04749216 -0.032679804
-0.05629205 -0.03162442 -0.04068254 -0.0014476627 0.00984779 -0.0521304 -0.035203137 -0.010519788
-0.051592536 -0.04426141 -0.015097521 0.027036764 -0.035823725 0.04449945 -0.03080625 -0.05659551
-0.01566527 -0.04282225 -0.05792871 0.02845966 0.047947288 -0.009250402 -0.013127826 -0.0079570785

network.4.weight f4 [64, 128]
00000000: ff90 64bc f016 3b3d 7693 d13b 34a5 45bc
00000010: f157 75bd 3fc7 46bd 8d4f 8cbd 5a92 9cbd
00000020: bca4 8e3d c890 2c3d b460 3a3d 8ba7 2c3d
00000030: 0fbe 39bd 9d3d a7bc 6283 08bd 6b13 75bc
00000040: c4f0 973d 6947 5a3d 4b1b d2bc 098e 5cbc
00000050: 9d2d 92bd 7027 b0bd d6e6 d93c b0d5 663d
00000060: 7bf8 87bd c39c 0cbd 7488 15bd 2e0b a03d
00000070: 93d0 8c3d 3a53 963d 1a22 3cbb a190 973d
00000080: e4a7 3a3d 99b5 6b3d bf38 e7bc 734e cd3b
00000090: 4a80 a43d 01cc ac3d 10a5 87bd 6d49 c63a
000000a0: cabb 893b 9766 60bc febb 61bc 8963 70bd
000000b0: 264f 873d 3d78 99bd 8fd2 943c 41e4 00bd
000000c0: 5fcb 82bd d333 b83c 6542 dcbc c6da 133d
000000d0: 08ab 283d 3f6f 42bd dcb4 96bd 9538 95bd
000000e0: afb5 063c cd07 4ebb 9869 fa3c e875 92bd
000000f0: 661a 2a3d fcf4 5abd 7f6d 343d fcc4 b3ba
00000100: e1e2 b3bc 8c27 85bd d5c2 e7bc 6dcc 12bb
00000110: deaa 85bd e9c5 94bd a956 933d 928e c63c
00000120: 03c6 463c 7d26 8bbd 998e 8abb e87b eabc
00000130: 1f08 b4bd a909 063d a68c 923d f02f 013d
00000140: 00c3 e03c f943 52bd afb6 6cbd ae62 863d
00000150: ec26 f2bc 48bf 40bc 4c77 47bd dcf5 aebd
00000160: 0069 dcbb 039f f4bc 512d 213d 666a a93d
00000170: b7c6 213c 0117 973d 8218 173c eba6 40bd
00000180: f3af 0dbd 08cb d6bc fc3e 803d ba2f ec3c
00000190: 4194 06bd 04c9 8c3d 261e 68bd 384d a2bd
000001a0: e428 11bd 42af bcbc 5c22 8b3c 0a2d f73b
000001b0: f991 8b3c 5b57 27ba b322 a3bd 1fcb ef3c
000001c0: 5ef1 933d 84e2 89bd 64ea 9a3c 5cc1 593d
000001d0: 6f2f d83c c516 b0bd ce37 683d 88df afbd
000001e0: f581 903d 1760 913c 07ef 58bd 8980 7f3d
000001f0: 7b23 36bd 5fa4 d4bc 9faa 1abb ddec 90bd
00000200: f9ad 9d3d 8d32 0ebd 2a30 b1bd 63de 6bbd
00000210: 736c b03d 6f51 3abd 14b7 9bbc f910 f8bc
00000220: b272 9ebd 1883 993d 9239 d13c 8bf4 6f3d
00000230: 3300 a33d 0e14 22bd 7dd1 27bd 3db2 9fbc
00000240: df41 8fbd 0195 9fbc 0cb5 8ebd b342 a43d
00000250: fb0c 6ebc 6ed9 f9bb 95f4 3dbd 48e3 863d
00000260: f3a8 9dbc b346 783d e9d1 243d 3cac afbc
00000270: a87c 4d3d c337 44bc 9bfc acbd 0497 97bd
00000280: e906 99bc d969 b13d 301e 973d e8c8 b23d
00000290: 5364 3d3c 629a 8ebd 6940 89bd dc9e 9bbd
000002a0: 0d4b a13d 9381 83bc 360a 9cbd f16f 1e3d
000002b0: a009 2a3c 0b2c 1fbd cf64 873d 311e aebd
000002c0: 32dc 40bd c858 2bbd a7cb 92bc 5e6a 1dbd
000002d0: 9912 aebd 7b65 a63c 2e04 43bd d4c5 213a
000002e0: 8df5 c43c 7724 843d 874e 34bd 53f9 283d
000002f0: d7fd a4bd ca05 87bd 2fed 253d 4764 a03b
00000300: 71f0 c5bc c4d4 84b9 67f6 7bbd 5dda 723d
00000310: a732 103d 719d ce3c a949 eebc 239b 853d
00000320: 3246 89bd 3d35 8dbd da8f 20bd 81e2 40bc
00000330: 8c80 98bd 15d1 133c 2e73 8d3d d4fa d6ba
00000340: 79f3 993d e047 9d3d f2c3 353d 3821 903d
00000350: 3bed e43c 15a7 343d fa0b 333d 6ec8 8ebd
00000360: 2839 393d 2d22 82bd 5f74 abbc c42d b0bc
00000370: df3d 0dbd 403b 6eba b06c c73c 7828 553d
00000380: edd6 ddbc e8fe a5bc bb42 9a3d fa2b 833d
00000390: 3db7 7fbd 65ee 72bd 98d5 a03d 7997 1abd
000003a0: 9017 af3c c911 943c a5f2 53bd 8ca2 223d
000003b0: d66f a93d 7e57 5b3d 0ed1 f9bc 2bc4 ab3d
000003c0: 2575 853d e130 b5bc a9c5 393c 220c 17ba
000003d0: ce71 f73a a5b7 843d f188 8c3d 8fe5 783d
000003e0: 9b52 51bd 5e89 673d c3a0 93bd 2a7a 52bd
000003f0: e383 703d 3c58 a03c 5fcd ab3d 5383 043d
-0.013950585 0.04567617 0.0063957525 -0.012063313 -0.05989832 -0.04852986 -0.068511106 -0.07645102
0.06965014 0.04213026 0.04550238 0.04215197 -0.04534727 -0.020415122 -0.03332842 -0.014958243
0.07418969 0.05329076 -0.02564778 -0.013461598 -0.07137606 -0.08601272 0.026599329 0.056356132
-0.06639191 -0.034329187 -0.036507085 0.07814632 0.0687572 0.07340093 -0.002870685 0.07400633
0.04557027 0.057546232 -0.0282253 0.0062654554 0.08032282 0.08437348 -0.0662328 0.0015128084
0.0042032944 -0.013696334 -0.013777731 -0.058688674 0.06606893 -0.07493637 0.018166808 -0.03146768
-0.06386446 0.02248565 -0.026887128 0.03609731 0.041178733 -0.047469374 -0.07358715 -0.07286183
0.008222028 -0.0031437755 0.03056793 -0.07151395 0.04152908 -0.05345629 0.044049736 -0.0013715322
-0.02195877 -0.065016836 -0.028291145 -0.002239968 -0.06526731 -0.07264311 0.071942635 0.024237905
0.012132171 -0.067944504 -0.0042284247 -0.028623536 -0.087906115 0.032724056 0.07155733 0.031539857
0.027436733 -0.051334355 -0.05779141 0.065617904 -0.029559575 -0.011764355 -0.048697755 -0.08542988
-0.006726384 -0.029860979 0.039349858 0.08272247 0.0098740375 0.073774345 0.009222152 -0.047034185
-0.034591626 -0.02621986 0.06262013 0.028831352 -0.03285623 0.06874278 -0.056669377 -0.079248846
-0.035439387 -0.023032788 0.016984157 0.007543211 0.017037379 -0.00063835614 -0.07965603 0.02927166
0.072237715 -0.067326576 0.018910594 0.053162917 0.026389806 -0.08598093 0.056693844 -0.08587557
0.07056037 0.017746015 -0.05296233 0.06237844 -0.04446743 -0.025957284 -0.0023600233 -0.07076428
0.07699198 -0.034716178 -0.08651765 -0.05758513 0.08614435 -0.045487817 -0.019008197 -0.03028153
-0.0773672 0.07495707 0.025540147 0.058582824 0.079590224 -0.039569907 -0.040971268 -0.01949417
-0.06994986 -0.01948023 -0.06968126 0.08020534 -0.014529462 -0.0076247966 -0.04637583 0.06586319
-0.0192456 0.0606143 0.04023925 -0.021444432 0.05016771 -0.011976185 -0.08446618 -0.07401851
-0.018680053 0.08662767 0.07378805 0.08729726 0.011559564 -0.0696304 -0.067017384 -0.075986594
0.07875643 -0.016052997 -0.07619135 0.038680974 0.010378271 -0.038860362 0.066110246 -0.08501852
-0.047084995 -0.041832715 -0.017919375 -0.038431518 -0.08499641 0.020312062 -0.047611408 0.0006171141
0.024042869 0.064522676 -0.044020202 0.0412534 -0.080562286 -0.06592901 0.0405094 0.0048947665
-0.024162503 -0.00025335525 -0.061514284 0.05929028 0.035204556 0.025221558 -0.029087858 0.065237306
-0.06702842 -0.0689492 -0.039199688 -0.011772753 -0.07446393 0.009022017 0.069067344 -0.0016401657
0.07517142 0.07679725 0.04437632 0.07037586 0.027945152 0.044104654 0.043712594 -0.06971823
0.045220524 -0.06354175 -0.020929513 -0.021506198 -0.034482833 -0.00090878084 0.024343818 0.052040547
-0.027080024 -0.02026315 0.07532259 0.06404872 -0.06243061 -0.059309382 0.0785324 -0.03774211
0.02137354 0.018074887 -0.051745076 0.039705798 0.08273284 0.053550236 -0.030495193 0.083870254
0.06516484 -0.022118034 0.01133863 -0.0005762001 0.0018878521 0.0648034 0.06862057 0.0607658
-0.05110417 0.056527488 -0.07208397 -0.051386036 0.058719527 0.019573323 0.08388781 0.032351803

network.4.bias f4 [64]
00000000: ff10 84bd 6494 31bd d45e 22bd 3890 193c
00000010: 0c73 b43d 4335 51bd 84d6 f93b 3be0 b3bd
00000020: 8e82 6d3d 3bef 6c3d e8ea 5cbd a36e cf3c
00000030: 8cba 283c 8f98 67bc f85a 143d 4144 95bd
00000040: f275 7cbd 1187 723d 9a7d a3bd 409c 8d3d
00000050: 7eea 42bd 42a4 35bd c561 4a3d 1557 823d
00000060: 11c5 91bd 2521 863d 589c 83bd ba6c 2bbc
00000070: 2db4 983c 549b 7f3d 4534 593d 4214 0c3d
00000080: 296e a8bd 1887 9c3d 13ae fe3a f2a2 56bd
00000090: 8ed1 12ba 3a06 f93c 8517 6cbd a707 8c3d
000000a0: a215 b23d 8411 9a3d 0909 68bc b857 063d
000000b0: 747d 2fbd 08a7 593d 2772 11bd c7b5 a33d
000000c0: 518c 373d 2ebf 033d 58a2 e83c e4dc 053d
000000d0: 6160 91bc 27e8 92bd c17b 5fbd 7f07 4dbd
000000e0: 1f28 8b3d 31b2 24bd c01f 82bd b757 7c3d
000000f0: 7d87 743d e50d 993d 4768 b93b 9cfe a73c
-0.06448554 -0.043354407 -0.039641216 0.009372763 0.08811006 -0.051076185 0.007624449 -0.08783003
0.057985835 0.057845335 -0.05393496 0.02532131 0.0102983825 -0.014135494 0.036219567 -0.07288409
-0.06163592 0.05921084 -0.07982941 0.06914568 -0.04758691 -0.0443461 0.049409647 0.06364266
-0.071176656 0.065492906 -0.064263046 -0.010462934 0.018640602 0.06240399 0.053028364 0.034199007
-0.082241364 0.076429546 0.001943054 -0.05240149 -0.0005600684 0.030398477 -0.057639617 0.06837397
0.086955324 0.07522872 -0.01416231 0.0327985 -0.04284425 0.05313781 -0.035509255 0.07993656
0.04481155 0.032164745 0.028397724 0.03268136 -0.017746152 -0.07173186 -0.05456138 -0.050055977
0.06794762 -0.040209 -0.06353712 0.06160709 0.059699524 0.07473353 0.005658183 0.02050715

network.6.weight f4 [32, 64]
00000000: e238 9d3d 2806 f93d 0092 f8bb 9429 fd3d
00000010: 0032 cdbd 1887 c5bd d0e1 a3bd f056 133c
00000020: b801 103d e0a8 983b 4427 35bd 985b 3cbd
00000030: 4052 ef3d ec2c cabd 2c1a be3d e832 443d
00000040: 8034 66bd 4404 a63d d85f 8b3d fc55 fc3d
00000050: 9c48 063d 3209 f8bd 80c0 8c3c 7651 d8bd
00000060: 4cbf 6ebd 1062 adbd a005 633d 7008 723c
00000070: 0ac1 813d 642e 283d b0df 293d c062 0e3d
00000080: 52b4 9abd b880 003d 5872 923c 9a62 b4bd
00000090: 90d1 e1bc 0cfe 4dbd 86f3 9abd fe31 b1bd
000000a0: 1040 133c 6056 a03c a29b 9dbd 6603 92bd
000000b0: b8d8 d9bc b262 b2bd 7c54 36bd 3492 77bd
000000c0: fc2e ad3d 8c5e 013d 70bf f13c 5087 30bc
000000d0: 06e1 a9bd 80e8 553b b027 823c 9863 eabd
000000e0: 3620 c23d 78a5 a83d 101a 83bd e4ea 633d
000000f0: 2039 acbb 5682 be3d 526f f5bd be59 a33d
00000100: a418 4dbd 8246 8dbd 5ea2 ce3d c050 033b
00000110: c2a1 87bd 0a38 8ebd 6066 2abd 2cdd 7f3d
00000120: d4c8 8e3d 50b2 c2bd 968c 8fbd c4ac 073d
00000130: ee6e c73d 4021 f4bc f811 2fbd 905f cabd
00000140: 86cc b93d 16f2 da3d 2032 bdbb 70f7 80bd
00000150: 42f0 acbd dc6f f4bd 00ec 5c3b 261e e7bd
00000160: e872 f3bd 3609 d6bd 64ea 50bd cc71 873d
00000170: 480a bd3c 4897 883d 60c6 4cbc 1cea f93d
00000180: 30a6 a8bc 0ce6 93bd aed6 ef3d 40e2 9bbc
00000190: 0af5 dc3d c65e fc3d 6830 c8bd 1695 d23d
000001a0: c850 e73d 22d4 aebd 0807 11bd 8057 bbbd
000001b0: d4dc 963d 10c6 413c 7c30 15bd 42fa 8cbd
000001c0: 9ac6 e1bd 6051 f5bd d4c4 713d 7830 d8bc
000001d0: 401b 0d3d e86c 1b3d fc4d 763d 265c 8d3d
000001e0: c854 80bc 740d 52bd 3c74 4abd 047e 29bd
000001f0: ccb8 843d 08b9 303d 3c80 9d3d f06e a53d
00000200: 12ef fa3d f810 b8bc 2817 ffbc f60a cf3d
00000210: e853 c93c 6e71 89bd 50f7 863d 1c78 51bd
00000220: 22c7 e53d 4a6b ce3d 2819 fdbd a400 6f3d
00000230: 604f 663c d845 db3d 58b7 87bc a8b7 b4bc
00000240: 88ea dc3c 6a6a bdbd c85b c63c 4a4d b2bd
00000250: e0b5 b83b d057 343d a24f e9bd 4c3b 513d
00000260: ced4 a03d 7c27 723d a464 30bd f8aa febd
00000270: 6c05 783d 36c0 c53d 5c8f 91bd 44d8 e13d
00000280: f681 8b3d 60d3 d33c b0a4 e7bd 009b 66ba
00000290: 60bc c33d 14b9 043d 586b 9a3d caae 9d3d
000002a0: 68d9 393d b083 babc 7883 08bd 9a27 e2bd
000002b0: 08e4 903d c00d 94bc 601f bb3c 6a47 90bd
000002c0: 78b8 cebd 102d 9e3d a0c1 a63d 38b6 20bd
000002d0: 8eaf fcbd 8c89 7abd 6c80 ac3d e004 e93d
000002e0: 58c9 3b3d 78e7 f1bc 64dd 003d 2060 a1bb
000002f0: 5625 80bd 5294 b73d 4a1f c1bd 3a41 c8bd
00000300: e245 e43d 24ea c2bd fed3 83bd 4442 a23d
00000310: 00f5 8cbd b499 51bd 20b9 4d3c 28a4 2c3d
00000320: f0b2 e63d 801c 1d3d a85c f4bd 6e98 aa3d
00000330: 121f d23d e0ea e03b e296 933d 447f 133d
00000340: 3e1d dcbd 2c85 7f3d c0d8 6ebb 8adf d33d
00000350: 96d8 fcbd 247e 68bd e0df 163c 10b6 663d
00000360: be19 f33d 60f4 e0bb ce14 913d 8a9b c23d
00000370: bcb5 8dbd b8ee 313d 3890 a13d 7848 c53d
00000380: dcfc c0bd 20db 00bd 7494 61bd 36dd 87bd
00000390: 4eaa 83bd b48e 6cbd 827b 8bbd d838 893d
000003a0: 289d 863c c896 ffbd 7670 cfbd aead f13d
000003b0: dc40 a0bd feb4 e9bd 1c2b c9bd d4b9 ae3d
000003c0: 96eb d4bd ba2b 83bd b2ef d7bd da69 babd
000003d0: d6f2 ea3d 40cf b73d 7057 083d 4e1a fbbd
000003e0: 2c98 333d 6066 023c 909e 9bbd 20aa 2fbc
000003f0: 44df b0bd d0fc 113d aa59 bcbd e6a2 f63d
0.07676865 0.12159377 -0.007585764 0.12361446 -0.10019302 -0.09644908 -0.08002055 0.0089928955
0.03515789 0.0046588033 -0.0442269 -0.045985788 0.1168561 -0.098718494 0.09282336 0.04790011
-0.05620241 0.08106282 0.0680539 0.12321088 0.03278409 -0.12111129 0.017181635 -0.105624124
-0.058287904 -0.084659696 0.055425286 0.0147725195 0.063356474 0.041059867 0.04147309 0.034762144
-0.075539246 0.031372756 0.017876789 -0.08807869 -0.027565747 -0.050291106 -0.0756598 -0.086521134
0.008987442 0.019572437 -0.076957 -0.071295545 -0.026592597 -0.08710231 -0.044514164 -0.060442165
0.08456227 0.031584308 0.02951023 -0.0107744485 -0.08294873 0.0032639802 0.015888065 -0.11444777
0.094788 0.08234686 -0.064014554 0.05564393 -0.0052558333 0.09302203 -0.11984123 0.07976101
-0.050072327 -0.06898214 0.10089563 0.0020037144 -0.0662265 -0.06944282 -0.04160154 0.062466785
0.06971899 -0.09506667 -0.070092365 0.033123747 0.09737955 -0.029801011 -0.042741746 -0.09881508
0.09072213 0.106907055 -0.0057737976 -0.06297195 -0.08444263 -0.11935398 0.0033710003 -0.11285047
-0.11887151 -0.104509756 -0.051004782 0.06613502 0.023076192 0.066694796 -0.012498468 0.12202856
-0.020587057 -0.07221612 0.11710869 -0.019028783 0.10788925 0.12322764 -0.09774858 0.10282342
0.11294705 -0.08536555 -0.035407096 -0.09147549 0.07366338 0.011827007 -0.03642319 -0.068836704
-0.11024208 -0.11978412 0.0590256 -0.0263903 0.034449816 0.037945658 0.060132965 0.069023415
-0.015665427 -0.05128236 -0.049427256 -0.041379943 0.0648056 0.04314521 0.076904744 0.080778
0.1225263 -0.022469029 -0.031138971 0.101095125 0.024576142 -0.06711088 0.0659014 -0.051139936
0.11219622 0.100790575 -0.12358314 0.05835022 0.01405701 0.10706681 -0.016566917 -0.02206023
0.026967302 -0.092488125 0.024213687 -0.08706148 0.0056369156 0.044029057 -0.11392142 0.05108194
0.07853089 0.059119686 -0.04306473 -0.124349535 0.060552046 0.09655802 -0.07107422 0.110275775
0.068118975 0.025857627 -0.113107085 -0.00087969005 0.09557414 0.032403067 0.075400054 0.07699354
0.04537335 -0.022767872 -0.033328503 -0.1104271 0.070747435 -0.018072963 0.02284211 -0.07044871
-0.10093778 0.07723439 0.081424 -0.039236277 -0.12338172 -0.06116633 0.08422932 0.11377883
0.045846313 -0.029529318 0.031461135 -0.004924789 -0.06257121 0.08963837 -0.09429796 -0.09778066
0.111461416 -0.09517315 -0.06436919 0.079227954 -0.068826675 -0.051171973 0.012556344 0.04214874
0.11264598 0.038357258 -0.11931735 0.08329855 0.102598324 0.006863937 0.07206513 0.03601004
-0.10747765 0.062382862 -0.003644511 0.10345371 -0.12345998 -0.056760922 0.009208649 0.056325972
0.11870144 -0.0068650693 0.07084046 0.09502323 -0.06919429 0.04344055 0.07888836 0.09632963
-0.09423229 -0.031458974 -0.055073217 -0.066339895 -0.064289674 -0.05775328 -0.068106666 0.06700295
0.01643236 -0.12479931 -0.10128872 0.11800705 -0.07824871 -0.11411475 -0.098226756 0.08531538
-0.10396497 -0.064048246 -0.10543765 -0.09102221 0.114720985 0.08975077 0.033286512 -0.122608766
0.043846294 0.007958978 -0.07598603 -0.010721713 -0.086363345 0.03564149 -0.091967896 0.12042789

network.6.bias f4 [32]
00000000: e4d1 ce3d 420e cdbd 600e 0d3c f2c1 853d
00000010: c0d1 023d c0d6 8b3d 9889 b83d 9eed 9f3d
00000020: 008a 31bc f88b 93bc 80b6 9aba 7ca1 a53d
00000030: 9216 8abd 2c96 a13d 382b bfbc 20ba babb
00000040: d8ca fdbc 3c2f 583d a06f 82bb b2b4 c63d
00000050: 7e6f 8abd 78bc 92bc 9048 f73d 04e9 56bd
00000060: dc7d d43d 3624 edbd 60ea e0bc 7a74 fcbd
00000070: 6ca5 683d 9087 fbbc 9e6d 97bd a0c7 a5bc
0.10098627 -0.10012485 0.008609384 0.06531133 0.031938314 0.0682807 0.09010619 0.07808994
-0.010836124 -0.018011078 -0.0011803657 0.08087441 -0.06742586 0.07889971 -0.023336038 -0.0056984574
-0.030980512 0.05277942 -0.003980592 0.09702434 -0.06759547 -0.017912135 0.12074387 -0.052468315
0.10375568 -0.11579172 -0.027455509 -0.12326904 0.056798384 -0.03070429 -0.07393955 -0.02023679

network.8.weight f4 [1, 32]
00000000: c88b 90bb fa9a c23d cb91 24be 5626 70bd
00000010: 6f66 8a3d b993 6b3c 7fac c7bd 6a60 183e
00000020: 5b47 17bc 38e6 893c 0d91 dc3d 0588 bbbd
00000030: 95ff 01bd 8fb8 223e dfc3 fcbb f86a 29bd
00000040: f6fe 453d 7214 1cbe 221b 303e 7d8f 8bbd
00000050: 65ce 9a3d 1826 033d 0b54 c43d 4fe7 6c3d
00000060: 85c0 2ebe ce24 e13b 58d3 013e 565b 1d3e
00000070: 4a8c 28be 8e69 26be 98da f2bb 47f8 a5bd
-0.0044111945 0.09502216 -0.1607124 -0.05863031 0.06757819 0.014378482 -0.09749698 0.14880529
-0.009233321 0.01683341 0.10769854 -0.09156803 -0.031737883 0.15890716 -0.0077137793 -0.04136178
0.048338853 -0.15242174 0.1719785 -0.068144776 0.07558898 0.03201875 0.095863424 0.05783778
-0.17065628 0.0068708425 0.12678277 0.15366873 -0.16459766 -0.16251203 -0.0074113123 -0.08103996

network.0.weight f4 [128, 19]
00000000: 33a4 f53d 5bb4 f8bd 144e bebd 5717 383e
00000010: d62f ea3a c6c6 b53d d5bb 24be b57a 373e
00000020: a9d9 3b3e 32e2 d33c d881 e3bd 6cb0 4f3e
00000030: 9d06 18be 8cef 12be 7429 7f3d 2357 c3bd
00000040: fac9 1abd e901 243e eaed cabd 7f7b 0a3e
00000050: 410c 253e f83e 593e 5e41 a4bd 9435 943d
00000060: db85 673e ee40 aabd af4b 863d b806 a63d
00000070: 87c1 b13c 2cbe 14be 4e6a 67be 059b a9bd
00000080: 89ee 20bd 3944 c6bd be0c 113d 3f81 17be
00000090: 2949 1a3e 8c08 89bd bd84 bfbd 4059 e6bb
000000a0: 9d71 62be dc1c 063e 68c1 6a3e 5226 d03d
000000b0: cbe1 533d 18c0 2f3b 11a8 983d 56e1 f8ba
000000c0: 3643 2c39 1ab2 2c3e b2e4 053e 0f5d 43be
000000d0: f106 62be 3b56 8f3d 5bf8 a2bd f3ea b43d
000000e0: 3262 fcbd fce8 3fbe 527c e5bd 6dfc 373d
000000f0: d39b cf3c 64b0 17be 95a8 87bd 8e34 843c
00000100: a043 3ebd 5edb 1d3e c5d7 433d a50e d53d
00000110: bb71 c73c e642 2d3e c32c 523e fa13 44be
00000120: cb3b aebd 2a22 a4bd 77a5 9fbd f8e9 59be
00000130: 76d1 34be d8d0 05be 955f 1c3d 96f5 243e
00000140: 6a7a d2bb f0e3 db3d c2ac 20be ba3c 223e
00000150: 2ebf 99bd 6b56 ddbd dc9d a8bd dbdf 0fbe
00000160: 3fbe 583e 95c0 31be de20 19be da3f 633e
00000170: 55f8 ac3d ff2a f3bd 76dc 783d 231e 10be
00000180: eb9c c83d 891e 1cbe f837 33be 6616 1dbc
00000190: bc0e 26bd acd1 8dbd ebcf e2bd 57ac 5cbe
000001a0: eaf7 42bd e0cd 603e f848 1ebe 3875 9dbd
000001b0: ad41 4abe cfab 53be f197 543e 0db8 ed3d
000001c0: f695 4d3e 1ca8 343e 2d7e 49bc 0579 31be
000001d0: 80e9 423e b411 143d f5a5 18bd 6632 18be
000001e0: 9c4d b7b9 2430 963d 3855 0fbe ac70 8dbd
000001f0: b8a5 d03b 237e 333d c9c0 873d ef90 0bbe
00000200: 0f69 303d ec00 103e 471e 073e 2512 96bd
00000210: fb0c fa3d 69cd 173e c9b4 693e 713f 3cbe
00000220: 8061 5dbe f2bf 093e f24a 29be faa1 92bd
00000230: 12a3 503e 4441 113e 9a6b f9bd de03 4bbe
00000240: 939b 253e 5c5e 563e ca38 1c3e 8d66 9a3c
00000250: 8afa 88bc 842d 3dbd 2df3 cbbd 0d36 ce3c
00000260: 719f 48bd b11f 43be 3921 dcbb 33a2 9e3c
00000270: 7bb3 96bd 900b 55be b3c9 3fbe 79da 663e
00000280: 6dcc 28be 01de 0bbd 37c7 cebc 827b a33c
00000290: 6d3c 57be aaf1 24be 4232 8bbd 79fd cb3d
000002a0: 1e07 3d3b c2e8 13be 070a 7cbd d750 203e
000002b0: b714 36bd 5941 21be 1ec1 3b3d 6ada 10bd
000002c0: b503 01be 4472 8abc 44ea 0fbe c054 55be
000002d0: 4a45 be3d 911f 013d 0dcc 2abe a000 f43b
000002e0: 662c c0bd dbad ecbd 376f bf3c 88a1 023d
000002f0: 0362 203e 3e47 cdbd 7562 12bd 82cd f8bd
00000300: 38b9 503b 576f 14be 490e 35be a11d 17bd
00000310: 7e87 093e 9be9 2f3e 4a0b 043e c70b 673e
00000320: f0fd 413d eefc 503e 7273 d3bc b425 013d
00000330: 56f6 6fbd bc91 533e 5101 6a3e 7621 323e
00000340: 4d18 b73d 4fec b73c 1245 b13d fb50 49be
00000350: 8b5b 1e3e a511 09be f14a 50be eedb f83d
00000360: 85fb 4fbe 1de2 38be 65cf 06be 7641 d4bc
00000370: 1abd 683e 103a a83d a9bd 17be e530 a03d
00000380: fc0a b3bd 73bf 01be 7d45 9b3d d166 cebd
00000390: 20e5 073e 1223 21be 87bd 6fbd 2c51 1f3e
000003a0: ab48 1cbe cc36 393e 1eaf 8b3d 0694 3c3e
000003b0: fc96 c53d a11f efbd 22c4 043e b8eb 583e
000003c0: a0f6 d8bd 6d6f 59bd 5aeb 3bbe 5f56 583e
000003d0: b76e 7a3d 19eb fb3d 87a4 f5bd d0ce a53d
000003e0: 36b2 3dbe e0b2 573c 8ec0 37be 1985 cfbd
000003f0: 37fc 1bbd 0f8d 233e 1e25 28be 6aaa d83d
0.11994209 -0.12143775 -0.09292236 0.17977653 0.001786704 0.08875804 -0.16087277 0.17917903
0.1834475 0.025864694 -0.1110875 0.20282143 -0.14846273 -0.14349192 0.062295392 -0.095381044
-0.037790276 0.16016354 -0.0990866 0.13523673 0.16117956 0.21215427 -0.0802028 0.07236782
0.22609656 -0.083131656 0.06557404 0.0810675 0.021698726 -0.1452567 -0.22599146 -0.08281521
-0.039289985 -0.09680981 0.035412543 -0.14795397 0.15066971 -0.06691083 -0.0935149 -0.0070296824
-0.22113653 0.13096946 0.22925341 0.10163559 0.051729005 0.0026817378 0.07453931 -0.0018988054
0.00016428236 0.16864815 0.13075522 -0.19078468 -0.2207296 0.06998869 -0.07957526 0.088338755
-0.12323417 -0.1874122 -0.11205353 0.044918466 0.025342857 -0.14813381 -0.06623951 0.016138341
-0.04645121 0.15415713 0.047813196 0.10403184 0.024346223 0.16920051 0.20524888 -0.19148245
-0.08507498 -0.08014329 -0.07795232 -0.21280658 -0.17658028 -0.13067949 0.03817709 0.16109309
-0.0064232843 0.10736835 -0.15690902 0.15843478 -0.07507168 -0.108074985 -0.08233234 -0.14050238
0.21166323 -0.1735862 -0.14953944 0.22192326 0.08445803 -0.11873435 0.060757123 -0.14073996
0.09795555 -0.15246023 -0.17501819 -0.00958786 -0.040541396 -0.06924757 -0.110748135 -0.21550117
-0.04759971 0.21953535 -0.15457523 -0.07688373 -0.19751616 -0.20671009 0.20761086 0.116073705
0.20076737 0.17642254 -0.012298149 -0.17331322 0.19034386 0.036149696 -0.037267644 -0.14862975
-0.00034962303 0.07333401 -0.13997352 -0.06906256 0.0063674115 0.043821465 0.06628568 -0.13629507
0.04306894 0.14062852 0.13195144 -0.073276795 0.12209507 0.14824452 0.2282287 -0.18383576
-0.21619225 0.13452128 -0.16532496 -0.07159801 0.20374706 0.14185053 -0.121787265 -0.19825694
0.16172628 0.20934433 0.15256038 0.018847728 -0.016721029 -0.046185985 -0.099584915 0.025172258
-0.04898018 -0.19055058 -0.0067178276 0.019364452 -0.07358452 -0.20805192 -0.18729286 0.22544278
-0.16484232 -0.034147266 -0.025241477 0.019956354 -0.21019144 -0.16107813 -0.06796695 0.099604554
0.0028843354 -0.14444259 -0.061533 0.15655838 -0.04445335 -0.15747584 0.045838468 -0.035364546
-0.1259907 -0.01690019 -0.14054209 -0.20833111 0.092905596 0.031524245 -0.16679402 0.0074463636
-0.09383468 -0.11556598 0.023368461 0.03189233 0.15662389 -0.10023354 -0.035738427 -0.121485725
0.003184868 -0.14495598 -0.1768123 -0.03689349 0.13430592 0.17178957 0.12894931 0.22563086
0.047361314 0.20408985 -0.025811885 0.031530097 -0.058584534 0.20661062 0.22852065 0.17395577
0.08940182 0.022451548 0.08655752 -0.19659798 0.15464608 -0.13385637 -0.20341088 0.12151323
-0.20310791 -0.18055005 -0.13165052 -0.02591012 0.22728387 0.082141995 -0.14818443 0.07821826
-0.087423295 -0.12670688 0.07581613 -0.100782044 0.13270998 -0.15736035 -0.058530357 0.15558308
-0.15262096 0.1808731 0.0682051 0.18415841 0.096479386 -0.116759546 0.12965444 0.2118367
-0.10593915 -0.05308478 -0.18351498 0.21126698 0.061140742 0.12300701 -0.11994272 0.08096087
-0.18525013 0.013165206 -0.17944548 -0.10132808 -0.038082328 0.15971778 -0.16420409 0.10579379

network.0.bias f4 [128]
00000000: 7091 56be 2782 103e 7d45 97bd f24b 2fbe
00000010: fbb5 f4bd 3952 483e c247 1bbe 1d96 43be
00000020: ae00 543e 4bfb 0e3e eee7 043d 524a 5e3e
00000030: 3d06 2fbe 89f9 123e 3d90 f63c 4ecb 323c
00000040: ec54 57be 7662 333d 2861 ddbd 6465 2dbe
00000050: 7887 36be c05b 0c3e 15dd 613d 34c1 813d
00000060: 7b04 15bd 9ab9 543e 2124 4cbd 74a8 0dbe
00000070: 44a7 a6bd ac08 5e3d bf08 0e3e b934 30bd
00000080: fd0d 643e b253 8abd d922 403d 256e b6bd
00000090: c58c 2f3e a0b3 0d3e 0c94 af3c 2930 66be
000000a0: 32f4 613d 2fb0 933d 48a2 033e a3ec 59be
000000b0: 086a 0bbd c30c 02be 3261 39be 9924 a9bd
000000c0: 4a6c 41be 3e3b 6a3e 5bb2 2a3e 533f 55be
000000d0: 2337 86bb 7b19 083e 9237 75bd 8356 463e
000000e0: 22fe 3fbe 0b2a 61be 7492 29be ac34 3d3e
000000f0: f6bb 5d3d a37a 8a3c 9fe2 1dbe bd08 80bd
00000100: 2665 0e3e 202d d7bd 67a1 093e dad2 483e
00000110: 1069 bfbd 6278 2d3e 09eb 6fbd f320 dc3d
00000120: e690 cf3d e878 86bd 9a1b 09bd b914 493e
00000130: 0b0a 54be 15ef 30be e09f 47be 54fa 67bd
00000140: bddf 43bc 37ee 3a3e 62dd 903d 218a 7abd
00000150: c7e4 52be c4e6 ea3d d871 c9bd 15f8 0cbe
00000160: 2af5 fcbd 5df2 4e3e 0c88 6bbd 14a5 c53d
00000170: 5ee0 0cbe 8a75 7a3d fe4d 7cbd 644c 26be
00000180: ea08 f5bb 8e89 823c 91bf e8bc 54af f2bc
00000190: d48f f03d f094 4b3e 0c2d 4f3e a00d 67be
000001a0: cc99 31be 1f04 1e3e 3bef 30be 450c 1bbe
000001b0: b09a 253e 57d9 74bd 52e1 82bd ebf8 9e3c
000001c0: 86b9 b83d feaa 5d3e 18e7 14be 1b43 1b3d
000001d0: fdf3 843d 82ef 8ebd b740 37be d13c 1d3e
000001e0: 7d3f 21be 2ed9 e2bd 0cf2 8a3d e58b a93d
000001f0: feeb 0abe 3e88 483d 06b2 cdbc dcde 8f3b
-0.20953918 0.14112149 -0.07386301 -0.17118815 -0.119487725 0.19562615 -0.15164092 -0.19100232
0.20703384 0.13963048 0.032447748 0.21708038 -0.17092223 0.14353003 0.030098075 0.010912729
-0.21028489 0.04379507 -0.10809547 -0.16933209 -0.17825115 0.13706875 0.05514248 0.06335679
-0.036381226 0.20773926 -0.049839143 -0.13833791 -0.08137372 0.05420749 0.13870524 -0.04301903
0.22270961 -0.06754245 0.046908233 -0.08907727 0.17143543 0.13838053 0.021432899 -0.22479309
0.055164523 0.07211339 0.12854874 -0.21281676 -0.034036666 -0.1270018 -0.18103483 -0.082589336
-0.18888965 0.22874162 0.166696 -0.20824938 -0.0040959283 0.1329097 -0.05986745 0.19368939
-0.18749288 -0.21988694 -0.16559774 0.18477124 0.05413433 0.01690418 -0.1541848 -0.06251667
0.13905773 -0.10506654 0.13440476 0.19611683 -0.09346211 0.16940454 -0.058573756 0.10748472
0.10135059 -0.0656603 -0.03347359 0.19636811 -0.20706956 -0.17278703 -0.19494581 -0.056635216
-0.011955199 0.18254934 0.070734754 -0.061166886 -0.20595084 0.11469796 -0.09836167 -0.13766511
-0.12351449 0.20209642 -0.05750279 0.09650627 -0.13757464 0.06114725 -0.061597817 -0.16240078
-0.0074778693 0.015934732 -0.028411658 -0.029624619 0.11746183 0.19881034 0.20232028 -0.22563791
-0.17343825 0.1543126 -0.17278759 -0.15141399 0.1617229 -0.059777584 -0.06390633 0.019405803
0.09019761 0.2164726 -0.1454128 0.037905794 0.064918496 -0.06979276 -0.1789578 0.15355231
-0.15746875 -0.1107658 0.06784448 0.08278636 -0.13566586 0.048958056 -0.025109302 0.0043905806
