models/sudoku_ltn_unified.pth (torch, 993778 bytes, 48 tensors)

network.0.weight f4 [256, 85]
0	0xbddbb65b	-0.10728141
1	0xbd53c2de	-0.05169951
2	0x3b397304	0.0028297314
3	0x3d962e5f	0.07333063
4	0xbd4a88f5	-0.04944702
5	0xbca18add	-0.019719535
6	0xbd86f832	-0.06590308
7	0x3ca3f0ff	0.020012377
8	0x3d9ea577	0.07746404
9	0x3dc9e3c9	0.098579
10	0xbdb5c076	-0.088746
11	0x3d8c7f8f	0.06860267
12	0x3dbd37f5	0.092391886
13	0x3d812f1e	0.06307815
14	0x3d7a8948	0.061166078
15	0xbd26485c	-0.04059635
16	0x3dbdf659	0.09275503
17	0xbd8ed949	-0.069750376
18	0xbdb59e7a	-0.08868118
19	0xbd07dc7d	-0.03316926
20	0x3c48a3fb	0.012246127
21	0xbda8c5bb	-0.08240839
22	0xbdd2c5d0	-0.10291636
23	0x3d9a2488	0.07526499
24	0x3d0dbeaa	0.03460566
25	0xbd833d7e	-0.06408213
26	0xbc182ff4	-0.009288777
27	0xbdb97aa4	-0.09056595
28	0x3d20d0b9	0.039261553
29	0x3dd925ae	0.1060289
30	0x3dc6ce42	0.09707309
31	0x3dda8849	0.106705256
32	0x3d2d209a	0.04226742
33	0x3d0bf2cc	0.034167096
34	0xbd9d570c	-0.076826185
35	0xbb924ee3	-0.0044649704
36	0xbd40a8b7	-0.0470359
37	0xbd91b979	-0.07115454
38	0x3dbd54e5	0.09244708
39	0x3c514af3	0.012774217
40	0xbdcf00e8	-0.10107595
41	0xbc6a1524	-0.014287267
42	0x3cd789a5	0.026310751
43	0x3d4bc1f6	0.049745522
44	0xbd496792	-0.049171038
45	0x3cb2ed01	0.021841528
46	0xbd8f84a9	-0.07007725
47	0xbd40992d	-0.04702108
48	0x3d96ef16	0.07369821
49	0xbdccc88e	-0.0999919
50	0x3d34c0c2	0.04412914
51	0xbd23f34d	-0.04002695
52	0x3ccc6511	0.024950536
53	0xbd953507	-0.07285505
54	0xbd997b8d	-0.074942686
55	0xbdc6a822	-0.097000375
56	0xbd0b07a9	-0.033942852
57	0xbd806a3b	-0.06270262
58	0xbdbba6df	-0.091626875
59	0x3d9f5d46	0.07781462
60	0x3dd43988	0.10362536
61	0x3ddc2242	0.10748722
62	0x3cfd61e6	0.03093047
63	0xbc20d4a5	-0.009816323
64	0xbddb497b	-0.10707375
65	0xbd83e094	-0.06439319
66	0xbd4432b6	-0.047899924
67	0x3db0529f	0.08609509
68	0x3dc63278	0.09677595
69	0x3da3ffde	0.08007787
70	0xbd2e1b9e	-0.042506807
71	0x3cdc9345	0.026925692
72	0xbd874e6f	-0.06606757
73	0x3dddc95f	0.10829424
74	0x3d2ed2e6	0.042681597
75	0xba9c6059	-0.0011930569
76	0xbc832d29	-0.016012745
77	0x3c1e1864	0.00964937
78	0x3d8efb7a	0.06981559
79	0x3dd3b271	0.10336769
80	0x3d99f86a	0.07518084
81	0x3dc6ad3d	0.09701011
82	0xbd8d4b72	-0.06899156
83	0x3d3a53fc	0.04549025
84	0xbd07816f	-0.033082422
85	0x3cb67524	0.022272654
86	0xbbe028b9	-0.006840792
87	0xbd4cf191	-0.050035063
88	0x3c6d9f88	0.014503367
89	0xbd92a8b1	-0.071610816
90	0xbd334051	-0.04376251
91	0x3cfa0283	0.030518776
92	0xbbc257cf	-0.0059308778
93	0x3c1f735f	0.009732096
94	0xbd95e019	-0.07318134
95	0xbc677c40	-0.014128745
96	0xbdc3836c	-0.09546551
97	0x3d920b7e	0.07131098
98	0x3c3d1a5d	0.01154193
99	0x3dcdb0ff	0.10043525
100	0x3cb1b6ee	0.021693673
101	0xbd058b0c	-0.03260331
102	0xbd4e3ff0	-0.050353944
103	0x3d4a0d67	0.049329188
104	0xbddd2a53	-0.10799088
105	0xbd0b70d4	-0.03404315
106	0xbd4064b8	-0.046971053
107	0xbd1123be	-0.035434477
108	0xbbf0630d	-0.0073360265
109	0xbdb932a4	-0.09042862
110	0xbd0a3955	-0.033746082
111	0x3cedad48	0.029013291
112	0xbd0a8409	-0.033817325
113	0xbc44b76e	-0.012006624
114	0xbda36aa4	-0.079793245
115	0x3bae7c0b	0.0053248457
116	0x3d1933e4	0.037403002
117	0xbd2c7447	-0.04210308
118	0x3d19201c	0.037384138
119	0x3dc849cb	0.097797
120	0x3ca3afb3	0.01998124
121	0x3d56f93a	0.052483775
122	0x3c02d0db	0.007984365
123	0xbdb0a389	-0.08624942
124	0x3c3a3bf2	0.011366831
125	0xbdcdbfd6	-0.100463554
126	0x3dd05684	0.101727515
127	0xbdd84aca	-0.1056114
128	0xbb6da276	-0.0036260164
129	0x3d2ccaaf	0.04218548
130	0xbd8292c8	-0.063756526
131	0x3d761db4	0.06008692
132	0xbccb658c	-0.024828695
133	0x3db55b8c	0.08855352
134	0xbb5b54c3	-0.003346727
135	0xbc31ad46	-0.010844534
136	0xbdd40075	-0.1035165
137	0xbd6dc749	-0.05805138
138	0x3aff2a89	0.0019467633
139	0xbd01cc91	-0.03168923
140	0xbdd99238	-0.10623592
141	0x3dd62c33	0.10457649
142	0x3b9725c7	0.0046126577
143	0x3d82080a	0.063491896
144	0x3d4fdf36	0.05074998
145	0xbcbac15c	-0.022797279
146	0xbccc3aa8	-0.024930313
147	0x3cf031ba	0.029320586
148	0x3d4442bc	0.047915205
149	0xbd2fed04	-0.042950645
150	0xbdcfbaa4	-0.10143021
151	0xbdc1a08b	-0.09454449
152	0xbcd19462	-0.02558345
153	0xbb5b3bd1	-0.0033452401
154	0xbd85a579	-0.06525702
155	0xbdb33dd8	-0.0875203
156	0x3c9f261e	0.019427355
157	0x3d9ffbcf	0.078117006
158	0xbd3dfeac	-0.046385452
159	0x3d1dc839	0.038521025
160	0xbd5964af	-0.053074535
161	0x3db36a09	0.08760459
162	0x3d9843f0	0.07434833
163	0xbdbe3e00	-0.09289169
164	0x3d363dfd	0.04449271
165	0x3d9ffa0d	0.07811365
166	0x3d99a5dc	0.07502338
167	0x3d4ebeca	0.05047492
168	0x3c47c577	0.012193075
169	0x3d323073	0.043503236
170	0xbcd5c29c	-0.026093774
171	0x3d4deb06	0.050272964
172	0xbdd88c88	-0.10573679
173	0x3c8442dc	0.016145162
174	0xbd97ab71	-0.07405747
175	0x3d91604b	0.070984446
176	0x3db0d5a9	0.086345024
177	0x3d67e472	0.056614347
178	0xbcd28f7a	-0.02570318
179	0xbddb01f7	-0.10693734
180	0x3d8aa4ea	0.06769736
181	0xbd9adbc4	-0.07561448
182	0x3db9bfd9	0.09069795
183	0x3dad33dd	0.08457158
184	0xbdc7dabb	-0.097585164
185	0xbd8f6295	-0.07001225
186	0xbc1988df	-0.0093710115
187	0x3ddcf47f	0.107888214
188	0x3ba7776d	0.005110672
189	0xbdb830b9	-0.08993668
190	0xbd243c8a	-0.040096797
191	0xbdc5ea99	-0.096638866
192	0xbdcfce61	-0.101467855
193	0xbd084960	-0.0332731
194	0x3dc2c17f	0.09509563
195	0xbd597f23	-0.053099763
196	0x3d01052f	0.031499084
197	0xbd1bf2bb	-0.038073283
198	0x3c56c8ee	0.013109429
199	0x3d6b766d	0.057485987
200	0x3dc5eda4	0.09664467
201	0xbdd250e1	-0.10269333
202	0x3d1a1a6f	0.037622865
203	0xbd5bed8d	-0.053693343
204	0x3d55b82b	0.05217759
205	0x3d86de50	0.065853715
206	0x3c8b2fce	0.016990568
207	0x3b955d40	0.0045582354
208	0xbd10acda	-0.035321094
209	0xbce70373	-0.028199887
210	0x3d1298cf	0.03579026
211	0x3d5768a2	0.05259002
212	0x3c5a2e02	0.013316633
213	0x3dbc8021	0.09204126
214	0x3d8dc5df	0.069225065
215	0xbcc40a28	-0.023930624
216	0xbd06e1cc	-0.03293018
217	0xbd291b14	-0.04128559
218	0x3dd159e8	0.102222264
219	0xbca592f0	-0.020211667
220	0x3ac1c9d4	0.0014784881
221	0x3d657325	0.056018014
222	0xbc9357f3	-0.017986273
223	0xbd318939	-0.043343756
224	0x3dd1fa28	0.10252792
225	0x3d59e4e7	0.053196814
226	0x3d288d99	0.041150663
227	0xbd293b6d	-0.04131644
228	0x3d58b381	0.052905563
229	0xbda31f53	-0.07964959
230	0x3d1ef06a	0.038803495
231	0xbd7cf8d2	-0.06176073
232	0x3d1056b4	0.035238937
233	0xbd8f9185	-0.070101775
234	0xbdb61faa	-0.08892758
235	0xbd8db659	-0.06919546
236	0xbdbe751f	-0.09299683
237	0x3da083f2	0.078376666
238	0xbdacf8c3	-0.08445885
239	0xbdc810f7	-0.09768861
240	0x3ce7fc98	0.028318688
241	0xbd5f372c	-0.054495975
242	0x3c637426	0.013882672
243	0xbcacfcb3	-0.02111659
244	0x3d62dc80	0.055386066
245	0xbdd1537e	-0.10221003
246	0xbbba30f0	-0.0056821033
247	0xbd9a767c	-0.0754213
248	0x3cfc266d	0.030780042
249	0x3d720362	0.059085257
250	0xbd0289a3	-0.03186954
251	0x3d6ea97a	0.058267094
252	0x3d150417	0.036380854
253	0x3b42ee40	0.002974406
254	0xbc8dafc0	-0.017295718
255	0x3d8f76f4	0.070051104

network.0.bias f4 [256]
0	0x3dbc2461	0.09186626
1	0xbb88acee	-0.0041710055
2	0xbda100bf	-0.078614704
3	0x3d0e2fc8	0.034713537
4	0x3dd78c0a	0.10524757
5	0xbdbdb81a	-0.0926363
6	0x3c57859b	0.013154413
7	0x3da6f216	0.08151643
8	0xbd00f357	-0.031482067
9	0x3d90fa38	0.070789754
10	0x3c8e8a5d	0.017399961
11	0x3c51d3f1	0.012806878
12	0xbdb1928a	-0.08670528
13	0xbc440d69	-0.011966088
14	0xbda4087a	-0.08009429
15	0x3d999d89	0.075007506
16	0xbd32587d	-0.04354142
17	0xbb509459	-0.0031826703
18	0x3d29b330	0.041430652
19	0x3d5700e6	0.05249109
20	0x3c32a4f4	0.010903586
21	0xbcd68c61	-0.026189985
22	0xbdd15ee0	-0.10223174
23	0x3cfa326e	0.030541625
24	0x3d21ed9f	0.039533254
25	0x3db16671	0.08662117
26	0x3cf49551	0.029856356
27	0x3db0f29f	0.08640026
28	0xbca91d08	-0.020643726
29	0x3dddfda5	0.108393945
30	0x3cc5fb2c	0.02416762
31	0x3d19e5a6	0.037572525
32	0xbd91e4cf	-0.0712372
33	0x3d899a15	0.06718842
34	0xbd82d1c2	-0.063876644
35	0x3d985cb2	0.07439555
36	0xbd030f7b	-0.031997185
37	0xbdbdc119	-0.09265346
38	0x3d432b32	0.047648616
39	0x3d6c0233	0.057619285
40	0xbddc13b7	-0.10745948
41	0x3ddd6398	0.108100116
42	0x3c9c14b1	0.019052835
43	0x3db31d9a	0.087458804
44	0x3d78622b	0.060640495
45	0xbcaa5359	-0.020791696
46	0xbc97d79b	-0.018535426
47	0x3dcf2a97	0.10115545
48	0xbd6261e9	-0.055269156
49	0xbd3aa7b9	-0.04557011
50	0x3d5500e7	0.052002814
51	0x3d82ec18	0.063926876
52	0x3cfe7101	0.031059744
53	0x3dd5bbc1	0.10436202
54	0xbca3b612	-0.019984279
55	0xbddc5c02	-0.107597366
56	0xbdaac685	-0.08338646
57	0x3d9218f9	0.071336694
58	0xbdb8d03e	-0.09024094
59	0xbd783dc8	-0.060605794
60	0xbdc660e6	-0.09686451
61	0x3cfb1806	0.030651104
62	0x3d146a8b	0.03623442
63	0xbdc1f4a5	-0.0947049
64	0x3c268dbd	0.010165629
65	0x3d43de72	0.047819562
66	0x3c9bf458	0.01903741
67	0x3d7d5ab6	0.061854087
68	0xbbf06dca	-0.0073373066
69	0xbdb48e18	-0.08816165
70	0xbdb6cb02	-0.089254394
71	0xbd6f687f	-0.058449265
72	0xbd53037b	-0.05151699
73	0x3c20ae3f	0.0098071685
74	0xbd2a5ed9	-0.04159436
75	0x3db4b044	0.088226825
76	0x3dd96322	0.10614611
77	0xbdaa892d	-0.083269455
78	0x3da71336	0.08157961
79	0xbdd271a1	-0.10275579
80	0xbd5e79c0	-0.05431533
81	0x3dd3af15	0.103361286
82	0xbdbb0ced	-0.09133325
83	0x3d3728aa	0.044716515
84	0xbdd4200a	-0.103576735
85	0xbd9b099b	-0.075701915
86	0x3b09ba5c	0.002101562
87	0xbdb5c455	-0.08875338
88	0x3c4f2391	0.012642757
89	0x3cba798e	0.02276304
90	0xbdc8e5b1	-0.09809435
91	0xbd5bc439	-0.05365393
92	0x3ddd8c20	0.10817742
93	0xbd012685	-0.031530876
94	0x3dcc2cb4	0.09969464
95	0xbd903923	-0.07042148
96	0xbc8dd8a4	-0.017315216
97	0xbb888f8a	-0.004167502
98	0x3d54cf63	0.051955592
99	0x3c50e35e	0.012749521
100	0x3d9d3a03	0.076770805
101	0x3dcc4630	0.09974325
102	0xbdd1d8e9	-0.102464505
103	0x3d513b36	0.05108186
104	0x3d9f20a0	0.077698946
105	0xbdc2ca73	-0.095112704
106	0x3d838020	0.06420922
107	0x3d1bfb73	0.038081598
108	0xbbd61378	-0.0065330826
109	0x3af06b14	0.0018342459
110	0x3d083998	0.03325805
111	0x3dc4c7b7	0.09608405
112	0xbdd2f720	-0.103010416
113	0x3c4833e2	0.012219401
114	0xbd07961c	-0.03310214
115	0x3d805083	0.062653564
116	0xbdbd51dc	-0.09244129
117	0x3bc826a6	0.006108123
118	0xbdda44bb	-0.106576405
119	0xbd54a1dc	-0.051912174
120	0xbda78884	-0.08180335
121	0xbbf1dd61	-0.0073811268
122	0x3d3b0755	0.04566129
123	0xbcec1df7	-0.028822882
124	0xbdd5df35	-0.10442964
125	0x3bd04222	0.00635554
126	0xbc09f587	-0.008420355
127	0xbc20084b	-0.009767602
128	0xbdc4f092	-0.09616198
129	0xbda311bd	-0.07962368
130	0x3b06aa5f	0.0020548326
131	0xbb8b966a	-0.004259874
132	0xbc8efa53	-0.017453348
133	0xbdd81010	-0.10549939
134	0xbdc785ba	-0.09742303
135	0xbda133c3	-0.07871201
136	0x3ba9ec6a	0.0051856535
137	0x3dd6963d	0.104778744
138	0x3da41071	0.080109484
139	0xbdce0255	-0.100590385
140	0xbccbb389	-0.024865882
141	0x3c48c650	0.012254313
142	0x3d908371	0.070563205
143	0xbd92fde0	-0.07177329
144	0x3db7e1ab	0.089785896
145	0x3da7abea	0.08187087
146	0xbcec01af	-0.028809397
147	0x3bfe0f71	0.0077533056
148	0xbdcd26c3	-0.10017159
149	0xbd52de7f	-0.05148172
150	0x3d812d2c	0.06307444
151	0x3d5b43ae	0.05353134
152	0xbd9ab94b	-0.07554873
153	0x3ca0fd74	0.019652106
154	0xbcaf89b0	-0.02142796
155	0xbd0a5ef1	-0.03378195
156	0xbd75f884	-0.060051456
157	0x3cef9357	0.029245062
158	0xbdb7f091	-0.08981431
159	0x3dbefec9	0.0932594
160	0xbcc99031	-0.024604889
161	0x3dbdfeb4	0.092770964
162	0xbd28f8f4	-0.041253045
163	0xbdccdae3	-0.10002687
164	0xbd89a696	-0.06721227
165	0x3dd72aaa	0.105061844
166	0x3d92b1eb	0.071628414
167	0x3d520312	0.05127246
168	0xbdc232f9	-0.094823785
169	0x3dca2cd3	0.09871831
170	0x3c3d3f3e	0.011550723
171	0x3bd34893	0.0064478605
172	0xbdb6d85c	-0.08927986
173	0xbd984b47	-0.07436233
174	0x3dd0a236	0.10187189
175	0xbdbf78cb	-0.09349211
176	0x3da91516	0.08255975
177	0x3d059778	0.032615155
178	0xbd79f6ad	-0.061026264
179	0xbc2f5498	-0.010701321
180	0xbdcc818f	-0.09985649
181	0x3c77e09c	0.015129235
182	0x3988f36f	0.00026121314
183	0xbdccd061	-0.100006826
184	0x3d199831	0.037498657
185	0x3d0918e9	0.03347102
186	0x3d4a1bc9	0.049342904
187	0xbdb7e2dc	-0.08978817
188	0x3d8c4b6e	0.068503246
189	0xbd96b48e	-0.07358657
190	0xbb8b7a52	-0.004256525
191	0xbdb9c6fb	-0.09071156
192	0x3c43a6c0	0.011941612
193	0x3dc3d95d	0.09562943
194	0xbc9b7e7f	-0.018981216
195	0xbc7533a6	-0.014965927
196	0x3c47ff7f	0.012206911
197	0x3d5c60a5	0.053803105
198	0x3db011dc	0.085971564
199	0xbd2374e2	-0.03990639
200	0x3dbc201a	0.091858104
201	0xbdb17763	-0.08665349
202	0xbd74fed7	-0.059813347
203	0x3dae54ad	0.085122444
204	0x3cf9d20e	0.03049567
205	0x3b9a1781	0.004702509
206	0x3cbed93e	0.023296949
207	0x3db5a0a0	0.088685274
208	0xbd48863c	-0.04895614
209	0xbdc7aee9	-0.09750158
210	0xbcc3f96d	-0.023922646
211	0x3da84f47	0.08218246
212	0xbd202ee1	-0.039107207
213	0x3cabb079	0.020958172
214	0x3dc97fe3	0.098388456
215	0xbd8887ae	-0.06666504
216	0xbddc65a1	-0.10761572
217	0xbd08e971	-0.033425752
218	0xbd4f39e6	-0.050592326
219	0x3d611026	0.05494704
220	0xbdd9ccf4	-0.10634795
221	0xbd56f8d8	-0.05248341
222	0xbdda606b	-0.106629215
223	0xbdb0e643	-0.08637669
224	0x3d74f839	0.059807036
225	0xbdc80fff	-0.09768676
226	0xbd04d27f	-0.032427307
227	0xbd1d19fc	-0.03835486
228	0xbd2efbc3	-0.042720567
229	0xbcd6c2b2	-0.026215885
230	0xbc6ec7c0	-0.014573991
231	0xbdbd2464	-0.092354566
232	0xbd8c1612	-0.06840147
233	0x3d60555f	0.054768916
234	0x3d862646	0.06550269
235	0xbdc61167	-0.09671288
236	0xbdcb7ad2	-0.099355355
237	0x3d8f09b8	0.069842756
238	0x3dcc3b73	0.099722765
239	0xbd901a13	-0.07036223
240	0x3d56181e	0.052269094
241	0xbd8954e2	-0.06705643
242	0xbd28629e	-0.041109674
243	0xbdbde410	-0.09272015
244	0x3cc626a4	0.024188347
245	0x3d8bbfea	0.06823714
246	0xbd8f933a	-0.07010503
247	0xbda33bfb	-0.07970425
248	0xbca77bc4	-0.020444758
249	0xbc92c159	-0.017914461
250	0x3d73ea9b	0.05954991
251	0xbdbaef46	-0.09127669
252	0xbbb5dfe5	-0.005550372
253	0x3d346f5b	0.04405151
254	0x3dd21ef6	0.102598116
255	0x3d0a6be4	0.0337943

network.2.weight f4 [128, 256]
0	0xbd03d768	-0.03218785
1	0xbd6d54ae	-0.057942085
2	0xbb70ea80	-0.0036760867
3	0x3d566040	0.052337885
4	0x3c96abc4	0.018392451
5	0x3d48268c	0.048864886
6	0xbd5fe366	-0.054660223
7	0xbd528126	-0.051392697
8	0x3d7b2ec2	0.06132389
9	0x3cd755c8	0.02628602
10	0xbc50a4b0	-0.012734577
11	0x3c245f68	0.010032512
12	0xbcc4b1a4	-0.024010487
13	0x3d16c7fa	0.036811806
14	0xbb8d3260	-0.0043089837
15	0xbd58a0e6	-0.05288782
16	0xbd5cf6ec	-0.05394642
17	0xbd62ec30	-0.055401027
18	0x3cc88ba4	0.024480648
19	0xbbf60ac0	-0.0075086057
20	0xbd45d632	-0.048299976
21	0xbd633c78	-0.05547759
22	0x3d6f3422	0.058399327
23	0x3d140eca	0.036146916
24	0xbd38b5ce	-0.045095257
25	0x3a99d100	0.001173526
26	0x3d6b9020	0.057510495
27	0xbc301e38	-0.010749392
28	0xbc9ef5f0	-0.019404382
29	0x3d5f41ec	0.054506227
30	0x3c84b324	0.016198702
31	0xbd2780ec	-0.040894434
32	0xbcd9e80c	-0.026599906
33	0x3d58c9b6	0.05292674
34	0x3c051d08	0.008124597
35	0xbd0cdf4c	-0.03439264
36	0x3d2a0d8c	0.041516826
37	0xbcdbc9a8	-0.026829556
38	0x3b7dfc20	0.0038755015
39	0xbb078c20	-0.0020682886
40	0x3d727e80	0.05920267
41	0x3d7199da	0.058984615
42	0x3c9eefb8	0.019401416
43	0xb5a70000	-1.244247e-06
44	0xbd60e1bc	-0.054902777
45	0x3d7c6914	0.061623648
46	0xbd63d56c	-0.055623457
47	0xbc3d1d50	-0.011542633
48	0x3b92ad90	0.0044762567
49	0xbcb28610	-0.021792442
50	0x3cf14fe4	0.02945704
51	0x3aec9280	0.0018049031
52	0x3d24cabe	0.040232413
53	0xbd654bdc	-0.05598055
54	0x3cd212e4	0.025643773
55	0xbd44915c	-0.047990188
56	0x3bd7a900	0.0065814257
57	0xbcaa6878	-0.020801768
58	0xbd31f0b6	-0.04344245
59	0x3d0325be	0.032018416
60	0xbca54a48	-0.020177022
61	0xbd1b3906	-0.03789618
62	0x3cac7cd4	0.021055616
63	0x3b0defc0	0.0021657795
64	0xbc0c0a40	-0.008547366
65	0xbcb4b874	-0.02206061
66	0x3d7fe1aa	0.06247107
67	0x3d5d7628	0.05406776
68	0x3d4bb9aa	0.04973761
69	0xbce8ea0c	-0.028431915
70	0xbd45773e	-0.04820942
71	0x3d5e0588	0.054204494
72	0xbd724514	-0.05914791
73	0xbb830340	-0.00399819
74	0x3c86a4e0	0.01643604
75	0x3ca39d18	0.01997237
76	0x3bdd9570	0.006762199
77	0xbcc2e2e8	-0.023789838
78	0xbc9b98fc	-0.018993847
79	0x3d39df2c	0.04537885
80	0x3d2def50	0.042464554
81	0x3d172152	0.03689701
82	0x3d332be6	0.043743037
83	0x3d385be6	0.045009516
84	0xbd33f82a	-0.04393784
85	0xbd171634	-0.03688641
86	0xbb454b80	-0.0030104816
87	0xbc453be8	-0.012038209
88	0x3cbc6cc8	0.02300109
89	0xbc6d6230	-0.014488742
90	0xbcb04578	-0.0215175
91	0x3c003938	0.007826142
92	0xbd4c2868	-0.049843222
93	0x3d562a38	0.052286357
94	0xbd68d062	-0.056839354
95	0x3c2b2670	0.010446176
96	0xbd796208	-0.060884506
97	0x3d792dce	0.0608347
98	0xbcd77118	-0.026299044
99	0x3d2995ce	0.04140263
100	0x3d67de5e	0.05660855
101	0x3d54deb2	0.05197019
102	0x3d7f77b4	0.062370017
103	0x3cbbf0f8	0.022942051
104	0x3d2d532e	0.042315654
105	0x3aab2000	0.0013055801
106	0x3d7b913a	0.061417796
107	0xbc13a250	-0.009010866
108	0xbb222c80	-0.0024745762
109	0xbcdd5be8	-0.027021363
110	0xbd49230a	-0.04910568
111	0xbd2de444	-0.04245402
112	0xba72ba00	-0.00092592835
113	0x3a9f2a40	0.0012143329
114	0xbd6266ea	-0.055273928
115	0x3cd9e210	0.026597053
116	0xbd60af36	-0.054854594
117	0xbd1633f4	-0.03667064
118	0x3d36a422	0.044590123
119	0xbd7c490c	-0.0615931
120	0xbd553cfe	-0.05206012
121	0xbc10b210	-0.008831516
122	0x3d4351c0	0.047685385
123	0x3773a000	1.4521182e-05
124	0xbd2ff98c	-0.042962596
125	0x3d78d5b0	0.060750663
126	0xbd192a5e	-0.03739392
127	0xbd3dfa52	-0.046381302
128	0xbc854b98	-0.016271397
129	0x3bddf0f0	0.0067731068
130	0xbc9661fc	-0.01835727
131	0x3b463600	0.003024459
132	0x3b565be0	0.003270857
133	0xbd78607c	-0.06063889
134	0x3d7ac524	0.061223164
135	0xbce9d7b0	-0.02854523
136	0x3c5e5208	0.013569362
137	0xbcc170a4	-0.023613282
138	0x3cc26db4	0.023733951
139	0xba119300	-0.0005553216
140	0x3d64478c	0.055732295
141	0x3cd813a4	0.026376553
142	0x3cb1d330	0.021707147
143	0x3d1a8140	0.03772092
144	0xbc0844f0	-0.008317217
145	0x3d78379e	0.060599916
146	0x3d1b1a84	0.037867084
147	0xbcdba2f4	-0.0268111
148	0xbc3b9ae8	-0.011450507
149	0x3d0e23fc	0.034702286
150	0xbc122478	-0.008919828
151	0xbca6c820	-0.020359099
152	0xbd5e8b5a	-0.054332115
153	0xbcecdbd8	-0.028913423
154	0x3c30c0a8	0.01078812
155	0xbd2660f6	-0.040619813
156	0xbd5bd208	-0.0536671
157	0x3cb0c368	0.021577552
158	0xbd6f97ee	-0.0584945
159	0xbd7a268e	-0.061071925
160	0xbd15995a	-0.0365232
161	0x3c550c38	0.013003401
162	0x3cddb620	0.027064383
163	0xbd44bc7c	-0.048031315
164	0xb9c8fe00	-0.00038336217
165	0xbb6c16c0	-0.0036024302
166	0xbd2df0a8	-0.042465836
167	0x3ca8b834	0.020595647
168	0x3ce676e8	0.02813287
169	0xbcd03c1c	-0.025419287
170	0xbb807090	-0.0039196685
171	0x3d3eef48	0.046614915
172	0x3bb42470	0.0054975078
173	0xbb199f80	-0.0023441017
174	0xbd7d432e	-0.061831646
175	0xbc899a04	-0.016797073
176	0x3c0ecb50	0.008715466
177	0x3c2b7978	0.010465972
178	0xbd6d9714	-0.058005407
179	0xbd00ae22	-0.031416066
180	0x3c0fd788	0.008779414
181	0x3d335ff2	0.043792672
182	0xbcb26294	-0.021775521
183	0x3c0003a0	0.007813364
184	0xbd009834	-0.031395152
185	0xbccdcc88	-0.025121942
186	0x3c685430	0.014180228
187	0x39a98400	0.0003233254
188	0xbc44ce70	-0.012012109
189	0x3d3a1660	0.045431495
190	0x3cb836cc	0.022487067
191	0x3d3d274c	0.046180055
192	0x3c8989e8	0.016789392
193	0xbd706f5e	-0.058699958
194	0x3c034e60	0.0080142915
195	0xbd4cbbe0	-0.04998386
196	0x3c7e5e88	0.015525468
197	0xbd4c0b24	-0.049815312
198	0xbcb77988	-0.022396818
199	0xbc9a46fc	-0.018832676
200	0xbd1ba474	-0.03799863
201	0x3d0da700	0.03458309
202	0xbd5e1d3a	-0.05422709
203	0x3d6e1ab0	0.05813092
204	0xbd77d3c8	-0.060504705
205	0x3d768c46	0.06019237
206	0xbd3eb0a2	-0.04655517
207	0x3d56f246	0.052477144
208	0xbcc35138	-0.023842439
209	0x3cb8dc8c	0.022566102
210	0xbd1b5d20	-0.037930608
211	0x3c7e13b0	0.015507624
212	0xbb91d810	-0.0044508055
213	0x3d2cdcca	0.04220275
214	0x3cf85bc8	0.030317202
215	0x3d629794	0.055320337
216	0x3bc064c0	0.0058713853
217	0xbce95630	-0.02848348
218	0x3cb97b40	0.022641778
219	0x3d3bd9e6	0.0458621
220	0xbceac348	-0.02865757
221	0xbd60c3d0	-0.05487424
222	0x3d53a514	0.051671103
223	0x3d284652	0.041082688
224	0x3d306d8c	0.043073222
225	0xbd154ad0	-0.0364483
226	0xbd15a81e	-0.036537282
227	0xbb8fd200	-0.0043890476
228	0x3d4335c8	0.04765871
229	0x3cdf5e20	0.027266562
230	0x3cf06060	0.02934283
231	0xbc94d018	-0.018165633
232	0xbd43755a	-0.047719337
233	0xbc83f4d8	-0.016107962
234	0xbcf32254	-0.029679455
235	0xbd78419a	-0.060609438
236	0xbd1cdee8	-0.038298517
237	0x3ba053c0	0.0048927963
238	0x3bfc1320	0.0076927096
239	0x3d2765a4	0.040868416
240	0x3cd4dd10	0.025984317
241	0x3d23cf36	0.039992534
242	0x3d2278e8	0.039666086
243	0x3bb770f0	0.00559818
244	0x3d2eed02	0.042706497
245	0xbd3cb77a	-0.046073414
246	0x3cd5c714	0.026095904
247	0x3d42f32a	0.04759518
248	0xbd048ecc	-0.032362744
249	0xbcd584e0	-0.026064336
250	0x3d50f574	0.051015332
251	0xbc221ee0	-0.0098950565
252	0xbd43e858	-0.047829002
253	0x3d1e85d0	0.038701832
254	0x3d256394	0.04037817
255	0xbd05aaf0	-0.03263372

network.2.bias f4 [128]
0	0xbc75a968	-0.014994003
1	0x3d10e842	0.03537775
2	0xbc904f98	-0.017616078
3	0x3d0cae0c	0.03434567
4	0xbcc40250	-0.023926884
5	0x3d3c4422	0.045963414
6	0xbd50c2dc	-0.050967082
7	0x3d403d72	0.0469336
8	0x3caaa3e4	0.020830102
9	0xbd6fa89a	-0.0585104
10	0xbc7d7428	-0.015469588
11	0x3d138368	0.03601399
12	0xbcc8b128	-0.024498537
13	0x3d2bebde	0.041972987
14	0x3c1a22b0	0.009407684
15	0x3d40ad4c	0.04704027
16	0x3c76f750	0.015073612
17	0xbce096f0	-0.027415723
18	0x3c6261a0	0.013817221
19	0xbc8eb430	-0.017419904
20	0xbb8995b0	-0.0041987523
21	0x3bfce500	0.0077177286
22	0xbd4d07f0	-0.050056398
23	0xbd2cb83c	-0.042167887
24	0xbd3dd93a	-0.04634974
25	0x3c9fa19c	0.019486241
26	0x3d2d628c	0.04233031
27	0x3cbe6310	0.023240596
28	0x3d655fc6	0.05599954
29	0x3d604bf0	0.05475992
30	0x3d4edce8	0.05050364
31	0xbb9c81c0	-0.0047762096
32	0x3cb25124	0.021767206
33	0x3c44c658	0.012010179
34	0xbd53d372	-0.05171532
35	0xbc7cfaa8	-0.0154406205
36	0xbc050a80	-0.008120179
37	0xbc26be38	-0.010177188
38	0xbcf3cc90	-0.029760629
39	0x3d5d1b50	0.053981125
40	0x3c2d7ee0	0.010589331
41	0xbd19c87a	-0.037544705
42	0x3c1e8548	0.009675331
43	0xbd5333ac	-0.05156295
44	0xbd222a88	-0.039591342
45	0x3c089560	0.008336395
46	0xbd740080	-0.05957079
47	0xbc01b358	-0.007916294
48	0xbcdd6b28	-0.027028635
49	0x3d422ccc	0.047406003
50	0x3d63753e	0.055531733
51	0xbd3dc164	-0.04632701
52	0xbd339b1c	-0.043849096
53	0x3b120ac0	0.002228424
54	0x3d191878	0.03737685
55	0x3cc09068	0.023506358
56	0xbd1f0662	-0.038824446
57	0x3d0e2b72	0.0347094
58	0x3d6d8a3a	0.05799315
59	0x3d49359c	0.04912339
60	0x3c88eb60	0.016713798
61	0x3c3dbbe0	0.011580437
62	0x3cc043d0	0.023469836
63	0x3d27d6d2	0.040976353
64	0x3c7f95e8	0.015599705
65	0xbc08cae0	-0.00834915
66	0x3d335436	0.04378148
67	0x3d729530	0.059224308
68	0x3c894cb0	0.0167602
69	0x3ba8e0c0	0.0051537454
70	0xbc56b9c0	-0.01310581
71	0x3d4cbe68	0.049986273
72	0x3c098450	0.008393362
73	0xbd6951d8	-0.056962818
74	0x3d1a4344	0.037661806
75	0xbc2604b8	-0.010132961
76	0x3b7bbd80	0.0038412511
77	0xbd148c34	-0.03626652
78	0x3d54e04a	0.05197171
79	0xba135900	-0.0005620867
80	0x3cdf158c	0.027231954
81	0xbbf65650	-0.0075176135
82	0x3ca95714	0.020671405
83	0x3d75cba0	0.060008645
84	0x3c426838	0.011865668
85	0xbd68d574	-0.05684419
86	0xbcda2754	-0.026630081
87	0xbcfb8744	-0.030704148
88	0xbccd6e38	-0.02507697
89	0x3cfe44bc	0.031038634
90	0xbd3990bc	-0.045304045
91	0x3d36c5c6	0.044622205
92	0x3bc6d1f0	0.006067507
93	0x3d45e4c6	0.04831388
94	0x3d5ed252	0.054399796
95	0xbc0bbb10	-0.008528486
96	0x3d642160	0.05569589
97	0x3d0378f6	0.03209778
98	0x3d2ca1c4	0.04214646
99	0x3cb48094	0.022033967
100	0xbbba2040	-0.005680114
101	0xbcb563a4	-0.022142239
102	0xba85a100	-0.0010195076
103	0xbc81bda4	-0.015837498
104	0xbd282bf0	-0.041057527
105	0xbd234762	-0.039862998
106	0x3c9d14a0	0.019174874
107	0x3d76fec8	0.060301572
108	0xbd6868c8	-0.056740552
109	0x3d0876c4	0.03331639
110	0xbc273090	-0.010204449
111	0xbd3e5f02	-0.046477325
112	0x3c36c690	0.011155739
113	0xbcfcb738	-0.030849084
114	0x3d453a98	0.048151582
115	0x3ce37b18	0.027768657
116	0xbce386d8	-0.02777426
117	0xbd4da40c	-0.050205275
118	0x3d1aa49a	0.037754633
119	0x3cc283bc	0.023744456
120	0x3cd66304	0.026170261
121	0x3c45c3d8	0.012070619
122	0xbcac47fc	-0.021030419
123	0xbcf97c5c	-0.030454807
124	0xbb8234b0	-0.003973566
125	0xbd47cace	-0.048777394
126	0x3c847074	0.016166903
127	0x3c1b9e40	0.009498179

network.4.weight f4 [64, 128]
0	0x3d9684a9	0.07349522
1	0x3d35edc4	0.044416204
2	0xbcdf5c85	-0.027265796
3	0x3db1a50b	0.086740576
4	0x3da4ddac	0.08050093
5	0xbbff81da	-0.007797462
6	0xbd2d22e1	-0.04226959
7	0xbd87e1c5	-0.06634859
8	0x3d906600	0.07050705
9	0x3cb02033	0.021499729
10	0x3d8e3c25	0.069450654
11	0xbd904c6f	-0.070458286
12	0xbc11e0a7	-0.008903659
13	0x3d543287	0.051806
14	0x3c1597d8	0.009130441
15	0x3ccfcf06	0.025367271
16	0xbd848e6f	-0.064724796
17	0xbdaab7e1	-0.08335853
18	0x3d7b4d6d	0.061353136
19	0x3d86f96f	0.065905444
20	0x3716429c	8.956205e-06
21	0xbcbb28d3	-0.022846615
22	0x3d44f2de	0.04808318
23	0xbd4f307d	-0.05058335
24	0x3c3613c5	0.011113112
25	0x3d14dbd7	0.036342468
26	0x3cc09124	0.023506708
27	0xbd1d8f18	-0.038466543
28	0xbc4c74a9	-0.012478986
29	0xbd4c099a	-0.049813844
30	0xbd2f1591	-0.042745177
31	0x3d8ef85f	0.06980967
32	0x3da8620f	0.08221828
33	0xbc4bcea0	-0.0124394
34	0x3c987046	0.018608224
35	0xbc1e47ea	-0.0096607
36	0xbbb1d5ec	-0.005427113
37	0xbd83e66a	-0.06440432
38	0x3c4be45e	0.012444584
39	0xbd9e4e30	-0.07729757
40	0x3d6ed06b	0.05830423
41	0x3c153b7a	0.009108419
42	0xbc1075d1	-0.008817152
43	0xbc06930a	-0.008213768
44	0xbd93b626	-0.072124764
45	0x3d855b74	0.06511584
46	0xbcf5dd03	-0.030012613
47	0x3bc18a00	0.0059063435
48	0xbcfd3e66	-0.030913543
49	0x3d53181e	0.05153667
50	0x3d46c4fc	0.048527703
51	0x3da24682	0.079236045
52	0x3cf2ea32	0.029652689
53	0xbd3089c2	-0.043100126
54	0x3d52d6e0	0.051474452
55	0x3c87bbc7	0.016569031
56	0x3db1c2f2	0.08679761
57	0xbd854213	-0.06506743
58	0xbd88cc45	-0.06679586
59	0xbd99ab7a	-0.0750341
60	0xbcc9d3d4	-0.02463714
61	0x3d947720	0.07249284
62	0xbda57ffa	-0.0808105
63	0x3d1a0969	0.03760663
64	0x3db27fd7	0.0871579
65	0x3d7723d3	0.0603369
66	0x3db2fe1d	0.087398745
67	0x3c3e9050	0.0116310865
68	0x3c901f1c	0.01759296
69	0x3d11bcc1	0.0355804
70	0xbd75b490	-0.05998665
71	0x3d7696f5	0.060202558
72	0x3da112ab	0.07864889
73	0xbd0d7964	-0.034539595
74	0x3cda1c93	0.026624953
75	0x3c17e647	0.009271211
76	0xbd19c861	-0.03754461
77	0x3d9dfac0	0.077138424
78	0xbd73c736	-0.059516154
79	0xbd7c1d3a	-0.06155131
80	0x3d15fe1b	0.036619287
81	0x3c8ace0f	0.01694396
82	0xbd8a983d	-0.067673184
83	0x3ce97fa0	0.02850324
84	0xbd7cc3ea	-0.061710276
85	0x3c4e5fbf	0.01259607
86	0x3c448306	0.011994129
87	0x3c7794fc	0.015111204
88	0xbd014006	-0.031555198
89	0xbcd715be	-0.026255485
90	0x3db30e47	0.087429576
91	0x3d99bbde	0.07506536
92	0x3d68f9a3	0.056878697
93	0x3bfe1b86	0.007754746
94	0xbcf711c0	-0.030159831
95	0xbceea381	-0.0291307
96	0x3d48955a	0.048970558
97	0x3d8fd188	0.07022387
98	0xbdb0f1fa	-0.08639903
99	0xbd1780b5	-0.03698798
100	0xbda7a311	-0.08185399
101	0xbd0a0a67	-0.033701327
102	0x3d8ca567	0.068674855
103	0xbd855c15	-0.06511704
104	0x3c1ea7e7	0.009683586
105	0x3d09def8	0.033659905
106	0x3d36849c	0.04456006
107	0x3d33cb3d	0.043894995
108	0x3db399c9	0.087695666
109	0xbd48932a	-0.04896847
110	0x3d764fdc	0.060134754
111	0x3d8424f2	0.06452359
112	0xbcf32a41	-0.029683234
113	0x3d6f42a6	0.05841317
114	0x3ccf9bab	0.025342783
115	0xbd9bb28b	-0.07602414
116	0x3d69f331	0.05711669
117	0xbda64ccf	-0.08120119
118	0x3d3494ff	0.044087406
119	0x3b9f3383	0.0048584356
120	0x3c740c98	0.014895581
121	0xbcba0f82	-0.022712473
122	0x3d169154	0.03675969
123	0x3d85566b	0.065106235
124	0x3d620cf2	0.055188127
125	0x3da06ff0	0.078338504
126	0xbc127afa	-0.008940453
127	0x3c50c34e	0.012741877
128	0x3d012248	0.031526834
129	0x3d91ff66	0.071287915
130	0xbdaeb659	-0.08530874
131	0xbda644a9	-0.08118565
132	0xbc79cfaa	-0.015247265
133	0x3d9fc80e	0.07801829
134	0xbc9fda15	-0.01951317
135	0x3a066c0f	0.00051277963
136	0x3c90103c	0.017585866
137	0xbc934399	-0.017976569
138	0xbda173fe	-0.07883452
139	0x3caff670	0.021479815
140	0xbc72f281	-0.014828325
141	0x3d930fb6	0.07180731
142	0xbdb3c822	-0.08778407
143	0xbb94f535	-0.0045458325
144	0x3dac2e84	0.0840731
145	0x3dadb97e	0.084826455
146	0xbbaf1769	-0.005343367
147	0xbc396436	-0.011315396
148	0x3ce34399	0.027742194
149	0x3d16c3e9	0.03680793
150	0x3d645d53	0.055753063
151	0x3d3e46a1	0.046454076
152	0x3cf05841	0.029338958
153	0x3cf701f3	0.030152297
154	0x3d2a948d	0.041645575
155	0xba496fe2	-0.00076842133
156	0x3d6f94fc	0.058491692
157	0x3d8b7c39	0.06810803
158	0x3da53bee	0.08068071
159	0xbd9ee38b	-0.07758244
160	0xbca9fbf8	-0.02075003
161	0xbd65faf5	-0.056147534
162	0xbd4f5b9f	-0.050624486
163	0xbd2dda32	-0.042444415
164	0x3d4dfdea	0.05029098
165	0x3c4baeac	0.012431782
166	0xbd3bbe2e	-0.045835666
167	0xbdaf65fe	-0.08564375
168	0xbd80dbc3	-0.06291916
169	0x3d16afd0	0.03678876
170	0xbb63ed09	-0.0034778735
171	0xbc8fd9fd	-0.01756
172	0xbdb00f3f	-0.08596658
173	0xbd8d8aee	-0.06911264
174	0xbd6d9b6a	-0.058009543
175	0x3d40b458	0.04704699
176	0xbc8e966c	-0.017405711
177	0x3d3b4716	0.04572209
178	0xbd4ed715	-0.050498087
179	0x3bf8af79	0.0075892773
180	0xbd2c8c19	-0.042125795
181	0xbd982033	-0.074280165
182	0x3d417a2d	0.047235657
183	0xb9dbccba	-0.00041923468
184	0x3c2b700a	0.010463724
185	0x3d87da2e	0.06633411
186	0x3d682157	0.05667242
187	0xbd5a8ceb	-0.053357046
188	0xbd8771dd	-0.066135146
189	0x3d0bb5bd	0.034108866
190	0xbbb1012b	-0.0054017506
191	0x3db220a1	0.0869763
192	0x3d9182fb	0.07105061
193	0xbcefe6e6	-0.029284906
194	0xbccb5f36	-0.024825674
195	0x3d073b05	0.03301527
196	0x3baf403f	0.005348235
197	0xbd618c6b	-0.055065554
198	0xbd8a69f1	-0.06758488
199	0x3b63e624	0.0034774626
200	0x3b368461	0.00278499
201	0x3d0e1e06	0.0346966
202	0xbc1f7075	-0.009731402
203	0x3d052c15	0.032512743
204	0xbd7a9909	-0.061181102
205	0x3d219a69	0.039453898
206	0xbd91cf65	-0.071196355
207	0xbd895bb5	-0.06706945
208	0xbc76905f	-0.015049069
209	0xbc944863	-0.018100923
210	0x3d61dde6	0.05514326
211	0x3d20e4e4	0.039280787
212	0xbd7a8b97	-0.06116828
213	0x3c1dc2e4	0.009628985
214	0xbd08c494	-0.033390597
215	0x3d090d97	0.033460226
216	0x3cad4365	0.0211503
217	0x3d5a2e49	0.053266797
218	0x3c7f6f61	0.01559052
219	0x3d7f5a2a	0.062341847
220	0xbd7ea5cf	-0.062169846
221	0xbd123745	-0.03569724
222	0xbc2afaed	-0.010435802
223	0xbd63eb50	-0.055644333
224	0xbcff824b	-0.031190058
225	0x3db16553	0.08661904
226	0x3d7cdec3	0.06173588
227	0xbb373dfe	-0.0027960534
228	0x3d66b093	0.056320738
229	0xbca5f95c	-0.020260505
230	0xbd893700	-0.066999435
231	0xbdb35efc	-0.08758351
232	0xbd06e871	-0.032936517
233	0x3b7c8ce5	0.0038536128
234	0xbd5d90ae	-0.054093055
235	0xbce1e78b	-0.027576229
236	0xbcca6fec	-0.024711572
237	0x3cd03daa	0.025420029
238	0x3d147087	0.036240127
239	0x3d949373	0.07254686
240	0x3d2e47cf	0.04254895
241	0xbafd8133	-0.0019340873
242	0xbcee062d	-0.02905568
243	0x3d5472cf	0.051867303
244	0x3b9b74ad	0.0047441334
245	0x3c6c8b7a	0.014437551
246	0x3ca86ef9	0.020560728
247	0xba294381	-0.0006456897
248	0x3ca456f9	0.020061003
249	0xbb8ac6b9	-0.0042351154
250	0x3c4e67d6	0.012597999
251	0x3ba37f27	0.004989523
252	0xbc3091c2	-0.010776939
253	0xbda8436a	-0.08215983
254	0xbd744d76	-0.059644185
255	0x3cd91f6e	0.026504245

network.4.bias f4 [64]
0	0xbd04380d	-0.032280017
1	0x3d8d86cb	0.06910475
2	0xbda0e401	-0.07855988
3	0x3d5b43b1	0.053531352
4	0x3daa58ea	0.0831774
5	0x3d59325e	0.05302655
6	0xbd94152a	-0.07230599
7	0xbd822db6	-0.06356375
8	0xbd8e10fa	-0.06936832
9	0xbcac357a	-0.021021593
10	0xbd5d4486	-0.054020427
11	0xbaa0ac0c	-0.0012258305
12	0x3c8de194	0.017319478
13	0xbda732b8	-0.08163971
14	0xbd243243	-0.040086996
15	0xbd424387	-0.04742768
16	0xbdabd744	-0.08390668
17	0x3c8efa3c	0.017453305
18	0xbd732e5d	-0.059370387
19	0x3d9f8d70	0.07790649
20	0xbcd51fbd	-0.02601611
21	0xbd93ce50	-0.07217085
22	0x3bfe5b57	0.0077623534
23	0x3d5d5dde	0.054044597
24	0xbd4e4108	-0.050354987
25	0xbd747731	-0.059683982
26	0x3d97d8d4	0.074144036
27	0xbda3d816	-0.080001995
28	0xbdac07c5	-0.083999194
29	0x3c1bd877	0.009512058
30	0x3d0ea7de	0.03482806
31	0x3d945bb9	0.07244057
32	0x3c33d43b	0.010975893
33	0xbb89a23f	-0.0042002494
34	0x3d623603	0.05522729
35	0xbcb4a304	-0.022050388
36	0xbd871f44	-0.0659776
37	0xbc20d307	-0.009815938
38	0xbd492aeb	-0.049113195
39	0xbd5da11c	-0.054108724
40	0xbc8ad99e	-0.016949471
41	0xbd86da1a	-0.06584568
42	0x3c130fc7	0.00897593
43	0xbd7068ac	-0.058693573
44	0x3d8f0fe3	0.06985452
45	0xba67c773	-0.0008841671
46	0x3d1ee8ed	0.038796354
47	0xbd640292	-0.055666514
48	0x3d295298	0.041338533
49	0x3c8e7212	0.017388377
50	0xbd9f54b5	-0.077798285
51	0xbd8e2bcd	-0.06941948
52	0x3dad364d	0.08457623
53	0xbdaef656	-0.085430786
54	0x3d854e7c	0.0650911
55	0xbd9f444e	-0.077767
56	0xbd1591e6	-0.036516093
57	0xbd20e00d	-0.03927617
58	0x3d59713f	0.053086516
59	0xbd961833	-0.073288344
60	0x3da1445a	0.07874365
61	0x3d61b48e	0.05510383
62	0x3d0697c4	0.03285958
63	0x3bd09870	0.006365828

network.6.weight f4 [32, 64]
0	0x3dba7eca	0.09106214
1	0x3de48ff0	0.111602664
2	0x3d928cfc	0.07155797
3	0xbca6ace0	-0.020346105
4	0xbdf20694	-0.11817661
5	0xbdb2ba24	-0.0872691
6	0x3dab257a	0.083567575
7	0x3d579df0	0.052640855
8	0xbcd59ba0	-0.026075184
9	0x3de82e4e	0.11336957
10	0xbd8daddc	-0.06917927
11	0xbd626a14	-0.055276945
12	0x3d8246fe	0.06361197
13	0xbd52df30	-0.05148238
14	0x3dd24a20	0.102680445
15	0xbdf0894c	-0.11744937
16	0x3dfb3074	0.12265101
17	0xbc86c850	-0.016452938
18	0x3da9cfe8	0.08291608
19	0x3de4802c	0.11157259
20	0x3d61dc1c	0.055141553
21	0x3dc9512c	0.098299354
22	0x3d4d03b0	0.050052345
23	0x3b494d80	0.003071636
24	0x3d30b9b8	0.043145865
25	0xbda26e2e	-0.07931171
26	0xbad08780	-0.0015909523
27	0xbd87b28a	-0.066258505
28	0xbd9026d6	-0.07038657
29	0xbcc81160	-0.024422348
30	0xbce106e0	-0.027469099
31	0xbd209ff8	-0.039215058
32	0xbddb8784	-0.10719207
33	0xbd9d2a00	-0.076740265
34	0x3de5cbb8	0.11220497
35	0xbd46f730	-0.04857558
36	0xbd3f70d8	-0.046738476
37	0xbdb93f86	-0.09045319
38	0x3ddd0cba	0.10793443
39	0x3d398d58	0.04530081
40	0x3dfd10ce	0.12356721
41	0x3d4084f8	0.04700181
42	0xbd427088	-0.0474706
43	0x3dae0bf0	0.08498371
44	0x3df05532	0.11735
45	0x3cc8ba10	0.024502784
46	0x3d219d48	0.039456636
47	0xbd86e760	-0.065871
48	0x3bcab5a0	0.006186202
49	0x3d91d75a	0.07121153
50	0xbc998700	-0.01874113
51	0xbd075cc4	-0.033047453
52	0x3d4b91cc	0.04969959
53	0xbcd135e0	-0.025538385
54	0x3d87aa9a	0.066243365
55	0x3de5ffc2	0.112304226
56	0xbdf75c08	-0.120781004
57	0xbdbd4bb2	-0.09242953
58	0xbdd1399a	-0.10216065
59	0xbd96e7da	-0.07368441
60	0x3df6ead6	0.1205651
61	0x3dd492d2	0.10379566
62	0x3db0cd0e	0.08632861
63	0xbdc99b84	-0.098441154
64	0x3d3a8ff0	0.045547426
65	0x3de7eafc	0.113241166
66	0x3d02b538	0.031911105
67	0x3d846064	0.064636976
68	0x3c134b20	0.008990079
69	0xbcc1bdd8	-0.023650095
70	0x3d186d08	0.037213355
71	0xbdc9e4ba	-0.09858079
72	0xbc74cab0	-0.014940903
73	0x3db1b13a	0.086763814
74	0x3cf6aad0	0.030110747
75	0x3d932c2a	0.07186158
76	0xbdccfe22	-0.100094095
77	0xbd5d3254	-0.054003075
78	0x3d321a74	0.04348226
79	0xbcb261c0	-0.021775126
80	0x3a02ce00	0.0004989803
81	0xbd866b96	-0.06563489
82	0x3d8f5d3a	0.070002034
83	0xbd0fa340	-0.035067797
84	0xbdc764a8	-0.097359955
85	0x3d5359e0	0.051599383
86	0xbce18c70	-0.027532786
87	0x3da35dc6	0.0797687
88	0xbd175940	-0.03695035
89	0xbd5e5240	-0.05427766
90	0x3c9ed5f8	0.019389138
91	0xbd10aad0	-0.03531915
92	0x3d87d484	0.06632331
93	0xbddc368c	-0.107525915
94	0xbdd3f122	-0.10348727
95	0xbd99a5d4	-0.07502332
96	0xbcfa3100	-0.030540943
97	0x3cf71a78	0.030163988
98	0x3de329a0	0.11091924
99	0xbdcd006e	-0.100098476
100	0x3d442b70	0.047892988
101	0xbd357bd4	-0.044307545
102	0x3db26f48	0.087126315
103	0x3dda63b6	0.106635496
104	0x3d953b96	0.07286756
105	0x3d4358d8	0.04769215
106	0x3d34beb8	0.044127196
107	0x3de66d04	0.11251262
108	0x3da97fec	0.08276352
109	0x3dfafeb6	0.122556135
110	0xbd094770	-0.033515394
111	0xbd063340	-0.03276372
112	0xbd027a2c	-0.031854793
113	0x3cf9f5a8	0.030512646
114	0x3d500dc8	0.050794393
115	0x3dc4d5ba	0.096110776
116	0x3deee682	0.116650596
117	0x3de9ec24	0.114219934
118	0xbd8bd95c	-0.068285674
119	0xbcbcb608	-0.023036018
120	0xbdfa60e4	-0.12225512
121	0xbda0fad0	-0.07860339
122	0xbc8224c8	-0.01588668
123	0x3c10dac0	0.008841217
124	0x3d4eaec4	0.05045964
125	0xbd8062c6	-0.062688395
126	0x3b307440	0.002692476
127	0x3de3c77e	0.111220345
128	0x3c2b7e90	0.010467187
129	0xbddadbe6	-0.106864735
130	0xbd8093d0	-0.06278193
131	0xbd5656d4	-0.0523289
132	0x3ccad7f8	0.024761185
133	0x3dc810f4	0.097688586
134	0x3ddd5ba2	0.10808493
135	0xbd8283c6	-0.0637279
136	0xb9edee00	-0.00045381486
137	0xbdfff74e	-0.124983415
138	0xbd3b5ed4	-0.045744732
139	0x3d3612e4	0.04445161
140	0xbc5c5ef0	-0.013450369
141	0xbd3502d0	-0.044192135
142	0x3abe4800	0.0014517307
143	0x3c365860	0.011129469
144	0x3d3edfa8	0.046600014
145	0xbdbc935e	-0.092077956
146	0xbd300b68	-0.042979628
147	0x3db619c2	0.08891632
148	0x3c8c9880	0.017162561
149	0xbc5f2aa0	-0.013621002
150	0xbd114f3c	-0.035475954
151	0x3df658c4	0.120286494
152	0xbcab3a10	-0.02090171
153	0x3df59fc2	0.11993362
154	0x3cb78f98	0.022407338
155	0x3decee2a	0.11568864
156	0xbd11356c	-0.035451338
157	0xbde5dd22	-0.11223818
158	0x3da17f06	0.07885556
159	0x3d2719b8	0.04079601
160	0xbdf92922	-0.121660486
161	0xbdf43290	-0.119237065
162	0xbd0b36a8	-0.03398767
163	0x3d28c14c	0.041199967
164	0x3da8137e	0.08206843
165	0x3dba5c24	0.09099606
166	0xbdb6fb36	-0.089346334
167	0x3dc30de2	0.09524132
168	0xbc80bd88	-0.015715376
169	0x3daf3ffa	0.085571244
170	0x3df489dc	0.11940357
171	0x3dcdb40c	0.10044107
172	0x3ca73278	0.020409808
173	0x3b5a7140	0.0033331662
174	0xbdc5ecca	-0.096643046
175	0xbd8a4a54	-0.06752458
176	0xbd19fe44	-0.037596002
177	0xbd6077a8	-0.054801613
178	0xbd692810	-0.056922972
179	0xbda0969e	-0.07841228
180	0x3deef0c4	0.11667016
181	0x3ca413c8	0.020028964
182	0xbde52bd4	-0.1119
183	0x3c9a5be8	0.018842652
184	0x3cebc570	0.028780669
185	0x3df13758	0.11778134
186	0xbdab35f0	-0.08359897
187	0xbc905620	-0.017619193
188	0x3cbb00c8	0.022827521
189	0xbda7ac32	-0.081871405
190	0xbd11aa40	-0.035562754
191	0x3d144c68	0.03620568
192	0xbc8a23f8	-0.016862854
193	0x3ca79d48	0.02046074
194	0x3c8f9cf0	0.017530888
195	0xbb439a40	-0.002984658
196	0xbda89990	-0.08232415
197	0x3dea9c7a	0.11455627
198	0x3cc76210	0.024338752
199	0xbcec55f8	-0.028849587
200	0x3d16d664	0.036825553
201	0x3d2024d0	0.039097607
202	0x3dca9aea	0.09892829
203	0xbd5fa43c	-0.054599985
204	0xbdb2340e	-0.08701335
205	0x3d749338	0.05971071
206	0xbd990660	-0.07471919
207	0x3c93e370	0.018052787
208	0x3c8e7548	0.017389908
209	0x3ca68300	0.020326138
210	0xbd82db04	-0.0638943
211	0x3dedb7ae	0.116073
212	0x3da355b2	0.079753295
213	0xbd4bc4a8	-0.049748093
214	0xbdab89e4	-0.0837591
215	0xbd212ce4	-0.03934945
216	0x3d8d5828	0.0690158
217	0xbd3179bc	-0.043328986
218	0x3d3c266c	0.04593508
219	0xbdba4efc	-0.09097096
220	0xbd29985c	-0.041405067
221	0xbb234680	-0.0024913847
222	0xbdb95eee	-0.090513095
223	0xbac2dc00	-0.001486659
224	0x3d9009d4	0.070331246
225	0x3d17848c	0.03699164
226	0x3dfa2ecc	0.12215957
227	0xbd4f1ee8	-0.050566584
228	0xba856b80	-0.0010179132
229	0xbd84a9ea	-0.06477721
230	0xbdacd090	-0.08438218
231	0x3da14926	0.0787528
232	0x3deaeb5e	0.11470674
233	0xbca1ad68	-0.019736007
234	0x3d9edc7c	0.07756898
235	0xbdb95d92	-0.0905105
236	0x3d7359fc	0.059411988
237	0x3dc2ac82	0.095055595
238	0x3dbc50d0	0.09195101
239	0xbd1991e4	-0.037492648
240	0x3d588b60	0.052867293
241	0xbccf4ae0	-0.025304258
242	0x3d59d158	0.05317816
243	0x3da6afac	0.081389755
244	0xbde5ce16	-0.112209484
245	0x3cd10500	0.02551508
246	0x3dd87a06	0.10570149
247	0x3dd79230	0.1052593
248	0xbcb16d88	-0.021658674
249	0x3d93f3f6	0.07224266
250	0xbd310e5c	-0.043226585
251	0xbd7728a8	-0.060341507
252	0xbdf7e498	-0.12104148
253	0x3dc7c92a	0.09755166
254	0x3cf4cb18	0.029881999
255	0x3d525c84	0.05135776

network.6.bias f4 [32]
0	0xbdbf26f6	-0.09333603
1	0x3be07a20	0.006850496
2	0xbd47ac84	-0.048748508
3	0xbb5e3f00	-0.0033912063
4	0xbd3de5f8	-0.046361893
5	0xbd1a21d4	-0.037629917
6	0x3dbc4980	0.091937065
7	0xbde0e376	-0.10980885
8	0xbd81d602	-0.06339647
9	0x3d09572c	0.0335304
10	0xbcc8c1b0	-0.02450642
11	0x3d71a194	0.058991984
12	0x3d8ce298	0.06879157
13	0xbd9500c4	-0.07275537
14	0x3d3b17d8	0.045677036
15	0x3c86edc0	0.01647079
16	0xbdfbec52	-0.12300934
17	0xbce0f348	-0.027459756
18	0xbd2f1748	-0.042746812
19	0xbde139da	-0.109973624
20	0x3da584d6	0.08081977
21	0xba13a800	-0.0005632639
22	0x3d743af0	0.05962652
23	0xbdb35bfa	-0.087577775
24	0xbb9d7a60	-0.004805848
25	0x3cedaa70	0.029011935
26	0x3db2bd5c	0.08727524
27	0xbde17b80	-0.11009884
28	0x3de1ac76	0.110192224
29	0xbda182b6	-0.07886259
30	0xbdb72018	-0.08941668
31	0xbd38097c	-0.04493092

network.8.weight f4 [1, 32]
0	0xbe0ee52d	-0.13954611
1	0x3e326604	0.17421728
2	0xbc6551c6	-0.013996547
3	0x3da0437c	0.078253716
4	0x3cadf4b3	0.021234846
5	0x3d882c63	0.06649091
6	0xbd204464	-0.039127722
7	0xbddff2fb	-0.10935017
8	0x3d3f457d	0.04669713
9	0x3c8dd41f	0.017313061
10	0x3d44efeb	0.048080366
11	0x3e1fbb9d	0.15598913
12	0x3e281be5	0.16416891
13	0x3dda8129	0.106691666
14	0x3dec2ea8	0.115323365
15	0x3e315c36	0.17320332
16	0xbde89c23	-0.11357906
17	0x3d7baa2d	0.06144159
18	0x3e194077	0.14965998
19	0x3e164d52	0.14677933
20	0x3c40c693	0.011766094
21	0xbe260a88	-0.16214955
22	0xbdf9f954	-0.12205759
23	0xbd104d3f	-0.035229918
24	0x3e0cc884	0.13748366
25	0xbd4ae9f7	-0.049539533
26	0x3e030fcd	0.12798996
27	0xbccc6ea7	-0.024955107
28	0x3d37f82f	0.04491442
29	0xbb5e119e	-0.0033885012
30	0x3d4042c3	0.04693867
31	0xbe08bff6	-0.13354477

network.0.weight f4 [128, 84]
0	0xbda0913e	-0.07840203
1	0xbb95fa75	-0.004576976
2	0x3d9d84ea	0.07691367
3	0xbd00efd8	-0.031478733
4	0x3dab044d	0.0835043
5	0xbcd4a495	-0.025957385
6	0xbd00aaf4	-0.031413034
7	0x3d5dccec	0.054150507
8	0xbd9eb1a9	-0.0774873
9	0xbd074dc8	-0.033033162
10	0xbda33f6a	-0.0797108
11	0x3d83a296	0.06427495
12	0xbc3b5e50	-0.01143606
13	0xbb38b56b	-0.0028184305
14	0xbd580a9e	-0.0527445
15	0x3d74f0d8	0.0598
16	0x3dd2f851	0.10301269
17	0xbc111945	-0.008856122
18	0x3c7aa8b8	0.015299015
19	0x3d2c8fb8	0.04212925
20	0xbd907667	-0.070538335
21	0x3cdbff6c	0.026855193
22	0xbca8c8ff	-0.020603655
23	0xbc0dfb77	-0.008665911
24	0xbcf9e018	-0.030502364
25	0x3c5e4db3	0.01356833
26	0xbcaa2b15	-0.020772496
27	0x3d38b3a8	0.04509321
28	0xbd080e7f	-0.03321695
29	0x3dcc7e2c	0.09985003
30	0xbd1f0534	-0.03882332
31	0xbd7a578e	-0.061118655
32	0x3c9f4a53	0.01944462
33	0xbbcea154	-0.006305853
34	0xbcb2c98a	-0.021824617
35	0x3dcfdfe1	0.101501234
36	0x3d9812b3	0.074254416
37	0x3d3b4613	0.045721125
38	0xbdc2bb7a	-0.095084146
39	0xbd9d7d95	-0.076899685
40	0x3db37365	0.08762244
41	0xbd741088	-0.059586078
42	0x3da53aab	0.08067831
43	0xbd9d56a3	-0.0768254
44	0xbdafef2e	-0.08590542
45	0xbd8966e4	-0.06709078
46	0xbdb0cbe8	-0.08632642
47	0xbd69f694	-0.05711992
48	0xbdb546ce	-0.088513955
49	0x3bbe9b7c	0.005816875
50	0x3d245b20	0.040125966
51	0x3b9c8c97	0.004777502
52	0x3d832b66	0.06404762
53	0x3dd1e56e	0.10248838
54	0xbc2f45f7	-0.010697833
55	0xbda44d66	-0.08022575
56	0x3ccf98c9	0.025341408
57	0xbcd486bd	-0.025943154
58	0x3c3fac42	0.011698784
59	0xbd69d701	-0.05708981
60	0xbc5198ff	-0.012792825
61	0xbd85abb9	-0.06526894
62	0xbd875eda	-0.066098884
63	0x3c718eea	0.014743546
64	0x3db66378	0.08905691
65	0xbd157dbf	-0.036496874
66	0x3ddd84e6	0.10816364
67	0x3ddcb028	0.10775787
68	0xbd950e22	-0.07278086
69	0x3ddf4348	0.10901505
70	0xbc2ab92c	-0.010420125
71	0xbd916e0c	-0.07101068
72	0xbd012706	-0.031531356
73	0x3da2a8a9	0.079423256
74	0xbdcdf9eb	-0.10057434
75	0xbdd28ffe	-0.102813706
76	0x3d89a1c3	0.06720307
77	0xbdac67f1	-0.08418263
78	0x3d56abd1	0.05240995
79	0x3d313015	0.043258745
80	0x3da29c85	0.0794001
81	0xbdcc5448	-0.09977013
82	0xbdd67e42	-0.104733005
83	0x3dde5537	0.10856097
84	0x3a54a4a3	0.0008111691
85	0x3c9431a5	0.018090079
86	0xbd145b06	-0.03621962
87	0xbda32020	-0.07965112
88	0xbdb50970	-0.08839691
89	0x3da8d145	0.0824304
90	0xbda33cf4	-0.0797061
91	0x3dd8c2b9	0.105840154
92	0xbd8d63a2	-0.06903769
93	0x3da14712	0.07874884
94	0xbb3a9c7b	-0.0028474617
95	0x3d3fab90	0.046794474
96	0x3da5cad4	0.08095327
97	0x3cea0cef	0.02857062
98	0xbd8926c5	-0.06696848
99	0xbd82b523	-0.06382205
100	0xbb0eb175	-0.0021773253
101	0x3cd0050d	0.025393033
102	0xbbbf168f	-0.0058315466
103	0xbddab31a	-0.10678692
104	0xbd9d6b75	-0.076865114
105	0x3dcdf9a9	0.100573845
106	0x3da67f0c	0.08129701
107	0xbd919003	-0.07107546
108	0x3d2e25f8	0.04251668
109	0xbdb52e5b	-0.08846732
110	0xbcdaf73d	-0.02672922
111	0xbc784a66	-0.015154457
112	0x3d06cb9d	0.032909025
113	0x3dcf4203	0.101200126
114	0xbda39491	-0.07987321
115	0xbd8af593	-0.06785121
116	0x3d9c17ee	0.07621752
117	0xbbebbfde	-0.007194503
118	0xbd70989a	-0.058739282
119	0x3d4378de	0.04772269
120	0x3dddd852	0.108322755
121	0x3da0cb36	0.078512594
122	0xbd4824d3	-0.048863243
123	0xbdc7ea20	-0.09761453
124	0xbd209338	-0.0392029
125	0xbd58135c	-0.052752838
126	0xbd0bb170	-0.034104764
127	0xbba95dd3	-0.0051686554
128	0x3dc3c1a1	0.09558416
129	0x3d63a0ef	0.0555734
130	0xbd482053	-0.04885895
131	0x3d1f8e7d	0.038954247
132	0x3db39fd1	0.08770717
133	0xbdaec915	-0.08534447
134	0x3db6580c	0.08903512
135	0xbc27a371	-0.010231839
136	0xbdaed6e6	-0.085370824
137	0x3da9c1a0	0.08288884
138	0xbdaee463	-0.08539655
139	0xbce1a69d	-0.027545268
140	0xbd316bdc	-0.043315753
141	0x3c5752a9	0.013142266
142	0x3d9b87e8	0.075942814
143	0x3b931de6	0.004489648
144	0x3cc90fb6	0.024543624
145	0xbcecb42a	-0.028894503
146	0x3d040ca3	0.032238614
147	0x3dd26bc8	0.10274464
148	0x3dac9986	0.0842772
149	0xbd9a9638	-0.07548183
150	0x3dbb55a5	0.09147195
151	0xbd571add	-0.052515853
152	0xbc839fc3	-0.016067391
153	0xbdcb7251	-0.099339135
154	0x3d2b2234	0.041780666
155	0x3d94c46b	0.07264026
156	0xbdcf9a9a	-0.1013691
157	0x3d26e8ef	0.040749487
158	0x3c03a91e	0.008035926
159	0xbda7bdd1	-0.081905015
160	0xbd02c89d	-0.0319296
161	0xbc32481c	-0.01088145
162	0xbdd15bdd	-0.102226
163	0xbc526649	-0.0128417695
164	0xbdba40de	-0.09094404
165	0x3cf211e6	0.02954955
166	0x3d7f93f9	0.062396977
167	0xbdb6db71	-0.08928574
168	0xbda13fdb	-0.078735076
169	0x3d8d50f9	0.0690021
170	0x3da0f189	0.07858569
171	0x3dbf97fc	0.093551606
172	0xbdb7d908	-0.08976942
173	0xbdc0f0ae	-0.09420906
174	0xbd6cdf19	-0.05782995
175	0x3dcd580b	0.100265585
176	0x3d5bce21	0.053663377
177	0xbd35edd3	-0.04441626
178	0xbdb5024e	-0.0883833
179	0x3dcddf47	0.100523524
180	0x3d592b74	0.053019956
181	0xbdbda79d	-0.09260485
182	0x3d821876	0.06352322
183	0x3dc1ec21	0.09468866
184	0x3cb99b80	0.022657156
185	0x3c4d488b	0.012529503
186	0x3c3380ed	0.010956031
187	0x3ddd5d47	0.10808807
188	0x3ddad03c	0.10684249
189	0xbc7e259c	-0.015511896
190	0x3db71954	0.08940378
191	0xbd37e9bd	-0.044900645
192	0xbdc0ca4f	-0.09413587
193	0xbddc8678	-0.107678354
194	0x3cde09a5	0.027104208
195	0x3b282c35	0.0025661115
196	0x3dc5d57b	0.09659859
197	0xbd9bac89	-0.07601268
198	0xbd2de47e	-0.042454235
199	0xbdd39c71	-0.10332573
200	0x3d70fc49	0.058834348
201	0xbd4a54f7	-0.049397435
202	0x3d79f1ac	0.061021492
203	0xbc6c4b79	-0.014422291
204	0xbd937afc	-0.07201192
205	0xbd8e37db	-0.06944247
206	0x3dd1715b	0.10226699
207	0x3d1e0076	0.03857466
208	0xbd9ac6a6	-0.075574204
209	0xbd8ea166	-0.06964378
210	0x3d89a3e5	0.067207135
211	0x3d26771b	0.04064093
212	0xbd9fcb6f	-0.07802474
213	0x3d41ceb0	0.047316253
214	0xbd5dc47b	-0.054142457
215	0x3caf3e61	0.02139205
216	0x3ab5fc36	0.0013884369
217	0xbdc419f8	-0.09575266
218	0xbdd0ad83	-0.10189345
219	0xbdbfdf71	-0.0936879
220	0xbd1b4b55	-0.03791364
221	0x3da29b52	0.07939781
222	0x3b871ae2	0.0041230777
223	0xbbee2a68	-0.007268239
224	0x3d84022e	0.06445728
225	0x3d8a8bea	0.06764968
226	0x3d1fa35f	0.038974162
227	0xbcbc4222	-0.022980753
228	0xbd85b4ee	-0.0652865
229	0xbd2057ee	-0.039146356
230	0xbbfae695	-0.007656882
231	0x3c94556f	0.018107144
232	0x3ba54511	0.0050436337
233	0xbbe45543	-0.006968172
234	0xbdb72efc	-0.089445084
235	0x3db78f44	0.089628726
236	0x3da622e3	0.08112123
237	0xbdba4a9f	-0.09096264
238	0xbdd79ea7	-0.105283074
239	0x3dd83a22	0.10557963
240	0x3c9749ab	0.018467745
241	0xbd881e89	-0.06646449
242	0x3c216b61	0.009852261
243	0x3ca96da5	0.020682165
244	0xbb82132e	-0.0039695716
245	0x3d86997e	0.06572245
246	0x3d8f59ab	0.06999525
247	0x3d21347b	0.03935669
248	0xbd34b81a	-0.044120885
249	0x3dbf21de	0.093326315
250	0x3ddd36fd	0.10801504
251	0xbc3ad4d6	-0.011403283
252	0xbdc049ce	-0.09389077
253	0xbd513d28	-0.051083714
254	0x3bb84e4f	0.0056245695
255	0xbd535068	-0.051590353
