models/sudoku_ltn_4x4.pth (torch, 279666 bytes, 42 tensors)

network.0.weight f4 [128, 4]
0	0xbb6a5a00	-0.003575921
1	0xbe88a556	-0.2668864
2	0xbef870c6	-0.4852354
3	0xbe419220	-0.18903399
4	0xbed2abbb	-0.41146645
5	0x3ed69182	0.4190789
6	0x3ec22cf4	0.37924922
7	0xbec4936a	-0.38393718
8	0x3d070b4b	0.032969754
9	0x3e826c11	0.25473073
10	0x3e9037d4	0.28167593
11	0x3e2679c8	0.16257393
12	0xbe0dac1c	-0.13835186
13	0xbec05af6	-0.37569398
14	0x3bd38880	0.006455481
15	0xbd8806c8	-0.066419184
16	0x3f01e721	0.507433
17	0xbe3bcbd7	-0.18339477
18	0xbe908622	-0.28227335
19	0x3e83d4d0	0.257483
20	0xbeee776e	-0.46575493
21	0xbe0b1cb0	-0.13585162
22	0x3e43300c	0.19061297
23	0xbef28648	-0.47368073
24	0xbe181317	-0.14851032
25	0x3e740abc	0.2383222
26	0x3e951947	0.29120848
27	0xbd07ab2c	-0.033122227
28	0x3f099868	0.5374818
29	0xbf3d8081	-0.74024206
30	0x3eb6bed3	0.35692462
31	0x3e1f8c65	0.155809
32	0xbf8ba86f	-1.0910777
33	0x3ede5c80	0.43429947
34	0xbf08426d	-0.5322636
35	0xbe52767e	-0.20553014
36	0x3d472b11	0.048625056
37	0xbf1d8c63	-0.6154234
38	0x3ea80849	0.3281882
39	0xbec24372	-0.37942082
40	0xbf0666ff	-0.5250091
41	0x3f24ed69	0.6442476
42	0x3f249163	0.6428434
43	0x3ed81609	0.4220431
44	0x3ec2e837	0.3806779
45	0x3e37b05f	0.17938374
46	0x3d80aa8f	0.062825315
47	0x3e6aa1fb	0.22913353
48	0x3dd7ecf3	0.10543241
49	0x3ec7e22e	0.3903975
50	0xbe96ca1c	-0.29451072
51	0x3eb728ef	0.35773417
52	0x3e952a4c	0.29133832
53	0x3ddee5bb	0.10883661
54	0xbdbb4013	-0.091430806
55	0x3ec39e14	0.38206542
56	0xbece0415	-0.4023749
57	0xbeb2c458	-0.34915423
58	0xbef09f3d	-0.4699649
59	0x3f0f8e29	0.56076294
60	0x3ebda20e	0.370377
61	0xbeb5b118	-0.35486674
62	0xbe911ea0	-0.28343678
63	0x3eae8b4f	0.3409066
64	0xbe237d22	-0.15965703
65	0x3e9f4662	0.31108385
66	0x3d5822a3	0.052767407
67	0xbe326a7d	-0.17423435
68	0xbe00e219	-0.1258625
69	0xbea0946b	-0.31363234
70	0x3e770e98	0.24126661
71	0xbe7c8108	-0.24658597
72	0x3e472d5a	0.19450894
73	0x3ecca482	0.3996926
74	0x3e7d3f8c	0.24731272
75	0x3d9ed57c	0.07755563
76	0x3e88648e	0.26639217
77	0x3e68c345	0.2273074
78	0x3ed12698	0.40849757
79	0xbe78c82a	-0.24295107
80	0xbf09ed62	-0.5387784
81	0xbe8c537d	-0.27407447
82	0x3f0dede4	0.5544112
83	0x3d10b48d	0.035328437
84	0x3dbc8c91	0.092064984
85	0x3ecb889b	0.3975266
86	0xbe52b657	-0.2057737
87	0xbdff30dd	-0.12460492
88	0x3d88e692	0.06684603
89	0x3e390b2f	0.18070672
90	0x3e407a09	0.18796553
91	0xbeb2f852	-0.34955078
92	0xbeb34cc2	-0.350195
93	0xbe39f435	-0.18159564
94	0x3f1a9cdc	0.603956
95	0xbe759c48	-0.23985398
96	0x3ea98145	0.33106437
97	0xbe0d7e85	-0.13817795
98	0xbed33ae6	-0.41255873
99	0x3f0e239f	0.55523103
100	0x3e0bea14	0.13663512
101	0xbe1d5c04	-0.15367132
102	0xbecdc620	-0.4019022
103	0x3aec1c00	0.0018013716
104	0xbe601ecb	-0.21886747
105	0x3ecd2c9e	0.40073103
106	0x3ec8df9a	0.39233094
107	0xbe1ed15f	-0.15509556
108	0x3d99a11a	0.07501431
109	0x3de2289b	0.11042901
110	0x3e22ae81	0.1588688
111	0x3e78d451	0.24299742
112	0x3e07749c	0.13228077
113	0xbe8df875	-0.2772862
114	0xbe804832	-0.2505508
115	0x3ea6d3f1	0.32583573
116	0x3f1454f7	0.57942146
117	0x3edaa1c5	0.42701545
118	0xbed9378c	-0.4242519
119	0xbd524bd9	-0.051341865
120	0xbe83e08a	-0.25757247
121	0xbe26297c	-0.16226763
122	0xbda6ef48	-0.08151108
123	0xbea1a9f6	-0.31574982
124	0x3e8f1e06	0.27952594
125	0x3d4d8370	0.050174177
126	0xbebb974c	-0.36638868
127	0xbedcfe50	-0.43162775
128	0xbe8781b5	-0.26466146
129	0x3eb62475	0.3557469
130	0x3ed24700	0.41069794
131	0xbd607e46	-0.054807924
132	0xbe3d5c86	-0.18492326
133	0x3e599aa9	0.21250404
134	0xbea62c35	-0.32455602
135	0x3d68cd45	0.056836385
136	0xbf59a412	-0.85015976
137	0xbe9a2751	-0.3010812
138	0x3eca454a	0.39505988
139	0xbec69483	-0.3878518
140	0xbd7ef430	-0.062244594
141	0xbe494f1c	-0.19659084
142	0xbea983e6	-0.33108443
143	0x3e490dd0	0.19634175
144	0x3e56c89e	0.20974967
145	0x3eb0d408	0.34536767
146	0xbef5f496	-0.48038167
147	0xbc094476	-0.008378139
148	0xbf835cad	-1.0262657
149	0x3f35ccdc	0.71015716
150	0xbe9e223d	-0.30885497
151	0x3bf3f6a7	0.0074451747
152	0xbedc1290	-0.42982912
153	0xbeb463e2	-0.35232455
154	0x3d791db0	0.060819328
155	0xbed18240	-0.40919685
156	0xbed72b93	-0.42025432
157	0x3e24b2fb	0.160839
158	0x3ec8bd9a	0.39207155
159	0x3ee74948	0.45173097
160	0x3dadac28	0.08480102
161	0x3e7929d0	0.24332356
162	0x3e508c74	0.20366079
163	0xbed0b140	-0.4076023
164	0xbf98d331	-1.193945
165	0x3f01db21	0.5072499
166	0xbeb2dcb4	-0.34934008
167	0xbebdab11	-0.37044576
168	0xbe9925fb	-0.2991179
169	0xbe07a1cd	-0.13245316
170	0x3ddcf03b	0.10788008
171	0x3eb87cf9	0.36032847
172	0xbce9d605	-0.028544435
173	0xbf49853d	-0.7871893
174	0xbf59c2b5	-0.85062724
175	0x3ea5f99d	0.32417002
176	0xbf9fb4d5	-1.247706
177	0xbf20b35b	-0.62773675
178	0x3f142129	0.578631
179	0xbdbc67e1	-0.09199501
180	0xbe7de0f0	-0.24792838
181	0x3e9fea36	0.31233376
182	0xbe8306ea	-0.25591213
183	0xbe275130	-0.16339564
184	0x3f01bf47	0.5068249
185	0x3eaa507f	0.3326454
186	0x3ea6934c	0.32534254
187	0xbe26774d	-0.16256447
188	0xbe2f23ba	-0.17103472
189	0x3de74d4e	0.112940416
190	0xbdc676fe	-0.09690665
191	0x3f0b541d	0.5442522
192	0xbef5a650	-0.4797845
193	0xbee66244	-0.44996846
194	0x3d8ebda8	0.06969768
195	0xbe56bcd0	-0.20970464
196	0x3e3a978a	0.1822187
197	0xbed1a6ef	-0.40947673
198	0x3e9ae5d7	0.3025348
199	0xbedf36f0	-0.435966
200	0xbf2566dd	-0.6461008
201	0xbf65b89d	-0.8973482
202	0xbf5ece1b	-0.8703324
203	0x3ebc72d8	0.3680637
204	0x3e209659	0.15682353
205	0xbedeff09	-0.4355395
206	0x3e18db54	0.14927417
207	0x3d9798ed	0.07402215
208	0x3e7170a9	0.23578133
209	0x3e26b0ac	0.16278332
210	0xbd25c78d	-0.04047351
211	0x3e9fff96	0.31249684
212	0xbe83532d	-0.25649396
213	0xbc93dc05	-0.01804925
214	0x3ed3754c	0.41300428
215	0x3e8f2efd	0.27965537
216	0x3e518db8	0.20464218
217	0xbf136ed9	-0.57591015
218	0xbed75498	-0.42056727
219	0x3e513950	0.20432019
220	0xbe145404	-0.14485174
221	0xbe186c1c	-0.1488499
222	0xbe19c4cc	-0.15016478
223	0xbeaf1ae0	-0.34200191
224	0xbe42ad4e	-0.19011423
225	0x3eadd4b8	0.33951354
226	0x3ea9e5b3	0.3318306
227	0xbece2e24	-0.40269578
228	0x3e6564d4	0.22401744
229	0xbe3815fe	-0.1797714
230	0xbe48f9c1	-0.19626524
231	0xbd8433b7	-0.06455176
232	0x3e6ad092	0.22931126
233	0xbf52b867	-0.82312626
234	0x3d111135	0.0354168
235	0x3e2077f3	0.15670757
236	0x3e20b806	0.156952
237	0xbede708c	-0.4344524
238	0xbe79c670	-0.24392104
239	0x3c9edc13	0.019392049
240	0x3ee4eee0	0.44713497
241	0xbedde32e	-0.43337387
242	0x3e975b23	0.2956172
243	0xbe2d09bf	-0.16898249
244	0x3e820b16	0.25399083
245	0x3e5b6c59	0.2142805
246	0x3dac1c42	0.08403827
247	0x3ed3807f	0.41308972
248	0xbe6e81b8	-0.23291671
249	0xbec0f90e	-0.37690014
250	0x3ea701fa	0.32618695
251	0x3d6c7875	0.057732064
252	0x3c969e43	0.018386012
253	0x3e9e90a0	0.30969715
254	0xbeecdbe2	-0.46261507
255	0x3d408d8e	0.047009997

network.0.bias f4 [128]
0	0xbee0a668	-0.43876958
1	0x3e9b47b7	0.30328152
2	0xbf03ea76	-0.51529634
3	0xbed065b6	-0.407026
4	0xbea1215b	-0.3147076
5	0xbdd6f650	-0.10496199
6	0x3cbd5d10	0.023115665
7	0xbed207c7	-0.4102156
8	0x3d20b2f6	0.03923317
9	0x3cc28064	0.023742862
10	0xbed388e8	-0.4131539
11	0xbe58333a	-0.21113291
12	0xbe06c323	-0.13160376
13	0x3eaaedc8	0.33384538
14	0x3ec8114e	0.39075702
15	0xbe7d8e7e	-0.24761388
16	0xbca30c8c	-0.019903444
17	0x3dfd9f3a	0.12383886
18	0x3d20c200	0.039247513
19	0x3e816f5d	0.25280276
20	0xbdd8ade3	-0.10580041
21	0xbec5f105	-0.38660446
22	0x3e3199e7	0.17343865
23	0xbe0a0688	-0.13479054
24	0x3e7c8428	0.24659789
25	0xbe4360fc	-0.19079965
26	0xbed8e68d	-0.42363396
27	0x3ea62aa4	0.32454407
28	0xbe8945a3	-0.2681094
29	0x3d833e43	0.0640836
30	0xbeba71b6	-0.3641488
31	0xbda44198	-0.080203235
32	0xbf087f08	-0.53318834
33	0xbdc31d7e	-0.095271096
34	0x3eef7345	0.4676763
35	0xbeec11f2	-0.4610744
36	0xbee32a3f	-0.4436817
37	0xbe3c2994	-0.18375236
38	0x3e4ef394	0.20210105
39	0x3e306870	0.1722734
40	0xbeeeca22	-0.4663859
41	0x3de89715	0.113569416
42	0x3e9c0a9f	0.30476853
43	0x3eb93df8	0.3618009
44	0x3d8410cf	0.064485185
45	0xbeaea990	-0.3411374
46	0xbef01dbe	-0.4689769
47	0x3e190de8	0.14946711
48	0xbe399ac8	-0.1812545
49	0xbdb7c0e9	-0.089723416
50	0x3e7c5592	0.24642017
51	0xbe5e3f41	-0.21703817
52	0x3ed0d829	0.40789917
53	0x3e906131	0.2819915
54	0xbd8d0343	-0.06885388
55	0xbea269a0	-0.3172121
56	0xbdbc8d6b	-0.09206661
57	0x3dc3125f	0.095249884
58	0xbe4b3c7e	-0.19847295
59	0xbe462d0e	-0.19353124
60	0xbec44bef	-0.38339183
61	0x3e1ecac8	0.15507042
62	0xbe067e00	-0.13134003
63	0xbec588cc	-0.3858093
64	0xbe8f538b	-0.27993426
65	0xbdd7a896	-0.10530202
66	0x3eb16e9c	0.346547
67	0xbeb08210	-0.3447423
68	0xbe1e3690	-0.15450501
69	0x3db35a28	0.0875743
70	0xbebed3fc	-0.37271106
71	0x3e455a2a	0.19272676
72	0x3ec2976e	0.38006157
73	0xbeb6dd0f	-0.3571553
74	0x3edbdc77	0.4294164
75	0x3f01de7c	0.5073011
76	0x3cf621fb	0.0300455
77	0x3eac74ae	0.3368277
78	0xbea8496e	-0.32868522
79	0xbef733a0	-0.48281574
80	0x3e865074	0.26233256
81	0x3eb6fe69	0.35740975
82	0x3ed905b4	0.42387164
83	0x3c3ff786	0.011716729
84	0xbd8dd696	-0.06925695
85	0x3e2abf08	0.16674435
86	0x3e4542d0	0.19263768
87	0x3eb643f5	0.35598722
88	0x3dbdf86a	0.09275897
89	0xbe8082a7	-0.2509968
90	0x3e4bcc18	0.19902074
91	0xbec1d5ce	-0.37858433
92	0x3f1092da	0.5647408
93	0xbed46b70	-0.41488218
94	0x3d26ca4d	0.040720273
95	0xbe8c2bc7	-0.2737715
96	0xbc9fa37a	-0.019487131
97	0xbe629003	-0.22125249
98	0x3f027915	0.50966007
99	0x3e25a969	0.16177906
100	0x3e88adfc	0.2669524
101	0x3ed646d2	0.41850907
102	0xbef25a5b	-0.4733456
103	0xbda54c46	-0.08071189
104	0x3dfc386c	0.12315449
105	0x3ec5ec4c	0.38656843
106	0xbedb2fb6	-0.42809838
107	0xbec5501c	-0.3853768
108	0x3e13f84b	0.14450185
109	0x3ed4f998	0.41596675
110	0xbedfcc54	-0.43710577
111	0xbedfe0d2	-0.43726212
112	0xbebc9218	-0.3683021
113	0xbe9ff634	-0.31242526
114	0x3ee2c702	0.44292456
115	0xbc55c680	-0.013047814
116	0xbe9adf3d	-0.30248442
117	0xbe1d02b5	-0.15333064
118	0xbebefbbd	-0.37301436
119	0x3e566244	0.20935923
120	0xbe0edbc4	-0.13951021
121	0x3e37ee0f	0.17961906
122	0x3e097068	0.13421786
123	0xbdebc61e	-0.11512397
124	0xbe0738db	-0.13205282
125	0x3d47c1c5	0.048768777
126	0x3ea87280	0.32899857
127	0x3ed0c064	0.40771782

network.2.weight f4 [64, 128]
0	0x3d4b9493	0.04970224
1	0xbdba9b47	-0.09111648
2	0xbe0a7c3c	-0.13523954
3	0x3d3c5150	0.045975983
4	0xbc0861af	-0.008324071
5	0x3b7bed9e	0.0038441191
6	0xbc25adee	-0.010112269
7	0xbade0a2b	-0.0016940286
8	0x3d22bf47	0.039733198
9	0xbd3f6b10	-0.046732962
10	0xbcf08c56	-0.029363792
11	0xbdbbec27	-0.09175902
12	0x3d232455	0.03982957
13	0xbc9558be	-0.018230792
14	0xbdc9b356	-0.09848659
15	0xbdb38902	-0.087663665
16	0xbd958281	-0.07300282
17	0x3e3f8d94	0.18706352
18	0x3cc2f8d5	0.023800293
19	0xbb66cf07	-0.0035218613
20	0xbdf0835c	-0.11743805
21	0xbcfd7c67	-0.030943109
22	0xbdfcd8b3	-0.123460196
23	0xbc851952	-0.016247425
24	0xbd8c547d	-0.06852052
25	0x3d929c44	0.071587116
26	0xbd9e689c	-0.077347964
27	0xbd48a501	-0.048985485
28	0x3e3d408c	0.18481654
29	0xbbfbc5e4	-0.0076835025
30	0x3c321c69	0.010871031
31	0x3c3df45a	0.0115939025
32	0xbd270127	-0.040772583
33	0x3d3ea005	0.046539325
34	0xbd5e747f	-0.054310318
35	0xbd22e298	-0.039766878
36	0xbcb70c4c	-0.02234473
37	0xbd86b757	-0.06577938
38	0xbc26116d	-0.010135991
39	0xbd46dcbd	-0.048550356
40	0x3d1b9512	0.03798396
41	0x3cb79967	0.022412015
42	0x3cdd2a7e	0.0269978
43	0xbd8a145c	-0.067421645
44	0xbdec0318	-0.115240276
45	0x3d054b29	0.03254238
46	0xbc26a433	-0.010170984
47	0xbc9a8a20	-0.018864691
48	0x3a1e5b23	0.0006040802
49	0x3cd6db69	0.02622767
50	0xbd29e9a2	-0.041482575
51	0x3d2d0d50	0.042249024
52	0xbd532f91	-0.051559035
53	0xbd7085b4	-0.05872126
54	0xbd8346d7	-0.06409996
55	0xbc81ba60	-0.01583594
56	0xbd218b75	-0.039439637
57	0x3e2cfc36	0.16893086
58	0x3c7dde60	0.015494913
59	0xbd9d3fd6	-0.07678191
60	0x3d12a261	0.035799388
61	0x3c1ef79c	0.009702589
62	0xbd0fe9d1	-0.035135094
63	0xbdbfab92	-0.09358896
64	0x3cfcd2ca	0.03086223
65	0xbca88b35	-0.020574192
66	0xbded580e	-0.11589061
67	0x3daa5450	0.083168626
68	0x3d415ef7	0.047209706
69	0xbd8f8084	-0.07006934
70	0xbdd06348	-0.101751864
71	0xbd9c270c	-0.07624635
72	0xbd9a40dc	-0.07531902
73	0xbd6ecacf	-0.058298882
74	0xbdf59060	-0.11990428
75	0x3c24e60a	0.010064611
76	0xbdc75292	-0.09732546
77	0xbdeb20f3	-0.11480894
78	0xbdb3e7c8	-0.08784443
79	0x3a6f3a84	0.0009125846
80	0x3c88b69d	0.01668864
81	0xbd827afd	-0.063711144
82	0x3d1d687c	0.038429722
83	0x3d66cf38	0.056349963
84	0x3e83bdc2	0.2573071
85	0xbde637f3	-0.1124114
86	0x3bc2b6df	0.00594221
87	0x3c845224	0.016152449
88	0x3bb61e37	0.005557801
89	0x3d631a36	0.05544492
90	0xbc0d6518	-0.00863006
91	0xbda8aa56	-0.08235614
92	0xbd2d93a9	-0.042377148
93	0x3d4155fc	0.04720114
94	0x3d3c006d	0.045898844
95	0xbcbf38b2	-0.023342464
96	0xbda1a933	-0.078936
97	0x3cd56086	0.026047003
98	0xbd8ef23d	-0.06979797
99	0xbc797407	-0.015225417
100	0x3b624324	0.0034524882
101	0xbd6b0227	-0.0573751
102	0xbcbfa3c5	-0.023393521
103	0xbbea8bf1	-0.0071577956
104	0xbda36c40	-0.079796314
105	0xbcf44d54	-0.02982203
106	0xbd546a2d	-0.05185907
107	0xbd9dbe71	-0.077023394
108	0x3d1e6b6c	0.038676664
109	0x3d130ddf	0.0359019
110	0x3daea9f9	0.085285135
111	0xbcd3abee	-0.025838818
112	0xbd2133ea	-0.03935615
113	0xbb4f71aa	-0.0031653442
114	0xbdb27234	-0.08713189
115	0x3b04cb92	0.002026294
116	0x3e7e27cb	0.24819867
117	0x3b9485d5	0.0045325556
118	0xbd53e4ab	-0.051731747
119	0xbcba4afa	-0.02274083
120	0x3d4800a9	0.048828755
121	0xb98be50e	-0.00026682805
122	0xbcaa0eef	-0.020759074
123	0x3d3535b4	0.04424067
124	0x3d1ee685	0.03879406
125	0xbdbe9d9d	-0.09307406
126	0xbce34b7b	-0.027745953
127	0x3d539a0f	0.051660594
128	0xbb4a77fd	-0.0030894272
129	0x3d608190	0.05481106
130	0xbbb5ccb5	-0.0055480846
131	0x3d076ced	0.033062864
132	0xbd95605d	-0.072937705
133	0xbac4634b	-0.0014983205
134	0xbd3cfe20	-0.04614079
135	0xbd7eeb8b	-0.06223635
136	0x3c456e72	0.012050258
137	0x3d8ae358	0.06781644
138	0xbd8daea6	-0.06918077
139	0xbdcb6b64	-0.099325925
140	0xb882dca3	-6.23998e-05
141	0xbdec1aa4	-0.11528519
142	0x38282402	4.0087856e-05
143	0x3c7e7b9e	0.015532402
144	0xbde47fe4	-0.11157206
145	0xbd81d329	-0.06339104
146	0x3c39018d	0.011291874
147	0x3c83db32	0.016095731
148	0xbcf62548	-0.030047074
149	0x3d3edad6	0.046595417
150	0xbd52646b	-0.051365297
151	0x3c49031f	0.0122688105
152	0xbddda163	-0.10821798
153	0xbd79e231	-0.06100673
154	0x3ca4d718	0.020122096
155	0xbda9cb8e	-0.08290778
156	0xbd94f390	-0.07273018
157	0x3d6eb7cf	0.058280762
158	0x3a84579b	0.0010096909
159	0x3ca84114	0.020538844
160	0x3b6533b8	0.0034973454
161	0xbca3a67a	-0.019976843
162	0x3d21c6f7	0.03949639
163	0xbd6b773d	-0.05748676
164	0x3d02bfea	0.031921305
165	0x3d8d0979	0.068865724
166	0x3d106e4e	0.035261445
167	0x3d4aaa21	0.049478654
168	0xbdb0e40e	-0.08637248
169	0xbad93193	-0.001657056
170	0xbda06d63	-0.07833364
171	0xbd88751c	-0.06662962
172	0xbd238491	-0.039921347
173	0x3d544763	0.051825892
174	0xbd93137e	-0.07181452
175	0xbdcc6c5e	-0.09981607
176	0xbc1f85cd	-0.00973649
177	0xbd103b70	-0.035212934
178	0xbd390f12	-0.045180388
179	0xbcb210a4	-0.02173645
180	0xbc6938d9	-0.014234745
181	0xbd64f332	-0.05589599
182	0xbd2fd6b0	-0.04292935
183	0xbd71b435	-0.05900975
184	0xbda80ec0	-0.08205938
185	0xbc8df6a6	-0.017329525
186	0x3d53082e	0.051521473
187	0xbd5394e6	-0.051655672
188	0xbd43975b	-0.047751766
189	0xbd82105b	-0.06350776
190	0xbc668546	-0.014069861
191	0x3cf70a64	0.030156322
192	0x3cbc08f2	0.022953484
193	0xbc374785	-0.011186485
194	0xbcbd9ac7	-0.023145093
195	0x3bd4b23a	0.006490973
196	0x3d215766	0.03938999
197	0xbd3ecb47	-0.04658058
198	0x3d8264e4	0.063668996
199	0x3d04826b	0.03235094
200	0xbde2adb1	-0.11068285
201	0xbd8d5636	-0.06901209
202	0xbc01bf9f	-0.007919221
203	0xbd89678a	-0.06709202
204	0xbdccb030	-0.099945426
205	0x3da601f1	0.08105839
206	0xbd7e837e	-0.06213712
207	0xbcbf777e	-0.023372408
208	0x3d1295da	0.03578744
209	0x3cb07761	0.0215413
210	0xbd6d8ac8	-0.05799368
211	0xbba0292b	-0.00488772
212	0xbda151b0	-0.07876909
213	0xbd12bef0	-0.035826623
214	0xbce90644	-0.02844537
215	0xbca75415	-0.020425836
216	0xbddac71b	-0.106825076
217	0xbd94dc34	-0.07268563
218	0xbd8e10dd	-0.0693681
219	0x3da9a65d	0.082836844
220	0xbc9bd3a7	-0.019021822
221	0x3c307951	0.010771112
222	0xbc919dad	-0.017775381
223	0xbcdf1896	-0.027233403
224	0xbc87b635	-0.016566375
225	0x3ce67481	0.028131725
226	0xbb1adcfd	-0.0023630254
227	0xbdafd259	-0.085850425
228	0xbbd17e5a	-0.006393236
229	0x3d26c373	0.04071374
230	0x3d76675c	0.060157165
231	0xbd05744a	-0.032581605
232	0x3da300c3	0.0795913
233	0xbde26707	-0.11054807
234	0xbde4afc3	-0.111663364
235	0x3d204880	0.03913164
236	0x3ca5ebe1	0.020254077
237	0xbc3ec2c3	-0.0116431145
238	0xbc594a8b	-0.013262401
239	0xbd4c406d	-0.04986613
240	0xbd358147	-0.04431274
241	0xb8575bb3	-5.1345396e-05
242	0x3d0ff9c4	0.035150304
243	0x3d18fd73	0.037351083
244	0xbb55568f	-0.0032552814
245	0x3ce1f49b	0.027582457
246	0x3a3a5f52	0.0007109541
247	0xbd27a8d1	-0.04093248
248	0x3d837c25	0.06420163
249	0x3c9352e8	0.017983869
250	0x3d361d57	0.044461574
251	0xbcae508c	-0.021278642
252	0xbde9c92b	-0.11415323
253	0xbd2a0cc3	-0.041516077
254	0xbcf2ebc5	-0.02965344
255	0xbd01136b	-0.03151266

network.2.bias f4 [64]
0	0xbddca7f5	-0.10774223
1	0xbcf36ab2	-0.029713962
2	0xbe2552de	-0.16144893
3	0xbdbacbf3	-0.091209315
4	0x3d78c18a	0.06073145
5	0xbb113e5a	-0.0022162409
6	0x3d43c71d	0.04779731
7	0xbc6f2d3c	-0.014598187
8	0x3ca588a3	0.020206755
9	0xbdcbe8de	-0.09956525
10	0x3c826d42	0.015921239
11	0xbd8884a0	-0.06665921
12	0xbc92633f	-0.01786959
13	0xbc1f7c57	-0.009734235
14	0x3b158432	0.002281439
15	0x3b5cfb07	0.003371896
16	0xbe4ecad2	-0.20194557
17	0xbd9ebeb3	-0.07751217
18	0x3d2b635f	0.041842815
19	0xbe0d6698	-0.13808668
20	0xbcffe4bd	-0.031237
21	0x3b8368ea	0.0040103095
22	0xbdc91ab9	-0.0981955
23	0x3896df28	7.1941235e-05
24	0xbd0a45e3	-0.033758055
25	0xbd8e2dfd	-0.06942365
26	0xba23b8e9	-0.00062455103
27	0xbdd13365	-0.10214881
28	0xbdd4c0de	-0.10388349
29	0xbcaf9381	-0.02143264
30	0xbd364fb0	-0.04450959
31	0x3c56e4b1	0.013116048
32	0xbd087977	-0.033318963
33	0xbd32f7dc	-0.04369341
34	0x3cd764f9	0.026293265
35	0x3d3e02e8	0.04638949
36	0xbd5ca423	-0.05386747
37	0x3bf48d18	0.0074631087
38	0x3dbfe6c0	0.09370184
39	0xb7fe65a3	-3.0326488e-05
40	0xbda12b8f	-0.07869636
41	0x3c9b1594	0.018931188
42	0xbdc75048	-0.09732109
43	0xbd81c30f	-0.063360326
44	0xbd97e29e	-0.07416271
45	0xbcb54398	-0.022126958
46	0xbda8ea15	-0.082477726
47	0xbd0c62f2	-0.03427405
48	0xbd44a1b4	-0.048005775
49	0x3d8665ba	0.065623716
50	0xbdac0c98	-0.084008396
51	0xbd8d152f	-0.06888806
52	0x3d945b1e	0.07243942
53	0xbda4c4ff	-0.080453865
54	0xbcd6c786	-0.026218187
55	0x3cdaf252	0.026726875
56	0xbd8ceb16	-0.068807766
57	0x3d8624b8	0.06549972
58	0x3d13a1bd	0.036042918
59	0xbd3aa093	-0.04556329
60	0xbd011a41	-0.03151918
61	0xbd09f3e2	-0.03367985
62	0xbcd11d76	-0.025526743
63	0xbde0b80a	-0.10972603

network.4.weight f4 [32, 64]
0	0x3c2c6634	0.010522414
1	0xbd10bb0b	-0.035334628
2	0x3dcbed12	0.09957327
3	0x3da6ca36	0.081440374
4	0xbd88119a	-0.06643982
5	0xba1b927e	-0.000593461
6	0xbdd331a4	-0.103122026
7	0xbdd94dbf	-0.10610532
8	0x3d7bcd82	0.061475284
9	0xbd200dce	-0.039075665
10	0x3d4d088b	0.050056975
11	0xbd8efb31	-0.06981505
12	0xbce24bc9	-0.027624028
13	0x3de34df9	0.110988565
14	0xbddb7160	-0.10714984
15	0x3cd61f87	0.02613808
16	0xbc332326	-0.010933673
17	0xbceac1f3	-0.028656935
18	0x3c7d5ee7	0.015464521
19	0xbe25cb42	-0.16190818
20	0x3beaed10	0.0071693733
21	0x3d9ca584	0.07648757
22	0xbdd987b5	-0.10621587
23	0x3d5dc010	0.054138243
24	0x3d4adff4	0.049529985
25	0x3e022968	0.12711108
26	0x3d84ab0f	0.06477939
27	0x3c350947	0.011049575
28	0xbd1d6d64	-0.0384344
29	0x3d648d05	0.05579855
30	0x3d30c07c	0.043152317
31	0x3d930489	0.071785994
32	0x3ec8af97	0.39196464
33	0x3d7ef91f	0.0622493
34	0xbd4b8a1c	-0.04969226
35	0xbd94ca1a	-0.0726511
36	0xbe045f2b	-0.12926929
37	0x3b7889d4	0.003792395
38	0x3d26bf9b	0.040710073
39	0x3da4a171	0.08038605
40	0xbde74cba	-0.11293931
41	0xbdcf9599	-0.10135955
42	0x3d266188	0.040620357
43	0x3b577545	0.0032876295
44	0x3bfcc3fa	0.007713792
45	0xbd99ed55	-0.075159706
46	0xbdc09c1c	-0.094047755
47	0x3daf7286	0.085667655
48	0xbdc750bc	-0.09732196
49	0x3d9db753	0.07700982
50	0x3d9a8bfa	0.0754623
51	0xbdee4554	-0.11634317
52	0x3d381878	0.04494521
53	0xbd2d8c53	-0.04237015
54	0xbd0b345b	-0.033985477
55	0xbdad0e3f	-0.08449983
56	0xbc861855	-0.016369024
57	0x3db254d9	0.0870759
58	0xbd7519da	-0.059839107
59	0x3d9cf3a4	0.07663658
60	0x3daa0dde	0.08303426
61	0x3e0f2bd1	0.13981558
62	0xbc25fb50	-0.010130718
63	0x3d72abdd	0.059245933
64	0x3db8e030	0.09027135
65	0xbd50b114	-0.050950125
66	0xbcaf46a0	-0.021395981
67	0xbd614af0	-0.055003107
68	0xbc96b5f0	-0.018397301
69	0xbdbf61e4	-0.09344843
70	0x3d16a6d0	0.03678018
71	0xbd00ffe0	-0.03149402
72	0xbd6cc238	-0.05780241
73	0x3c905718	0.017619655
74	0xbae85480	-0.0017725378
75	0x3dad9ab8	0.08476776
76	0x3df5f964	0.12010458
77	0xbc0b1bc0	-0.008490503
78	0xbd6f66b0	-0.05844754
79	0xbda83d16	-0.08214776
80	0xbdde77ea	-0.108627155
81	0x3b8242c0	0.0039752424
82	0x3d953076	0.07284634
83	0xbb68198c	-0.0035415618
84	0xbd3960a8	-0.045258194
85	0x3d4c6804	0.049903885
86	0x3da0e180	0.07855511
87	0xbde41200	-0.11136246
88	0x3c34fbb0	0.011046335
89	0x3de840a0	0.11340451
90	0x3cdd3dd0	0.027007014
91	0x3c686cd0	0.014186099
92	0xbdaaa6ce	-0.08332597
93	0xbdc963ba	-0.098334745
94	0x3ca04240	0.01956284
95	0xbd7d7a3c	-0.06188415
96	0xbbefc2bf	-0.0073169167
97	0x3da3db72	0.0800084
98	0xbcdf9d68	-0.027296737
99	0xbc2c7710	-0.010526434
100	0x3de79050	0.11306822
101	0x3d86d234	0.06583062
102	0xbda98b84	-0.082785636
103	0x3d9b41bc	0.07580897
104	0x3de99d06	0.11406903
105	0xbdee953c	-0.11649558
106	0x3d361ce4	0.044461146
107	0xbdebfa62	-0.11522366
108	0xbdb5ec9c	-0.0888302
109	0xbb45ad80	-0.0030163229
110	0x3df1dd54	0.11809793
111	0x3de8736e	0.113501415
112	0x3dafe398	0.08588332
113	0x3c858a10	0.016301185
114	0x3dc571f6	0.09640877
115	0x3db03712	0.08604254
116	0x3ca7dad0	0.02049008
117	0xbde16e7a	-0.110074
118	0x3dca0ad2	0.09865345
119	0x3c033100	0.008007288
120	0xbdba5ba2	-0.09099509
121	0xbdd90ac2	-0.10597755
122	0x3d820f92	0.06350626
123	0xbd43bb74	-0.04778619
124	0xbd2e9d1c	-0.0426303
125	0x3d53b314	0.051684454
126	0x3dbc202a	0.09185822
127	0xbdd7402e	-0.10510288
128	0x3d493813	0.049125742
129	0xbdd65c9f	-0.10466885
130	0x3dddfb95	0.10839001
131	0x3db592a6	0.088658616
132	0xbd315382	-0.04329253
133	0x3db72089	0.089417525
134	0x3d2d9ade	0.04238402
135	0x3c8f0e65	0.017462919
136	0xbdbf0e16	-0.093288586
137	0x3d97d8de	0.07414411
138	0x3db86eea	0.0900553
139	0x3c85da45	0.01633943
140	0xbdd73ec7	-0.10510021
141	0x3df122b7	0.117741995
142	0xbdcdd184	-0.100497276
143	0xbda8788a	-0.08226116
144	0xbd57f014	-0.05271919
145	0xbcb4121a	-0.021981288
146	0x3dcd50e8	0.10025197
147	0xbec3b24d	-0.3822197
148	0xbd2d205a	-0.04226718
149	0xbd4db173	-0.050218057
150	0xbde51890	-0.111863256
151	0x3c3dfa6f	0.011595353
152	0xbc90d5a0	-0.01767999
153	0x3dc918c2	0.09819175
154	0xbdb1d406	-0.086830184
155	0x3c2da67e	0.010598777
156	0xbbe5c7c8	-0.007012341
157	0xbd34f790	-0.044181406
158	0x3d6c1f10	0.05764681
159	0xbcd59e4b	-0.026076457
160	0x3ef9e787	0.48809454
161	0x3d7d7a56	0.061884247
162	0x3d6c8aeb	0.05774967
163	0x3ca66eec	0.020316564
164	0x3da04f01	0.07827569
165	0xbab5623e	-0.0013838483
166	0xbd9e3fa5	-0.07726983
167	0xbdfa8024	-0.12231472
168	0xbc8ec7a0	-0.017429173
169	0x3ddeac39	0.108726926
170	0x3d45b534	0.048268512
171	0xbd025ef1	-0.031828824
172	0xbd8d7460	-0.069069624
173	0xbdf83ee2	-0.12121369
174	0x3d41d1c2	0.04731918
175	0x3a74f600	0.0009344518
176	0x3dddc1a2	0.10827948
177	0xbd8a7a63	-0.06761625
178	0xbe0d0531	-0.13771512
179	0x3bd6bbdb	0.006553156
180	0x3d7290b1	0.05922002
181	0xbdc3ca92	-0.095601216
182	0x3db6ce46	0.08926062
183	0xbdf0c186	-0.11755662
184	0xbcb81703	-0.02247191
185	0x3df99dc5	0.12188295
186	0x3dff2131	0.12457503
187	0xbd7ee20b	-0.06222729
188	0xbd8c0897	-0.06837576
189	0x3c3f75e0	0.011685818
190	0xbc70a350	-0.014687374
191	0x3c60680c	0.013696682
192	0x3daa54b3	0.08316936
193	0x3de76026	0.11297636
194	0x3d39eef4	0.0453939
195	0xbda37d62	-0.07982899
196	0x3a76f56b	0.00094207254
197	0x3d854364	0.06506994
198	0xbdcd3a43	-0.10020878
199	0xbd564d93	-0.052320074
200	0xbdb8df8b	-0.090270124
201	0xbdef634b	-0.116888605
202	0x3dae4ee6	0.085111424
203	0xbcc1f90d	-0.023678327
204	0x3ca2fee2	0.019896928
205	0xbd807220	-0.062717676
206	0xbc05fb28	-0.008177556
207	0xbddb746d	-0.10715566
208	0xbbd59447	-0.00651792
209	0xbd439c25	-0.047756333
210	0xbd8d2b92	-0.06893076
211	0x3de10f89	0.10989291
212	0x3db55545	0.088541545
213	0x3d209995	0.039208967
214	0x3c821a90	0.015881807
215	0x3e46cea9	0.19414772
216	0x3db1f016	0.08688371
217	0x3cbf63f8	0.023363099
218	0xbc649f11	-0.01395394
219	0x3c9b61ec	0.018967591
220	0x3db28ca8	0.08718234
221	0x3cd933c5	0.026513943
222	0xba340d00	-0.0006868392
223	0xbdec3212	-0.11532988
224	0x3e7dbaac	0.24778241
225	0x3d8ea428	0.06964904
226	0x3dd6dd88	0.104914725
227	0x38484575	4.7748403e-05
228	0x3dbbf7bb	0.0917811
229	0x3db9f40a	0.0907975
230	0x3ed1d938	0.40986037
231	0xbdd47ae4	-0.10375002
232	0xbd550024	-0.052002087
233	0x3d2a320f	0.041551646
234	0xbdbbf99f	-0.09178471
235	0xbdf14412	-0.117805615
236	0xbd6317d0	-0.05544263
237	0xbdd8b04c	-0.10580501
238	0x3dde7022	0.108612314
239	0xbc0b9780	-0.008520007
240	0x3bc5bfe0	0.006034836
241	0xbd437317	-0.04771718
242	0x3cdafbd8	0.026731417
243	0xbd2d4272	-0.042299695
244	0xbddfcd13	-0.10927787
245	0xbd5522f4	-0.052035287
246	0x3c896438	0.01677142
247	0xbde1e930	-0.11030805
248	0x3e608122	0.2192426
249	0x3a655f0e	0.0008749821
250	0xbc885a08	-0.016644493
251	0x3d278269	0.040895853
252	0xbdd813b4	-0.10550633
253	0xbdfe3ddc	-0.124141425
254	0xbbac13e0	-0.0052513927
255	0x3e3209a4	0.1738649

network.4.bias f4 [32]
0	0xbda6b7fe	-0.081405625
1	0xbddde414	-0.10834518
2	0xbe6ec586	-0.23317537
3	0x3db78e89	0.08962733
4	0x3d773b79	0.060359452
5	0xbd67b98c	-0.056573436
6	0xbde95e86	-0.11394982
7	0xbd8877a6	-0.06663446
8	0xbd81bd4e	-0.06334935
9	0x3d5ffacd	0.05468254
10	0xbde269ba	-0.11055322
11	0x3d78dc97	0.060757246
12	0xbe1389d1	-0.14408042
13	0xbd9fbaad	-0.077992775
14	0xbd97e73b	-0.074171506
15	0xbd62f1a5	-0.05540623
16	0x3f662694	0.89902616
17	0xbe16745c	-0.14692825
18	0xbcba2538	-0.022722825
19	0x3d36e493	0.04465158
20	0x3e1214ae	0.14265701
21	0xbe1ebcae	-0.15501663
22	0xbe0ff443	-0.14058022
23	0xbd0a4e22	-0.03376592
24	0x3d447abd	0.047968615
25	0xbd7f1f30	-0.062285602
26	0xbdcf034e	-0.10108052
27	0xbe1c6680	-0.15273476
28	0x3d043296	0.032274805
29	0x3cd725d5	0.026263157
30	0x3d37ac1a	0.044841863
31	0x3d2d2d7f	0.042279717

network.6.weight f4 [1, 32]
0	0x3e0903f7	0.13380419
1	0xbb95f880	-0.0045767426
2	0x3e44ec0a	0.19230667
3	0xbefaf388	-0.49013925
4	0xbe90d24a	-0.28285438
5	0x3e288d4a	0.16460148
6	0x3c092980	0.008371711
7	0xbe1f5811	-0.15560938
8	0xbe0e0a82	-0.13871196
9	0x3e61f8fd	0.22067638
10	0x3e2d3376	0.16914162
11	0xbf9a3261	-1.2046624
12	0x3ebf35bf	0.37345693
13	0x3e927ec9	0.28612354
14	0xbdc4bad0	-0.09605944
15	0xbcfedf7e	-0.031112429
16	0xbfacd9f0	-1.3504009
17	0xbd45eff2	-0.048324533
18	0x3d43fa8d	0.047846366
19	0x3f8da79b	1.1066774
20	0xbfb0e887	-1.3820962
21	0xbd0b94d4	-0.03407748
22	0x3ed67e5e	0.41893286
23	0xbb24513b	-0.0025072831
24	0x3e898078	0.26855826
25	0x3e22f330	0.15913081
26	0xbdd3fa86	-0.10350518
27	0xbd79cacb	-0.060984414
28	0xbfb916b5	-1.4460055
29	0xbec4395f	-0.3832502
30	0xbf8e51e4	-1.1118741
31	0x3e9770b0	0.2957816

network.0.weight f4 [128, 3]
0	0xbf096945	-0.53676254
1	0xbda2a500	-0.079416275
2	0x3ed4ad9b	0.415387
3	0x3e6a9ac8	0.22910607
4	0x3ea872fb	0.32900223
5	0x3dddce82	0.10830404
6	0xbe720ae5	-0.23636968
7	0x3d9585e3	0.073009275
8	0x3edf1a39	0.43574694
9	0xbdbcc4b9	-0.09217209
10	0xbf064c78	-0.5246043
11	0x3e030762	0.12795785
12	0xbecb1869	-0.3966706
13	0x3eed43a1	0.4634066
14	0xbef8a114	-0.48560393
15	0x3e116eba	0.14202395
16	0xbf104328	-0.5635247
17	0x3e2fe1bc	0.17175955
18	0x3ecb5741	0.39715007
19	0x3c7b5ce9	0.015341976
20	0xbd758075	-0.05993696
21	0x3e7a308d	0.24432583
22	0xbe4e68a8	-0.2015711
23	0x3dbd3246	0.092381045
24	0xbe315d66	-0.17320785
25	0xbe933b16	-0.28756016
26	0x3e6fa4eb	0.23402755
27	0xbf048193	-0.51760215
28	0x3e488e51	0.1958554
29	0xbe7516c3	-0.23934464
30	0x3eea9cc4	0.45822728
31	0x3eb6bcb5	0.35690847
32	0x3eb5e28e	0.3552441
33	0x3ea24b90	0.31698275
34	0xbded610c	-0.11590776
35	0xbd8897ac	-0.06669554
36	0xbe81e79a	-0.2537201
37	0xbf19c1c1	-0.6006127
38	0x3e951810	0.2911992
39	0xbefa5374	-0.48891795
40	0xbe810f52	-0.25207
41	0xbee9108a	-0.4552043
42	0xbde44c01	-0.11147309
43	0xbd92ba4c	-0.071644396
44	0x3eb133de	0.34609884
45	0x3d5692a9	0.05238596
46	0xbeedc22a	-0.46437198
47	0x3e6b542a	0.22981325
48	0xbe99da79	-0.30049494
49	0x3e3dcd89	0.18535437
50	0xbf1ca169	-0.6118379
51	0x3d6343e8	0.055484682
52	0x3efe58f4	0.4967724
53	0x3efc8c07	0.49325582
54	0x3ed493c8	0.41518998
55	0x3e2f9fb8	0.17150772
56	0xbeacb118	-0.33728862
57	0xbe91c691	-0.28471807
58	0xbe81d312	-0.25356346
59	0xbe1b33a8	-0.15156424
60	0x3ed98945	0.4248754
61	0x3ec7f47d	0.39053717
62	0x3e86196f	0.2619128
63	0xbe8dab70	-0.2766986
64	0x3c2717e1	0.010198564
65	0xbefef5c8	-0.4979689
66	0xbee44da5	-0.44590488
67	0xbe35c9b2	-0.17752722
68	0x3dc4c619	0.09608097
69	0xbd466671	-0.04843754
70	0x3b3c2bcc	0.0028712628
71	0xbea4b9c8	-0.3217299
72	0x3f31fd4c	0.69527125
73	0xbecdd210	-0.40199327
74	0x3e4ca26b	0.19983833
75	0xbc3a62f4	-0.011376131
76	0xbe13bf1a	-0.14428368
77	0xbdb121b0	-0.086490035
78	0x3c305e4c	0.01076467
79	0xbea1dec0	-0.31615257
80	0x3edcd075	0.4312779
81	0x3d3d318d	0.046189833
82	0xbe436ffc	-0.19085687
83	0xbe1c5dd7	-0.15270172
84	0xbee80890	-0.45319033
85	0x3e935d14	0.2878195
86	0xbc348806	-0.011018759
87	0x3e891d5f	0.2678022
88	0xbeeb785d	-0.45990267
89	0x3eff0049	0.49804905
90	0x3ec570cf	0.3856263
91	0xbe0a7acd	-0.13523407
92	0x3eb49900	0.3527298
93	0x3e31c6de	0.17361018
94	0x3d5b6c35	0.05356999
95	0x3e822ed4	0.25426352
96	0x3e7a52be	0.24445626
97	0x3dcda93f	0.10042047
98	0xbdae7e78	-0.08520216
99	0x3da9ce5c	0.08291313
100	0xbe0b9193	-0.13629751
101	0x3ebb4bd2	0.36581284
102	0xbecb7e5d	-0.39744845
103	0xbec4f3f0	-0.3846736
104	0x3ec08f60	0.37609386
105	0xbf873f7d	-1.056625
106	0xbf0cbde6	-0.5497726
107	0xbe2a05d2	-0.16603783
108	0xbf12bc87	-0.5731892
109	0xbe15bff3	-0.14624004
110	0x3e3086d9	0.1723894
111	0x3efea7fe	0.49737543
112	0xbcc80f13	-0.02442125
113	0x3e330b8f	0.17484878
114	0x3e1cbf21	0.15307285
115	0xbf1b5399	-0.60674435
116	0x3eb71d95	0.35764757
117	0x3dff3536	0.12461321
118	0x3f0d9d1c	0.55317855
119	0x3e071613	0.13192014
120	0x3d82ba6f	0.06383216
121	0x3e25d06e	0.16192791
122	0x3edbcbf6	0.42929047
123	0x3ee5e6a9	0.44902542
124	0x3ea33434	0.31875765
125	0x3eb6def9	0.3571699
126	0x3f0fd467	0.56183475
127	0x3df5a816	0.119949505
128	0x3ea50240	0.3222828
129	0xbed35884	-0.4127847
130	0xbee07b19	-0.43843916
131	0xbe1683bd	-0.14698692
132	0xbeeedf6d	-0.46654835
133	0xbed69fe1	-0.41918853
134	0xbbd14e25	-0.0063874894
135	0xbe040bb5	-0.12895091
136	0xbde5f57e	-0.112284645
137	0xbd94d2ac	-0.07266745
138	0x3e2dce18	0.1697315
139	0x3eef12e1	0.4669409
140	0xbecc2e0e	-0.39878887
141	0xbf09a9f8	-0.53774977
142	0x3e3f2851	0.18667723
143	0x3e07c21c	0.1325764
144	0x3e942603	0.2893525
145	0x3eaa1482	0.3321877
146	0xbeac7a20	-0.33686924
147	0x3e0046b0	0.12526965
148	0xbea7e52f	-0.3279204
149	0xbf012c1c	-0.5045793
150	0xbe967c69	-0.29391792
151	0xbef81599	-0.48453978
152	0x3ee2330a	0.44179565
153	0x3f09fb4f	0.5389909
154	0xbe70b23b	-0.2350549
155	0x3f061e60	0.523901
156	0xbf1ba428	-0.6079736
157	0x3ea6b810	0.32562304
158	0x3eec770e	0.46184582
159	0xbd31acbf	-0.043377634
160	0x3ea40239	0.32032946
161	0xbee8e6f1	-0.45488694
162	0x3d502e1f	0.050825235
163	0xbdaf7e4b	-0.0856901
164	0xbf0fb1d7	-0.5613074
165	0xbe65a131	-0.22424771
166	0xbe513a59	-0.20432414
167	0x3e901483	0.2814065
168	0x3f0047af	0.5010938
169	0xbf17647d	-0.5913771
170	0xbd0f6c80	-0.035015583
171	0xbef9b40a	-0.4877017
172	0xbf127271	-0.57205874
173	0xbf07822d	-0.5293301
174	0xbe3a8135	-0.18213351
175	0x3e65fbc6	0.22459325
176	0xbf11c33c	-0.5693853
177	0x3ecee045	0.4040548
178	0x3ef03bd7	0.46920654
179	0x3e402d94	0.18767387
180	0xbf21be87	-0.63181347
181	0x3efac65c	0.4897946
182	0xbcee5b2d	-0.02909621
183	0x3e97ac12	0.29623467
184	0xbe992330	-0.29909658
185	0xbf1de69f	-0.61680025
186	0xbeca735f	-0.39541146
187	0xbdb932be	-0.090428814
188	0xbe746080	-0.23864937
189	0x3e0d78b2	0.13815573
190	0x3e937121	0.28797248
191	0xbf10aa05	-0.5650943
192	0xbe83c4ed	-0.2573618
193	0x3ed72833	0.42022857
194	0x3ed69f39	0.41918352
195	0x3ec32b73	0.38119087
196	0x3efba918	0.49152446
197	0xbec525b7	-0.38505337
198	0x3edc68fa	0.4304884
199	0x3e2652b1	0.16242482
200	0xbd51e899	-0.051247213
201	0x3ed13ae7	0.4086525
202	0xbec75f75	-0.38940015
203	0xbeb138f3	-0.3461376
204	0xbef7c51b	-0.48392567
205	0xbec6d436	-0.3883378
206	0xbed1e014	-0.4099127
207	0x3f16f8bf	0.58973306
208	0xbec939f6	-0.39302033
209	0x3e88579e	0.26629347
210	0x3ee33834	0.44378817
211	0x3d9d1627	0.07670241
212	0xbf13a571	-0.5767432
213	0x3e86bfe0	0.26318264
214	0xbe215f3c	-0.15758985
215	0xbeb72d54	-0.3577677
216	0xbf029cab	-0.51020306
217	0xbde3739a	-0.111060336
218	0xbd6a8da5	-0.05726399
219	0xbef65da5	-0.4811832
220	0xbdd6d32d	-0.10489497
221	0xbe6a2c07	-0.22868358
222	0x3f13a1af	0.57668585
223	0x3e443693	0.19161443
224	0x3e779979	0.24179639
225	0xbe451512	-0.19246319
226	0x3ec4d0f3	0.38440666
227	0xbf005c6e	-0.50141037
228	0xbd37d10a	-0.04487709
229	0x3ef50250	0.47853327
230	0x3e53c881	0.20681955
231	0x3dd02a2f	0.10164296
232	0x3e080d41	0.13286306
233	0x3eff2ac2	0.4983731
234	0xbf2244bd	-0.63386136
235	0x3dbc6735	0.09199373
236	0x3ea21871	0.31659272
237	0x3cd8f837	0.026485546
238	0xbdc41cd4	-0.09575811
239	0x3c04311d	0.00806835
240	0xbeff7619	-0.4989479
241	0x3ceea329	0.029130535
242	0xbbf609cd	-0.0075084926
243	0xbedcaf83	-0.43102655
244	0xbe15304c	-0.14569205
245	0x3db9a0a3	0.09063842
246	0x3e6c5d67	0.23082505
247	0x3ef80d13	0.48447475
248	0xbe1d9693	-0.15389471
249	0xbe28b787	-0.1647626
250	0x3dfa8843	0.12233021
251	0xbed2d7ff	-0.41180417
252	0x3eacd1a9	0.33753708
253	0xbe46502c	-0.1936652
254	0xbdd14734	-0.10218659
255	0x3eca2780	0.3948326

network.0.bias f4 [128]
0	0xbdc7ad9d	-0.09749911
1	0x3e546a1e	0.20743605
2	0x3ebe4131	0.37159112
3	0xbe98cda5	-0.29844394
4	0xbd9f046d	-0.07764516
5	0x3ea690ad	0.32532254
6	0x3e0ff61f	0.14058731
7	0xbeacc43b	-0.33743462
8	0xbd6c776a	-0.05773107
9	0xbe8a1d99	-0.26975706
10	0xbe826824	-0.25470078
11	0xbe814601	-0.2524872
12	0x3e214c4e	0.15751764
13	0x3ec4c2d5	0.38429895
14	0x3f029150	0.5100298
15	0x3ede091b	0.43366322
16	0x3ec59885	0.38592926
17	0xbeb024f3	-0.3440319
18	0x3e372af5	0.1788748
19	0xbe1107e1	-0.14163162
20	0x3ea6efb2	0.32604748
21	0xbd6471af	-0.05577248
22	0xbec0f25d	-0.37684909
23	0xbd26ccae	-0.04072254
24	0x3c5d162d	0.013494057
25	0x3d706dd3	0.058698487
26	0x3ea30dce	0.3184647
27	0xbcc7b156	-0.024376553
28	0xbe974947	-0.29548094
29	0xbe087393	-0.13325338
30	0x3efe363b	0.4965075
31	0x3ea0c2fe	0.31398767
32	0xbccdca79	-0.02512096
33	0xbefc5dc4	-0.49290287
34	0xbe8220c1	-0.25415614
35	0x3ec006c3	0.3750516
36	0xbed20d90	-0.41025972
37	0x3eac33bf	0.3363323
38	0x3e1631b6	0.146674
39	0xbe9ebfd8	-0.3100574
40	0x3ee5b27e	0.4486274
41	0x3edf4e87	0.436146
42	0xbe56deac	-0.2098338
43	0x3e85cf7f	0.2613487
44	0xbea34242	-0.31886488
45	0x3e8c4b0c	0.27401006
46	0xbea4a194	-0.32154524
47	0x3d8583c0	0.0651927
48	0xbf0f3caf	-0.5595197
49	0x3ed68377	0.41897175
50	0xbd8bfc34	-0.06835213
51	0xbce1c377	-0.027559025
52	0xbc1f1b12	-0.009711044
53	0x3e97b84b	0.29632792
54	0x3b2c964e	0.0026334706
55	0xbe898651	-0.26860288
56	0xbe5ec929	-0.21756424
57	0xbe4ff005	-0.20306404
58	0x3eacaa4b	0.33723673
59	0xbcec24b6	-0.028826099
60	0x3e279207	0.16364299
61	0x3e94b149	0.29041508
62	0x3dd1830c	0.10230073
63	0xbee064e1	-0.43826964
64	0x3ebe8c2a	0.37216312
65	0xbd5ca58a	-0.053868808
66	0x3eb0b63a	0.34514028
67	0xbeb02aa7	-0.3440754
68	0xbeef1345	-0.4669439
69	0xbd87dd32	-0.066339865
70	0x3c7b4b9b	0.01533785
71	0xbe201b0d	-0.15635319
72	0x3ec533f0	0.38516188
73	0xbf116372	-0.56792367
74	0xbf1a74e5	-0.60334617
75	0xbebc029d	-0.36720744
76	0x3ede7c63	0.43454275
77	0xbe99d59f	-0.30045792
78	0xbd427be8	-0.047481447
79	0x3d802834	0.06257668
80	0x3e9e1d8b	0.30881914
81	0x3e73bb98	0.2380203
82	0x3e92dabd	0.2868251
83	0x3ed6fc43	0.41989335
84	0x3ee5a94f	0.44855735
85	0xbf10c996	-0.56557596
86	0xbee49588	-0.44645333
87	0xbf0e4644	-0.55575967
88	0xbee8720b	-0.45399508
89	0xbef97fca	-0.48730308
90	0xbf10475a	-0.56358874
91	0xb8c43be3	-9.357163e-05
92	0x3eaa7a99	0.3329666
93	0xbdc3dba6	-0.09563379
94	0x3eed93b2	0.46401745
95	0xbca53108	-0.020164981
96	0x3e9a03b4	0.3008095
97	0xbec3d734	-0.38250124
98	0x3c794e9b	0.015216495
99	0x3edbca48	0.42927766
100	0xbe4ef531	-0.2021072
101	0x3ea7f432	0.32803494
102	0xbec8e332	-0.39235836
103	0xbf049683	-0.5179216
104	0xbe1affb7	-0.1513661
105	0x3ea9d355	0.33169046
106	0x3e486226	0.1956869
107	0xbe054d21	-0.13017704
108	0x3eab35ec	0.33439577
109	0xbe883278	-0.26601005
110	0xbedeb351	-0.43496183
111	0x3dfd9e91	0.1238376
112	0xbedb9fd9	-0.42895392
113	0x3e15a1cc	0.14612502
114	0xbe314c7c	-0.17314333
115	0x3e1f3b2f	0.1554992
116	0xbe98e689	-0.29863384
117	0xbedf7fb3	-0.43652114
118	0x3ebd87d7	0.370177
119	0x3dd49756	0.103804275
120	0x3e8d3e7e	0.2758674
121	0x3ea3920b	0.3194736
122	0xbe8a0f89	-0.26964977
123	0x3e959c28	0.292207
124	0xbe9d406a	-0.30713207
125	0x3bb06bf2	0.005383962
126	0xbdd4e5b8	-0.10395378
127	0x3e301f92	0.17199543

network.2.weight f4 [64, 128]
0	0x3cfff68c	0.031245492
1	0xbd0c4583	-0.03424598
2	0xbc7f8634	-0.015595961
3	0xbc76a004	-0.015052799
4	0x3d9086cc	0.070569605
5	0x3d22cf08	0.03974822
6	0xbd7eaa76	-0.062174283
7	0xbd1ec3a5	-0.0387608
8	0xbd55aca3	-0.052166592
9	0xbd5a856d	-0.0533499
10	0x3d168982	0.03675223
11	0xbdaaabc3	-0.08333542
12	0x3d9cfa37	0.07664912
13	0xbccb8247	-0.024842395
14	0xbc1c88bb	-0.009554083
15	0xbc838d01	-0.016058447
16	0xbd7a4a8c	-0.06110625
17	0xbd2ef344	-0.042712465
18	0x3d72e180	0.059297085
19	0x3db1c807	0.0868073
20	0xbd9fc2ed	-0.07800851
21	0x3c589931	0.013220117
22	0xbd3fa76c	-0.046790525
23	0x3cea2f24	0.028586932
24	0xbd8f556d	-0.069987155
25	0xbd53d763	-0.05171908
26	0x3d637cb7	0.05553886
27	0x3c477a5e	0.012175171
28	0x3da392f5	0.07987014
29	0x3bacb437	0.0052705067
30	0xbba25a6d	-0.0049546272
31	0xbd6818a2	-0.056664117
32	0x3d4b13a8	0.049579293
33	0xba085e91	-0.000520208
34	0x3b51d4c9	0.00320177
35	0x3c363a28	0.011122264
36	0xbd4917e1	-0.04909504
37	0xbb9d96be	-0.0048092296
38	0xbbb83db1	-0.0056225886
39	0x3c45b939	0.012068086
40	0x3d36bf3e	0.044615977
41	0xbd5723cf	-0.052524384
42	0x3cbc31be	0.022972938
43	0x3d083a9a	0.03325901
44	0xbc90a811	-0.017658265
45	0xbc164976	-0.009172788
46	0xbd2bca0b	-0.04194073
47	0x3bfeb6ea	0.00777327
48	0x3c32c957	0.010912261
49	0xbd0fd0e9	-0.03511134
50	0x3c3af2a9	0.011410394
51	0xbd03242f	-0.03201693
52	0xbda642c4	-0.08118203
53	0xbd686c92	-0.056744166
54	0xbd8e5e96	-0.069516346
55	0xbda06f90	-0.07833779
56	0xbd6e5d0f	-0.058194216
57	0xbdac2c07	-0.08406835
58	0x3ba8df89	0.0051536006
59	0x3ba5bc18	0.005057823
60	0x3d60ad15	0.054852564
61	0x3d48e1be	0.04904341
62	0xbc31e3ee	-0.010857565
63	0x3ce841b1	0.028351637
64	0x3d6a3414	0.05717857
65	0xbd63747a	-0.055531003
66	0x3ce45e6a	0.027877051
67	0x3b345bf3	0.0027520626
68	0x3d08f608	0.03343776
69	0xbd1734ef	-0.036915716
70	0xbd98f711	-0.07468999
71	0x3d9e8563	0.07740285
72	0x3d7b918d	0.061418105
73	0xbd6ab0da	-0.057297565
74	0x3d91f696	0.07127111
75	0x3d6bf90a	0.05761055
76	0x3d854b1b	0.06508466
77	0xbdaa52e0	-0.083165884
78	0xbc0235f2	-0.007947432
79	0x3d14bf8b	0.036315482
80	0xbdb8ce70	-0.0902375
81	0x3bae0d16	0.0053116186
82	0x3d09fdf7	0.033689465
83	0xbd34ed32	-0.04417152
84	0x3d1cf08d	0.038315345
85	0x3d8a6568	0.06757623
86	0xbd934d29	-0.071924515
87	0xbd8d243a	-0.06891675
88	0xbd8dd237	-0.06924861
89	0xbd81760d	-0.063213445
90	0x3cfa9df6	0.0305929
91	0xbd8a0186	-0.06738572
92	0x3c853511	0.016260656
93	0xbd5dc1c1	-0.054139856
94	0xbd82065e	-0.06348871
95	0x3d1f50bf	0.038895365
96	0x3cdf6e4c	0.027274273
97	0x3cc33b2b	0.023831924
98	0xbd8ea9ac	-0.06965956
99	0x3ae7c821	0.0017683544
100	0x3c324f1a	0.010883117
101	0x3d74386f	0.05962413
102	0xbda18e6c	-0.07888493
103	0xbd8d52c2	-0.069005504
104	0x3d8ab44d	0.06772671
105	0xbd7fd990	-0.062463343
106	0xbd316bcf	-0.043315705
107	0x3d930e44	0.07180455
108	0xbd0da38d	-0.034579802
109	0xbdb3a905	-0.08772472
110	0xbca7598b	-0.02042844
111	0xbb47e57e	-0.0030501778
112	0x3c4f12b1	0.012638734
113	0x3d8267de	0.06367467
114	0xbca00ddb	-0.019537857
115	0x3cdb494d	0.026768351
116	0x3d8dc7d6	0.06922881
117	0xbb267104	-0.0025396952
118	0x3d734b43	0.059397947
119	0xbdbe8746	-0.09303145
120	0xbcce3a10	-0.02517417
121	0x3dad70f9	0.084688134
122	0xbd61b25b	-0.055101734
123	0xbd96e17d	-0.07367227
124	0xbc835496	-0.016031545
125	0xbd2b7e24	-0.041868344
126	0x3ca3e97c	0.020008795
127	0x3d15b5a7	0.03655019
128	0xbd7c21b6	-0.061555587
129	0xbd9af51d	-0.07566283
130	0xbd5aea69	-0.053446207
131	0xbd668d2d	-0.05628698
132	0x3ade90e5	0.0016980438
133	0x3d61dd86	0.0551429
134	0xbc95681d	-0.018238122
135	0xbcf6da99	-0.030133532
136	0x3d11a248	0.035555154
137	0xbbe0efaf	-0.00686451
138	0xbd443c06	-0.047908805
139	0x3d6df2b8	0.058092803
140	0x3d4d3f4e	0.0501092
141	0x3bd5a7dc	0.0065202545
142	0xbcac9fcf	-0.021072296
143	0x3d9328f1	0.07185543
144	0x3d032338	0.03201601
145	0xbd3eb0ac	-0.046555206
146	0x3d1c4510	0.0381518
147	0xbd5cd007	-0.053909328
148	0x3caa0902	0.020756248
149	0x3d5a9036	0.053360187
150	0x3d3815cb	0.04494266
151	0x3c96b469	0.018396573
152	0x3dadabd0	0.08480036
153	0x3bf942e8	0.007606853
154	0xbd77ffbc	-0.06054662
155	0xbd66ae7f	-0.056318756
156	0x3cb10460	0.021608531
157	0xbcc78d59	-0.024359392
158	0x3b2476e8	0.0025095288
159	0x3a1e48c1	0.0006038063
160	0xbc05a9d3	-0.008158165
161	0xbd191c4f	-0.037380513
162	0x3c1e6148	0.009666748
163	0xbd4d8cad	-0.050182987
164	0x3d912040	0.07086229
165	0xbd01fe0f	-0.03173643
166	0xbd89c0ec	-0.0672625
167	0x3c1f3d0f	0.009719147
168	0xbd37436b	-0.04474203
169	0xbd1ff75f	-0.03905427
170	0xbda7fa35	-0.0820202
171	0x3d53f957	0.05175146
172	0x3d8bee07	0.068325095
173	0xbc51420e	-0.012772096
174	0x3cc60071	0.024170132
175	0xbdb18947	-0.08668762
176	0x3d62ffec	0.055419847
177	0x3dac40b0	0.08410776
178	0x3c4a7ec0	0.012359321
179	0xbd87270b	-0.06599244
180	0xbdb3f12b	-0.087862335
181	0xbc769faa	-0.015052715
182	0xbc71a9f7	-0.014749995
183	0x3d9ffbff	0.07811736
184	0x3c2c2ef5	0.010509242
185	0xbd84c732	-0.06483306
186	0xbdb069e5	-0.08613948
187	0xb88363a8	-6.265129e-05
188	0x3d98e837	0.074661665
189	0x3cc75e92	0.024337087
190	0xbd993781	-0.0748129
191	0xbd10bbe0	-0.03533542
192	0xbd556c10	-0.05210501
193	0xbd6d0b38	-0.057872027
194	0xbda0eaa3	-0.078572534
195	0x3d847110	0.064668775
196	0xbdad3fa3	-0.08459403
197	0x3cb4d450	0.022073895
198	0x3d752f7b	0.059859734
199	0x3cb386f5	0.021914938
200	0xbd80ea94	-0.06294742
201	0x3d5d6c7c	0.054058537
202	0xbc9dc4ae	-0.019258823
203	0xbd913073	-0.07089319
204	0x3da3652f	0.079782836
205	0xbd73d522	-0.05952943
206	0x3a8dde6b	0.0010823732
207	0x3ba73caa	0.0051036673
208	0xbd0203f2	-0.031742044
209	0x3d52f460	0.051502585
210	0xbd6906a5	-0.056891102
211	0x3d63a826	0.05558028
212	0xbd6c9324	-0.05775751
213	0x3d59a467	0.053135302
214	0xbd9c5e4e	-0.07635175
215	0xbd84b925	-0.06480626
216	0xbda42932	-0.0801567
217	0xbdad63bc	-0.084662884
218	0x3bc4f7c9	0.0060109836
219	0x3d20dfad	0.039275814
220	0x3dadcc21	0.084862
221	0x3db01684	0.085980445
222	0x3bc84f79	0.0061129895
223	0xbdadc31f	-0.08484482
224	0xbdb1e7ff	-0.08686828
225	0xbcc9fe63	-0.024657434
226	0xbd008386	-0.03137543
227	0xbc835d3f	-0.016035674
228	0xbd747b2e	-0.059687786
229	0xbcf4068a	-0.029788274
230	0xbd4ca8ab	-0.04996554
231	0xbcce5634	-0.02518759
232	0xbd25ba68	-0.040460974
233	0x3d8c0e62	0.06838681
234	0x3db33718	0.08750743
235	0xbdb2427a	-0.08704086
236	0xbd23c7da	-0.039985515
237	0xbcc67a2c	-0.024228178
238	0xbd03c3ad	-0.032169033
239	0x3da2c8da	0.07948466
240	0xbc62e0a5	-0.013847505
241	0x3c3c7a7e	0.011503814
242	0x3d42c2f9	0.04754922
243	0xbc96df25	-0.01841695
244	0x3d212f70	0.03935188
245	0xbd40d0ba	-0.047074057
246	0xbc8a23cd	-0.016862774
247	0xbda3f214	-0.08005157
248	0x3d5da39b	0.054111104
249	0x3db0611c	0.08612272
250	0x3dae8d78	0.08523077
251	0xbca13058	-0.019676372
252	0xbb105336	-0.0022022254
253	0x3c8b2e4b	0.016989848
254	0x3cf8cd05	0.030371198
255	0xbd298c1d	-0.041393388

network.2.bias f4 [64]
0	0xbb849367	-0.004045892
1	0xbd36116b	-0.044450205
2	0x3c4441ed	0.011978609
3	0x3c44880f	0.0119953295
4	0xbdccc08b	-0.09997662
5	0xbd6180e1	-0.05505455
6	0xbd919948	-0.07109314
7	0xbd3a4844	-0.045479074
8	0xbde38e51	-0.11111129
9	0xbdbafd26	-0.091303155
10	0xbcf06f41	-0.029349925
11	0xbd80395d	-0.06260941
12	0x3d76b01c	0.060226545
13	0x3d3b65ae	0.045751266
14	0x3c7fe256	0.015617928
15	0xbd708940	-0.05872464
16	0xbd34cb57	-0.044139232
17	0xbd128491	-0.035770956
18	0xbded02ae	-0.11572777
19	0x3d3fde9d	0.04684316
20	0x3c5a841f	0.013337164
21	0xbccec62c	-0.02524098
22	0x3d77a07e	0.06045579
23	0xbd50dca7	-0.05099168
24	0xbc6801d5	-0.014160593
25	0xbbe70132	-0.007049703
26	0xbd20b70d	-0.03923707
27	0xbb1313a1	-0.002244212
28	0x3ba95fb0	0.0051688775
29	0xbcf164ef	-0.029467074
30	0x3d400286	0.046877407
31	0xbde693fe	-0.11258696
32	0xbd03fc7a	-0.032223202
33	0xbcf4c165	-0.029877374
34	0xbd123e2d	-0.035703827
35	0xbd909154	-0.07058969
36	0xbd75c3a5	-0.060001034
37	0x3c92a330	0.01790008
38	0xbca16cef	-0.019705264
39	0x3c78ef6a	0.0151937995
40	0xbd8f395f	-0.069933645
41	0xbcb84995	-0.022496024
42	0xbdf47417	-0.11936205
43	0xbd882548	-0.06647736
44	0xbd1c035a	-0.038089134
45	0x3d2cf9e4	0.0422305
46	0xbde086ca	-0.10963209
47	0xbe06f250	-0.13178372
48	0x3c949751	0.01813856
49	0x3cb8c655	0.02255551
50	0x3d916027	0.07098418
51	0xbdbc387a	-0.091904595
52	0x3da9e3a3	0.082953714
53	0x3bd0e28c	0.0063746627
54	0x3d1dd460	0.038532615
55	0x3d073d15	0.033017237
56	0xbd8e2047	-0.0693975
57	0xbd98f760	-0.07469058
58	0xbc49b4d3	-0.012311178
59	0xbd4f8d0b	-0.05067162
60	0xbd860d44	-0.06545499
61	0xb9307151	-0.00016826882
62	0x3d3a2c24	0.045452252
63	0xbc42383f	-0.01185423
